{
  "format": "layers-model",
  "generatedBy": "keras 3.x",
  "convertedBy": "manual",
  "modelTopology": {
    "module": "keras.src.models.functional",
    "class_name": "Functional",
    "config": {
      "name": "specialist_vgg16",
      "trainable": true,
      "layers": [
        {
          "module": "keras.layers",
          "class_name": "InputLayer",
          "config": {
            "batch_input_shape": [
              null,
              224,
              224,
              3
            ],
            "dtype": "float32",
            "sparse": false,
            "ragged": false,
            "name": "specialist_vgg16_input"
          },
          "registered_name": null,
          "name": "specialist_vgg16_input",
          "inbound_nodes": []
        },
        {
          "module": "keras.layers",
          "class_name": "Conv2D",
          "config": {
            "name": "block1_conv1",
            "trainable": false,
            "dtype": {
              "module": "keras",
              "class_name": "DTypePolicy",
              "config": {
                "name": "float32"
              },
              "registered_name": null
            },
            "filters": 64,
            "kernel_size": [
              3,
              3
            ],
            "strides": [
              1,
              1
            ],
            "padding": "same",
            "data_format": "channels_last",
            "dilation_rate": [
              1,
              1
            ],
            "groups": 1,
            "activation": "relu",
            "use_bias": true,
            "kernel_initializer": {
              "module": "keras.initializers",
              "class_name": "GlorotUniform",
              "config": {
                "seed": null
              },
              "registered_name": null
            },
            "bias_initializer": {
              "module": "keras.initializers",
              "class_name": "Zeros",
              "config": {},
              "registered_name": null
            },
            "kernel_regularizer": null,
            "bias_regularizer": null,
            "activity_regularizer": null,
            "kernel_constraint": null,
            "bias_constraint": null
          },
          "registered_name": null,
          "build_config": {
            "input_shape": [
              null,
              224,
              224,
              3
            ]
          },
          "name": "block1_conv1",
          "inbound_nodes": [
            {
              "args": [
                {
                  "class_name": "__keras_tensor__",
                  "config": {
                    "shape": [
                      null,
                      224,
                      224,
                      3
                    ],
                    "dtype": "float32",
                    "keras_history": [
                      "specialist_vgg16_input",
                      0,
                      0
                    ]
                  }
                }
              ],
              "kwargs": {}
            }
          ]
        },
        {
          "module": "keras.layers",
          "class_name": "Conv2D",
          "config": {
            "name": "block1_conv2",
            "trainable": false,
            "dtype": {
              "module": "keras",
              "class_name": "DTypePolicy",
              "config": {
                "name": "float32"
              },
              "registered_name": null,
              "shared_object_id": 133455377387776
            },
            "filters": 64,
            "kernel_size": [
              3,
              3
            ],
            "strides": [
              1,
              1
            ],
            "padding": "same",
            "data_format": "channels_last",
            "dilation_rate": [
              1,
              1
            ],
            "groups": 1,
            "activation": "relu",
            "use_bias": true,
            "kernel_initializer": {
              "module": "keras.initializers",
              "class_name": "GlorotUniform",
              "config": {
                "seed": null
              },
              "registered_name": null
            },
            "bias_initializer": {
              "module": "keras.initializers",
              "class_name": "Zeros",
              "config": {},
              "registered_name": null
            },
            "kernel_regularizer": null,
            "bias_regularizer": null,
            "activity_regularizer": null,
            "kernel_constraint": null,
            "bias_constraint": null
          },
          "registered_name": null,
          "build_config": {
            "input_shape": [
              null,
              224,
              224,
              64
            ]
          },
          "name": "block1_conv2",
          "inbound_nodes": [
            {
              "args": [
                {
                  "class_name": "__keras_tensor__",
                  "config": {
                    "shape": [
                      null,
                      224,
                      224,
                      64
                    ],
                    "dtype": "float32",
                    "keras_history": [
                      "block1_conv1",
                      0,
                      0
                    ]
                  }
                }
              ],
              "kwargs": {}
            }
          ]
        },
        {
          "module": "keras.layers",
          "class_name": "MaxPooling2D",
          "config": {
            "name": "block1_pool",
            "trainable": false,
            "dtype": {
              "module": "keras",
              "class_name": "DTypePolicy",
              "config": {
                "name": "float32"
              },
              "registered_name": null,
              "shared_object_id": 133455377387776
            },
            "pool_size": [
              2,
              2
            ],
            "padding": "valid",
            "strides": [
              2,
              2
            ],
            "data_format": "channels_last"
          },
          "registered_name": null,
          "name": "block1_pool",
          "inbound_nodes": [
            {
              "args": [
                {
                  "class_name": "__keras_tensor__",
                  "config": {
                    "shape": [
                      null,
                      224,
                      224,
                      64
                    ],
                    "dtype": "float32",
                    "keras_history": [
                      "block1_conv2",
                      0,
                      0
                    ]
                  }
                }
              ],
              "kwargs": {}
            }
          ]
        },
        {
          "module": "keras.layers",
          "class_name": "Conv2D",
          "config": {
            "name": "block2_conv1",
            "trainable": false,
            "dtype": {
              "module": "keras",
              "class_name": "DTypePolicy",
              "config": {
                "name": "float32"
              },
              "registered_name": null,
              "shared_object_id": 133455377387776
            },
            "filters": 128,
            "kernel_size": [
              3,
              3
            ],
            "strides": [
              1,
              1
            ],
            "padding": "same",
            "data_format": "channels_last",
            "dilation_rate": [
              1,
              1
            ],
            "groups": 1,
            "activation": "relu",
            "use_bias": true,
            "kernel_initializer": {
              "module": "keras.initializers",
              "class_name": "GlorotUniform",
              "config": {
                "seed": null
              },
              "registered_name": null
            },
            "bias_initializer": {
              "module": "keras.initializers",
              "class_name": "Zeros",
              "config": {},
              "registered_name": null
            },
            "kernel_regularizer": null,
            "bias_regularizer": null,
            "activity_regularizer": null,
            "kernel_constraint": null,
            "bias_constraint": null
          },
          "registered_name": null,
          "build_config": {
            "input_shape": [
              null,
              112,
              112,
              64
            ]
          },
          "name": "block2_conv1",
          "inbound_nodes": [
            {
              "args": [
                {
                  "class_name": "__keras_tensor__",
                  "config": {
                    "shape": [
                      null,
                      112,
                      112,
                      64
                    ],
                    "dtype": "float32",
                    "keras_history": [
                      "block1_pool",
                      0,
                      0
                    ]
                  }
                }
              ],
              "kwargs": {}
            }
          ]
        },
        {
          "module": "keras.layers",
          "class_name": "Conv2D",
          "config": {
            "name": "block2_conv2",
            "trainable": false,
            "dtype": {
              "module": "keras",
              "class_name": "DTypePolicy",
              "config": {
                "name": "float32"
              },
              "registered_name": null,
              "shared_object_id": 133455377387776
            },
            "filters": 128,
            "kernel_size": [
              3,
              3
            ],
            "strides": [
              1,
              1
            ],
            "padding": "same",
            "data_format": "channels_last",
            "dilation_rate": [
              1,
              1
            ],
            "groups": 1,
            "activation": "relu",
            "use_bias": true,
            "kernel_initializer": {
              "module": "keras.initializers",
              "class_name": "GlorotUniform",
              "config": {
                "seed": null
              },
              "registered_name": null
            },
            "bias_initializer": {
              "module": "keras.initializers",
              "class_name": "Zeros",
              "config": {},
              "registered_name": null
            },
            "kernel_regularizer": null,
            "bias_regularizer": null,
            "activity_regularizer": null,
            "kernel_constraint": null,
            "bias_constraint": null
          },
          "registered_name": null,
          "build_config": {
            "input_shape": [
              null,
              112,
              112,
              128
            ]
          },
          "name": "block2_conv2",
          "inbound_nodes": [
            {
              "args": [
                {
                  "class_name": "__keras_tensor__",
                  "config": {
                    "shape": [
                      null,
                      112,
                      112,
                      128
                    ],
                    "dtype": "float32",
                    "keras_history": [
                      "block2_conv1",
                      0,
                      0
                    ]
                  }
                }
              ],
              "kwargs": {}
            }
          ]
        },
        {
          "module": "keras.layers",
          "class_name": "MaxPooling2D",
          "config": {
            "name": "block2_pool",
            "trainable": false,
            "dtype": {
              "module": "keras",
              "class_name": "DTypePolicy",
              "config": {
                "name": "float32"
              },
              "registered_name": null,
              "shared_object_id": 133455377387776
            },
            "pool_size": [
              2,
              2
            ],
            "padding": "valid",
            "strides": [
              2,
              2
            ],
            "data_format": "channels_last"
          },
          "registered_name": null,
          "name": "block2_pool",
          "inbound_nodes": [
            {
              "args": [
                {
                  "class_name": "__keras_tensor__",
                  "config": {
                    "shape": [
                      null,
                      112,
                      112,
                      128
                    ],
                    "dtype": "float32",
                    "keras_history": [
                      "block2_conv2",
                      0,
                      0
                    ]
                  }
                }
              ],
              "kwargs": {}
            }
          ]
        },
        {
          "module": "keras.layers",
          "class_name": "Conv2D",
          "config": {
            "name": "block3_conv1",
            "trainable": false,
            "dtype": {
              "module": "keras",
              "class_name": "DTypePolicy",
              "config": {
                "name": "float32"
              },
              "registered_name": null,
              "shared_object_id": 133455377387776
            },
            "filters": 256,
            "kernel_size": [
              3,
              3
            ],
            "strides": [
              1,
              1
            ],
            "padding": "same",
            "data_format": "channels_last",
            "dilation_rate": [
              1,
              1
            ],
            "groups": 1,
            "activation": "relu",
            "use_bias": true,
            "kernel_initializer": {
              "module": "keras.initializers",
              "class_name": "GlorotUniform",
              "config": {
                "seed": null
              },
              "registered_name": null
            },
            "bias_initializer": {
              "module": "keras.initializers",
              "class_name": "Zeros",
              "config": {},
              "registered_name": null
            },
            "kernel_regularizer": null,
            "bias_regularizer": null,
            "activity_regularizer": null,
            "kernel_constraint": null,
            "bias_constraint": null
          },
          "registered_name": null,
          "build_config": {
            "input_shape": [
              null,
              56,
              56,
              128
            ]
          },
          "name": "block3_conv1",
          "inbound_nodes": [
            {
              "args": [
                {
                  "class_name": "__keras_tensor__",
                  "config": {
                    "shape": [
                      null,
                      56,
                      56,
                      128
                    ],
                    "dtype": "float32",
                    "keras_history": [
                      "block2_pool",
                      0,
                      0
                    ]
                  }
                }
              ],
              "kwargs": {}
            }
          ]
        },
        {
          "module": "keras.layers",
          "class_name": "Conv2D",
          "config": {
            "name": "block3_conv2",
            "trainable": false,
            "dtype": {
              "module": "keras",
              "class_name": "DTypePolicy",
              "config": {
                "name": "float32"
              },
              "registered_name": null,
              "shared_object_id": 133455377387776
            },
            "filters": 256,
            "kernel_size": [
              3,
              3
            ],
            "strides": [
              1,
              1
            ],
            "padding": "same",
            "data_format": "channels_last",
            "dilation_rate": [
              1,
              1
            ],
            "groups": 1,
            "activation": "relu",
            "use_bias": true,
            "kernel_initializer": {
              "module": "keras.initializers",
              "class_name": "GlorotUniform",
              "config": {
                "seed": null
              },
              "registered_name": null
            },
            "bias_initializer": {
              "module": "keras.initializers",
              "class_name": "Zeros",
              "config": {},
              "registered_name": null
            },
            "kernel_regularizer": null,
            "bias_regularizer": null,
            "activity_regularizer": null,
            "kernel_constraint": null,
            "bias_constraint": null
          },
          "registered_name": null,
          "build_config": {
            "input_shape": [
              null,
              56,
              56,
              256
            ]
          },
          "name": "block3_conv2",
          "inbound_nodes": [
            {
              "args": [
                {
                  "class_name": "__keras_tensor__",
                  "config": {
                    "shape": [
                      null,
                      56,
                      56,
                      256
                    ],
                    "dtype": "float32",
                    "keras_history": [
                      "block3_conv1",
                      0,
                      0
                    ]
                  }
                }
              ],
              "kwargs": {}
            }
          ]
        },
        {
          "module": "keras.layers",
          "class_name": "Conv2D",
          "config": {
            "name": "block3_conv3",
            "trainable": false,
            "dtype": {
              "module": "keras",
              "class_name": "DTypePolicy",
              "config": {
                "name": "float32"
              },
              "registered_name": null,
              "shared_object_id": 133455377387776
            },
            "filters": 256,
            "kernel_size": [
              3,
              3
            ],
            "strides": [
              1,
              1
            ],
            "padding": "same",
            "data_format": "channels_last",
            "dilation_rate": [
              1,
              1
            ],
            "groups": 1,
            "activation": "relu",
            "use_bias": true,
            "kernel_initializer": {
              "module": "keras.initializers",
              "class_name": "GlorotUniform",
              "config": {
                "seed": null
              },
              "registered_name": null
            },
            "bias_initializer": {
              "module": "keras.initializers",
              "class_name": "Zeros",
              "config": {},
              "registered_name": null
            },
            "kernel_regularizer": null,
            "bias_regularizer": null,
            "activity_regularizer": null,
            "kernel_constraint": null,
            "bias_constraint": null
          },
          "registered_name": null,
          "build_config": {
            "input_shape": [
              null,
              56,
              56,
              256
            ]
          },
          "name": "block3_conv3",
          "inbound_nodes": [
            {
              "args": [
                {
                  "class_name": "__keras_tensor__",
                  "config": {
                    "shape": [
                      null,
                      56,
                      56,
                      256
                    ],
                    "dtype": "float32",
                    "keras_history": [
                      "block3_conv2",
                      0,
                      0
                    ]
                  }
                }
              ],
              "kwargs": {}
            }
          ]
        },
        {
          "module": "keras.layers",
          "class_name": "MaxPooling2D",
          "config": {
            "name": "block3_pool",
            "trainable": false,
            "dtype": {
              "module": "keras",
              "class_name": "DTypePolicy",
              "config": {
                "name": "float32"
              },
              "registered_name": null,
              "shared_object_id": 133455377387776
            },
            "pool_size": [
              2,
              2
            ],
            "padding": "valid",
            "strides": [
              2,
              2
            ],
            "data_format": "channels_last"
          },
          "registered_name": null,
          "name": "block3_pool",
          "inbound_nodes": [
            {
              "args": [
                {
                  "class_name": "__keras_tensor__",
                  "config": {
                    "shape": [
                      null,
                      56,
                      56,
                      256
                    ],
                    "dtype": "float32",
                    "keras_history": [
                      "block3_conv3",
                      0,
                      0
                    ]
                  }
                }
              ],
              "kwargs": {}
            }
          ]
        },
        {
          "module": "keras.layers",
          "class_name": "Conv2D",
          "config": {
            "name": "block4_conv1",
            "trainable": false,
            "dtype": {
              "module": "keras",
              "class_name": "DTypePolicy",
              "config": {
                "name": "float32"
              },
              "registered_name": null,
              "shared_object_id": 133455377387776
            },
            "filters": 512,
            "kernel_size": [
              3,
              3
            ],
            "strides": [
              1,
              1
            ],
            "padding": "same",
            "data_format": "channels_last",
            "dilation_rate": [
              1,
              1
            ],
            "groups": 1,
            "activation": "relu",
            "use_bias": true,
            "kernel_initializer": {
              "module": "keras.initializers",
              "class_name": "GlorotUniform",
              "config": {
                "seed": null
              },
              "registered_name": null
            },
            "bias_initializer": {
              "module": "keras.initializers",
              "class_name": "Zeros",
              "config": {},
              "registered_name": null
            },
            "kernel_regularizer": null,
            "bias_regularizer": null,
            "activity_regularizer": null,
            "kernel_constraint": null,
            "bias_constraint": null
          },
          "registered_name": null,
          "build_config": {
            "input_shape": [
              null,
              28,
              28,
              256
            ]
          },
          "name": "block4_conv1",
          "inbound_nodes": [
            {
              "args": [
                {
                  "class_name": "__keras_tensor__",
                  "config": {
                    "shape": [
                      null,
                      28,
                      28,
                      256
                    ],
                    "dtype": "float32",
                    "keras_history": [
                      "block3_pool",
                      0,
                      0
                    ]
                  }
                }
              ],
              "kwargs": {}
            }
          ]
        },
        {
          "module": "keras.layers",
          "class_name": "Conv2D",
          "config": {
            "name": "block4_conv2",
            "trainable": false,
            "dtype": {
              "module": "keras",
              "class_name": "DTypePolicy",
              "config": {
                "name": "float32"
              },
              "registered_name": null,
              "shared_object_id": 133455377387776
            },
            "filters": 512,
            "kernel_size": [
              3,
              3
            ],
            "strides": [
              1,
              1
            ],
            "padding": "same",
            "data_format": "channels_last",
            "dilation_rate": [
              1,
              1
            ],
            "groups": 1,
            "activation": "relu",
            "use_bias": true,
            "kernel_initializer": {
              "module": "keras.initializers",
              "class_name": "GlorotUniform",
              "config": {
                "seed": null
              },
              "registered_name": null
            },
            "bias_initializer": {
              "module": "keras.initializers",
              "class_name": "Zeros",
              "config": {},
              "registered_name": null
            },
            "kernel_regularizer": null,
            "bias_regularizer": null,
            "activity_regularizer": null,
            "kernel_constraint": null,
            "bias_constraint": null
          },
          "registered_name": null,
          "build_config": {
            "input_shape": [
              null,
              28,
              28,
              512
            ]
          },
          "name": "block4_conv2",
          "inbound_nodes": [
            {
              "args": [
                {
                  "class_name": "__keras_tensor__",
                  "config": {
                    "shape": [
                      null,
                      28,
                      28,
                      512
                    ],
                    "dtype": "float32",
                    "keras_history": [
                      "block4_conv1",
                      0,
                      0
                    ]
                  }
                }
              ],
              "kwargs": {}
            }
          ]
        },
        {
          "module": "keras.layers",
          "class_name": "Conv2D",
          "config": {
            "name": "block4_conv3",
            "trainable": true,
            "dtype": {
              "module": "keras",
              "class_name": "DTypePolicy",
              "config": {
                "name": "float32"
              },
              "registered_name": null,
              "shared_object_id": 133455377387776
            },
            "filters": 512,
            "kernel_size": [
              3,
              3
            ],
            "strides": [
              1,
              1
            ],
            "padding": "same",
            "data_format": "channels_last",
            "dilation_rate": [
              1,
              1
            ],
            "groups": 1,
            "activation": "relu",
            "use_bias": true,
            "kernel_initializer": {
              "module": "keras.initializers",
              "class_name": "GlorotUniform",
              "config": {
                "seed": null
              },
              "registered_name": null
            },
            "bias_initializer": {
              "module": "keras.initializers",
              "class_name": "Zeros",
              "config": {},
              "registered_name": null
            },
            "kernel_regularizer": null,
            "bias_regularizer": null,
            "activity_regularizer": null,
            "kernel_constraint": null,
            "bias_constraint": null
          },
          "registered_name": null,
          "build_config": {
            "input_shape": [
              null,
              28,
              28,
              512
            ]
          },
          "name": "block4_conv3",
          "inbound_nodes": [
            {
              "args": [
                {
                  "class_name": "__keras_tensor__",
                  "config": {
                    "shape": [
                      null,
                      28,
                      28,
                      512
                    ],
                    "dtype": "float32",
                    "keras_history": [
                      "block4_conv2",
                      0,
                      0
                    ]
                  }
                }
              ],
              "kwargs": {}
            }
          ]
        },
        {
          "module": "keras.layers",
          "class_name": "MaxPooling2D",
          "config": {
            "name": "block4_pool",
            "trainable": true,
            "dtype": {
              "module": "keras",
              "class_name": "DTypePolicy",
              "config": {
                "name": "float32"
              },
              "registered_name": null,
              "shared_object_id": 133455377387776
            },
            "pool_size": [
              2,
              2
            ],
            "padding": "valid",
            "strides": [
              2,
              2
            ],
            "data_format": "channels_last"
          },
          "registered_name": null,
          "name": "block4_pool",
          "inbound_nodes": [
            {
              "args": [
                {
                  "class_name": "__keras_tensor__",
                  "config": {
                    "shape": [
                      null,
                      28,
                      28,
                      512
                    ],
                    "dtype": "float32",
                    "keras_history": [
                      "block4_conv3",
                      0,
                      0
                    ]
                  }
                }
              ],
              "kwargs": {}
            }
          ]
        },
        {
          "module": "keras.layers",
          "class_name": "Conv2D",
          "config": {
            "name": "block5_conv1",
            "trainable": true,
            "dtype": {
              "module": "keras",
              "class_name": "DTypePolicy",
              "config": {
                "name": "float32"
              },
              "registered_name": null,
              "shared_object_id": 133455377387776
            },
            "filters": 512,
            "kernel_size": [
              3,
              3
            ],
            "strides": [
              1,
              1
            ],
            "padding": "same",
            "data_format": "channels_last",
            "dilation_rate": [
              1,
              1
            ],
            "groups": 1,
            "activation": "relu",
            "use_bias": true,
            "kernel_initializer": {
              "module": "keras.initializers",
              "class_name": "GlorotUniform",
              "config": {
                "seed": null
              },
              "registered_name": null
            },
            "bias_initializer": {
              "module": "keras.initializers",
              "class_name": "Zeros",
              "config": {},
              "registered_name": null
            },
            "kernel_regularizer": null,
            "bias_regularizer": null,
            "activity_regularizer": null,
            "kernel_constraint": null,
            "bias_constraint": null
          },
          "registered_name": null,
          "build_config": {
            "input_shape": [
              null,
              14,
              14,
              512
            ]
          },
          "name": "block5_conv1",
          "inbound_nodes": [
            {
              "args": [
                {
                  "class_name": "__keras_tensor__",
                  "config": {
                    "shape": [
                      null,
                      14,
                      14,
                      512
                    ],
                    "dtype": "float32",
                    "keras_history": [
                      "block4_pool",
                      0,
                      0
                    ]
                  }
                }
              ],
              "kwargs": {}
            }
          ]
        },
        {
          "module": "keras.layers",
          "class_name": "Conv2D",
          "config": {
            "name": "block5_conv2",
            "trainable": true,
            "dtype": {
              "module": "keras",
              "class_name": "DTypePolicy",
              "config": {
                "name": "float32"
              },
              "registered_name": null,
              "shared_object_id": 133455377387776
            },
            "filters": 512,
            "kernel_size": [
              3,
              3
            ],
            "strides": [
              1,
              1
            ],
            "padding": "same",
            "data_format": "channels_last",
            "dilation_rate": [
              1,
              1
            ],
            "groups": 1,
            "activation": "relu",
            "use_bias": true,
            "kernel_initializer": {
              "module": "keras.initializers",
              "class_name": "GlorotUniform",
              "config": {
                "seed": null
              },
              "registered_name": null
            },
            "bias_initializer": {
              "module": "keras.initializers",
              "class_name": "Zeros",
              "config": {},
              "registered_name": null
            },
            "kernel_regularizer": null,
            "bias_regularizer": null,
            "activity_regularizer": null,
            "kernel_constraint": null,
            "bias_constraint": null
          },
          "registered_name": null,
          "build_config": {
            "input_shape": [
              null,
              14,
              14,
              512
            ]
          },
          "name": "block5_conv2",
          "inbound_nodes": [
            {
              "args": [
                {
                  "class_name": "__keras_tensor__",
                  "config": {
                    "shape": [
                      null,
                      14,
                      14,
                      512
                    ],
                    "dtype": "float32",
                    "keras_history": [
                      "block5_conv1",
                      0,
                      0
                    ]
                  }
                }
              ],
              "kwargs": {}
            }
          ]
        },
        {
          "module": "keras.layers",
          "class_name": "Conv2D",
          "config": {
            "name": "block5_conv3",
            "trainable": true,
            "dtype": {
              "module": "keras",
              "class_name": "DTypePolicy",
              "config": {
                "name": "float32"
              },
              "registered_name": null,
              "shared_object_id": 133455377387776
            },
            "filters": 512,
            "kernel_size": [
              3,
              3
            ],
            "strides": [
              1,
              1
            ],
            "padding": "same",
            "data_format": "channels_last",
            "dilation_rate": [
              1,
              1
            ],
            "groups": 1,
            "activation": "relu",
            "use_bias": true,
            "kernel_initializer": {
              "module": "keras.initializers",
              "class_name": "GlorotUniform",
              "config": {
                "seed": null
              },
              "registered_name": null
            },
            "bias_initializer": {
              "module": "keras.initializers",
              "class_name": "Zeros",
              "config": {},
              "registered_name": null
            },
            "kernel_regularizer": null,
            "bias_regularizer": null,
            "activity_regularizer": null,
            "kernel_constraint": null,
            "bias_constraint": null
          },
          "registered_name": null,
          "build_config": {
            "input_shape": [
              null,
              14,
              14,
              512
            ]
          },
          "name": "block5_conv3",
          "inbound_nodes": [
            {
              "args": [
                {
                  "class_name": "__keras_tensor__",
                  "config": {
                    "shape": [
                      null,
                      14,
                      14,
                      512
                    ],
                    "dtype": "float32",
                    "keras_history": [
                      "block5_conv2",
                      0,
                      0
                    ]
                  }
                }
              ],
              "kwargs": {}
            }
          ]
        },
        {
          "module": "keras.layers",
          "class_name": "MaxPooling2D",
          "config": {
            "name": "block5_pool",
            "trainable": true,
            "dtype": {
              "module": "keras",
              "class_name": "DTypePolicy",
              "config": {
                "name": "float32"
              },
              "registered_name": null,
              "shared_object_id": 133455377387776
            },
            "pool_size": [
              2,
              2
            ],
            "padding": "valid",
            "strides": [
              2,
              2
            ],
            "data_format": "channels_last"
          },
          "registered_name": null,
          "name": "block5_pool",
          "inbound_nodes": [
            {
              "args": [
                {
                  "class_name": "__keras_tensor__",
                  "config": {
                    "shape": [
                      null,
                      14,
                      14,
                      512
                    ],
                    "dtype": "float32",
                    "keras_history": [
                      "block5_conv3",
                      0,
                      0
                    ]
                  }
                }
              ],
              "kwargs": {}
            }
          ]
        },
        {
          "module": "keras.layers",
          "class_name": "GlobalAveragePooling2D",
          "config": {
            "name": "global_average_pooling2d",
            "trainable": true,
            "dtype": {
              "module": "keras",
              "class_name": "DTypePolicy",
              "config": {
                "name": "float32"
              },
              "registered_name": null,
              "shared_object_id": 133455377387776
            },
            "data_format": "channels_last",
            "keepdims": false
          },
          "registered_name": null,
          "name": "global_average_pooling2d",
          "inbound_nodes": [
            {
              "args": [
                {
                  "class_name": "__keras_tensor__",
                  "config": {
                    "shape": [
                      null,
                      7,
                      7,
                      512
                    ],
                    "dtype": "float32",
                    "keras_history": [
                      "block5_pool",
                      0,
                      0
                    ]
                  }
                }
              ],
              "kwargs": {}
            }
          ]
        },
        {
          "module": "keras.layers",
          "class_name": "Dense",
          "config": {
            "name": "specialist_vgg16_fc1",
            "trainable": true,
            "dtype": {
              "module": "keras",
              "class_name": "DTypePolicy",
              "config": {
                "name": "float32"
              },
              "registered_name": null,
              "shared_object_id": 133455377387776
            },
            "units": 256,
            "activation": "relu",
            "use_bias": true,
            "kernel_initializer": {
              "module": "keras.initializers",
              "class_name": "GlorotUniform",
              "config": {
                "seed": null
              },
              "registered_name": null
            },
            "bias_initializer": {
              "module": "keras.initializers",
              "class_name": "Zeros",
              "config": {},
              "registered_name": null
            },
            "kernel_regularizer": null,
            "bias_regularizer": null,
            "kernel_constraint": null,
            "bias_constraint": null
          },
          "registered_name": null,
          "build_config": {
            "input_shape": [
              null,
              512
            ]
          },
          "name": "specialist_vgg16_fc1",
          "inbound_nodes": [
            {
              "args": [
                {
                  "class_name": "__keras_tensor__",
                  "config": {
                    "shape": [
                      null,
                      512
                    ],
                    "dtype": "float32",
                    "keras_history": [
                      "global_average_pooling2d",
                      0,
                      0
                    ]
                  }
                }
              ],
              "kwargs": {}
            }
          ]
        },
        {
          "module": "keras.layers",
          "class_name": "Dropout",
          "config": {
            "name": "dropout",
            "trainable": true,
            "dtype": {
              "module": "keras",
              "class_name": "DTypePolicy",
              "config": {
                "name": "float32"
              },
              "registered_name": null,
              "shared_object_id": 133455377387776
            },
            "rate": 0.3,
            "seed": null,
            "noise_shape": null
          },
          "registered_name": null,
          "name": "dropout",
          "inbound_nodes": [
            {
              "args": [
                {
                  "class_name": "__keras_tensor__",
                  "config": {
                    "shape": [
                      null,
                      256
                    ],
                    "dtype": "float32",
                    "keras_history": [
                      "specialist_vgg16_fc1",
                      0,
                      0
                    ]
                  }
                }
              ],
              "kwargs": {
                "training": false
              }
            }
          ]
        },
        {
          "module": "keras.layers",
          "class_name": "Dense",
          "config": {
            "name": "specialist_vgg16_fc2",
            "trainable": true,
            "dtype": {
              "module": "keras",
              "class_name": "DTypePolicy",
              "config": {
                "name": "float32"
              },
              "registered_name": null,
              "shared_object_id": 133455377387776
            },
            "units": 128,
            "activation": "relu",
            "use_bias": true,
            "kernel_initializer": {
              "module": "keras.initializers",
              "class_name": "GlorotUniform",
              "config": {
                "seed": null
              },
              "registered_name": null
            },
            "bias_initializer": {
              "module": "keras.initializers",
              "class_name": "Zeros",
              "config": {},
              "registered_name": null
            },
            "kernel_regularizer": null,
            "bias_regularizer": null,
            "kernel_constraint": null,
            "bias_constraint": null
          },
          "registered_name": null,
          "build_config": {
            "input_shape": [
              null,
              256
            ]
          },
          "name": "specialist_vgg16_fc2",
          "inbound_nodes": [
            {
              "args": [
                {
                  "class_name": "__keras_tensor__",
                  "config": {
                    "shape": [
                      null,
                      256
                    ],
                    "dtype": "float32",
                    "keras_history": [
                      "dropout",
                      0,
                      0
                    ]
                  }
                }
              ],
              "kwargs": {}
            }
          ]
        },
        {
          "module": "keras.layers",
          "class_name": "Dropout",
          "config": {
            "name": "dropout_1",
            "trainable": true,
            "dtype": {
              "module": "keras",
              "class_name": "DTypePolicy",
              "config": {
                "name": "float32"
              },
              "registered_name": null,
              "shared_object_id": 133455377387776
            },
            "rate": 0.2,
            "seed": null,
            "noise_shape": null
          },
          "registered_name": null,
          "name": "dropout_1",
          "inbound_nodes": [
            {
              "args": [
                {
                  "class_name": "__keras_tensor__",
                  "config": {
                    "shape": [
                      null,
                      128
                    ],
                    "dtype": "float32",
                    "keras_history": [
                      "specialist_vgg16_fc2",
                      0,
                      0
                    ]
                  }
                }
              ],
              "kwargs": {
                "training": false
              }
            }
          ]
        },
        {
          "module": "keras.layers",
          "class_name": "Dense",
          "config": {
            "name": "specialist_vgg16_output",
            "trainable": true,
            "dtype": {
              "module": "keras",
              "class_name": "DTypePolicy",
              "config": {
                "name": "float32"
              },
              "registered_name": null
            },
            "units": 1,
            "activation": "sigmoid",
            "use_bias": true,
            "kernel_initializer": {
              "module": "keras.initializers",
              "class_name": "GlorotUniform",
              "config": {
                "seed": null
              },
              "registered_name": null
            },
            "bias_initializer": {
              "module": "keras.initializers",
              "class_name": "Zeros",
              "config": {},
              "registered_name": null
            },
            "kernel_regularizer": null,
            "bias_regularizer": null,
            "kernel_constraint": null,
            "bias_constraint": null
          },
          "registered_name": null,
          "build_config": {
            "input_shape": [
              null,
              128
            ]
          },
          "name": "specialist_vgg16_output",
          "inbound_nodes": [
            {
              "args": [
                {
                  "class_name": "__keras_tensor__",
                  "config": {
                    "shape": [
                      null,
                      128
                    ],
                    "dtype": "float32",
                    "keras_history": [
                      "dropout_1",
                      0,
                      0
                    ]
                  }
                }
              ],
              "kwargs": {}
            }
          ]
        }
      ],
      "input_layers": [
        [
          "specialist_vgg16_input",
          0,
          0
        ]
      ],
      "output_layers": [
        [
          "specialist_vgg16_output",
          0,
          0
        ]
      ]
    },
    "registered_name": "Functional",
    "build_config": {
      "input_shape": null
    },
    "compile_config": {
      "optimizer": {
        "module": "keras.optimizers",
        "class_name": "AdamW",
        "config": {
          "name": "adamw",
          "learning_rate": {
            "module": null,
            "class_name": "WarmupCosineDecay",
            "config": {
              "base_lr": 1e-05,
              "warmup_steps": 1309,
              "total_steps": 19635
            },
            "registered_name": "WarmupCosineDecay"
          },
          "weight_decay": 0.0001,
          "clipnorm": null,
          "global_clipnorm": null,
          "clipvalue": null,
          "use_ema": false,
          "ema_momentum": 0.99,
          "ema_overwrite_frequency": null,
          "loss_scale_factor": null,
          "gradient_accumulation_steps": null,
          "beta_1": 0.9,
          "beta_2": 0.999,
          "epsilon": 1e-07,
          "amsgrad": false
        },
        "registered_name": null
      },
      "loss": {
        "module": "keras.losses",
        "class_name": "Huber",
        "config": {
          "name": "huber_loss",
          "reduction": "sum_over_batch_size"
        },
        "registered_name": null
      },
      "loss_weights": null,
      "metrics": [
        "mae"
      ],
      "weighted_metrics": null,
      "run_eagerly": false,
      "steps_per_execution": 1,
      "jit_compile": true
    }
  },
  "weightsManifest": [
    {
      "paths": [
        "group1-shard1of1.bin"
      ],
      "weights": [
        {
          "name": "layers.conv2d.vars.0",
          "shape": [
            3,
            3,
            3,
            64
          ],
          "dtype": "float32"
        },
        {
          "name": "layers.conv2d.vars.1",
          "shape": [
            64
          ],
          "dtype": "float32"
        },
        {
          "name": "layers.conv2d_1.vars.0",
          "shape": [
            3,
            3,
            64,
            64
          ],
          "dtype": "float32"
        },
        {
          "name": "layers.conv2d_1.vars.1",
          "shape": [
            64
          ],
          "dtype": "float32"
        },
        {
          "name": "layers.conv2d_10.vars.0",
          "shape": [
            3,
            3,
            512,
            512
          ],
          "dtype": "float32"
        },
        {
          "name": "layers.conv2d_10.vars.1",
          "shape": [
            512
          ],
          "dtype": "float32"
        },
        {
          "name": "layers.conv2d_11.vars.0",
          "shape": [
            3,
            3,
            512,
            512
          ],
          "dtype": "float32"
        },
        {
          "name": "layers.conv2d_11.vars.1",
          "shape": [
            512
          ],
          "dtype": "float32"
        },
        {
          "name": "layers.conv2d_12.vars.0",
          "shape": [
            3,
            3,
            512,
            512
          ],
          "dtype": "float32"
        },
        {
          "name": "layers.conv2d_12.vars.1",
          "shape": [
            512
          ],
          "dtype": "float32"
        },
        {
          "name": "layers.conv2d_2.vars.0",
          "shape": [
            3,
            3,
            64,
            128
          ],
          "dtype": "float32"
        },
        {
          "name": "layers.conv2d_2.vars.1",
          "shape": [
            128
          ],
          "dtype": "float32"
        },
        {
          "name": "layers.conv2d_3.vars.0",
          "shape": [
            3,
            3,
            128,
            128
          ],
          "dtype": "float32"
        },
        {
          "name": "layers.conv2d_3.vars.1",
          "shape": [
            128
          ],
          "dtype": "float32"
        },
        {
          "name": "layers.conv2d_4.vars.0",
          "shape": [
            3,
            3,
            128,
            256
          ],
          "dtype": "float32"
        },
        {
          "name": "layers.conv2d_4.vars.1",
          "shape": [
            256
          ],
          "dtype": "float32"
        },
        {
          "name": "layers.conv2d_5.vars.0",
          "shape": [
            3,
            3,
            256,
            256
          ],
          "dtype": "float32"
        },
        {
          "name": "layers.conv2d_5.vars.1",
          "shape": [
            256
          ],
          "dtype": "float32"
        },
        {
          "name": "layers.conv2d_6.vars.0",
          "shape": [
            3,
            3,
            256,
            256
          ],
          "dtype": "float32"
        },
        {
          "name": "layers.conv2d_6.vars.1",
          "shape": [
            256
          ],
          "dtype": "float32"
        },
        {
          "name": "layers.conv2d_7.vars.0",
          "shape": [
            3,
            3,
            256,
            512
          ],
          "dtype": "float32"
        },
        {
          "name": "layers.conv2d_7.vars.1",
          "shape": [
            512
          ],
          "dtype": "float32"
        },
        {
          "name": "layers.conv2d_8.vars.0",
          "shape": [
            3,
            3,
            512,
            512
          ],
          "dtype": "float32"
        },
        {
          "name": "layers.conv2d_8.vars.1",
          "shape": [
            512
          ],
          "dtype": "float32"
        },
        {
          "name": "layers.conv2d_9.vars.0",
          "shape": [
            3,
            3,
            512,
            512
          ],
          "dtype": "float32"
        },
        {
          "name": "layers.conv2d_9.vars.1",
          "shape": [
            512
          ],
          "dtype": "float32"
        },
        {
          "name": "layers.dense.vars.0",
          "shape": [
            512,
            256
          ],
          "dtype": "float32"
        },
        {
          "name": "layers.dense.vars.1",
          "shape": [
            256
          ],
          "dtype": "float32"
        },
        {
          "name": "layers.dense_1.vars.0",
          "shape": [
            256,
            128
          ],
          "dtype": "float32"
        },
        {
          "name": "layers.dense_1.vars.1",
          "shape": [
            128
          ],
          "dtype": "float32"
        },
        {
          "name": "layers.dense_2.vars.0",
          "shape": [
            128,
            1
          ],
          "dtype": "float32"
        },
        {
          "name": "layers.dense_2.vars.1",
          "shape": [
            1
          ],
          "dtype": "float32"
        },
        {
          "name": "optimizer.vars.1",
          "shape": [
            3,
            3,
            512,
            512
          ],
          "dtype": "float32"
        },
        {
          "name": "optimizer.vars.10",
          "shape": [
            3,
            3,
            512,
            512
          ],
          "dtype": "float32"
        },
        {
          "name": "optimizer.vars.11",
          "shape": [
            512
          ],
          "dtype": "float32"
        },
        {
          "name": "optimizer.vars.12",
          "shape": [
            512
          ],
          "dtype": "float32"
        },
        {
          "name": "optimizer.vars.13",
          "shape": [
            3,
            3,
            512,
            512
          ],
          "dtype": "float32"
        },
        {
          "name": "optimizer.vars.14",
          "shape": [
            3,
            3,
            512,
            512
          ],
          "dtype": "float32"
        },
        {
          "name": "optimizer.vars.15",
          "shape": [
            512
          ],
          "dtype": "float32"
        },
        {
          "name": "optimizer.vars.16",
          "shape": [
            512
          ],
          "dtype": "float32"
        },
        {
          "name": "optimizer.vars.17",
          "shape": [
            512,
            256
          ],
          "dtype": "float32"
        },
        {
          "name": "optimizer.vars.18",
          "shape": [
            512,
            256
          ],
          "dtype": "float32"
        },
        {
          "name": "optimizer.vars.19",
          "shape": [
            256
          ],
          "dtype": "float32"
        },
        {
          "name": "optimizer.vars.2",
          "shape": [
            3,
            3,
            512,
            512
          ],
          "dtype": "float32"
        },
        {
          "name": "optimizer.vars.20",
          "shape": [
            256
          ],
          "dtype": "float32"
        },
        {
          "name": "optimizer.vars.21",
          "shape": [
            256,
            128
          ],
          "dtype": "float32"
        },
        {
          "name": "optimizer.vars.22",
          "shape": [
            256,
            128
          ],
          "dtype": "float32"
        },
        {
          "name": "optimizer.vars.23",
          "shape": [
            128
          ],
          "dtype": "float32"
        },
        {
          "name": "optimizer.vars.24",
          "shape": [
            128
          ],
          "dtype": "float32"
        },
        {
          "name": "optimizer.vars.25",
          "shape": [
            128,
            1
          ],
          "dtype": "float32"
        },
        {
          "name": "optimizer.vars.26",
          "shape": [
            128,
            1
          ],
          "dtype": "float32"
        },
        {
          "name": "optimizer.vars.27",
          "shape": [
            1
          ],
          "dtype": "float32"
        },
        {
          "name": "optimizer.vars.28",
          "shape": [
            1
          ],
          "dtype": "float32"
        },
        {
          "name": "optimizer.vars.3",
          "shape": [
            512
          ],
          "dtype": "float32"
        },
        {
          "name": "optimizer.vars.4",
          "shape": [
            512
          ],
          "dtype": "float32"
        },
        {
          "name": "optimizer.vars.5",
          "shape": [
            3,
            3,
            512,
            512
          ],
          "dtype": "float32"
        },
        {
          "name": "optimizer.vars.6",
          "shape": [
            3,
            3,
            512,
            512
          ],
          "dtype": "float32"
        },
        {
          "name": "optimizer.vars.7",
          "shape": [
            512
          ],
          "dtype": "float32"
        },
        {
          "name": "optimizer.vars.8",
          "shape": [
            512
          ],
          "dtype": "float32"
        },
        {
          "name": "optimizer.vars.9",
          "shape": [
            3,
            3,
            512,
            512
          ],
          "dtype": "float32"
        }
      ]
    }
  ]
}
