{
  "format": "layers-model",
  "generatedBy": "keras 3.x",
  "convertedBy": "manual",
  "modelTopology": {
    "module": "keras.src.models.functional",
    "class_name": "Model",
    "config": {
      "name": "specialist_densenet121",
      "trainable": true,
      "layers": [
        {
          "module": "keras.layers",
          "class_name": "InputLayer",
          "config": {
            "batch_input_shape": [
              null,
              224,
              224,
              3
            ],
            "dtype": "float32",
            "sparse": false,
            "ragged": false,
            "name": "specialist_densenet121_input"
          },
          "registered_name": null,
          "name": "specialist_densenet121_input",
          "inbound_nodes": []
        },
        {
          "module": "keras.layers",
          "class_name": "ZeroPadding2D",
          "config": {
            "name": "zero_padding2d",
            "trainable": false,
            "dtype": "float32",
            "padding": [
              [
                3,
                3
              ],
              [
                3,
                3
              ]
            ],
            "data_format": "channels_last"
          },
          "registered_name": null,
          "build_config": {
            "input_shape": [
              null,
              224,
              224,
              3
            ]
          },
          "name": "zero_padding2d",
          "inbound_nodes": [
            [
              [
                "specialist_densenet121_input",
                0,
                0,
                {}
              ]
            ]
          ]
        },
        {
          "module": "keras.layers",
          "class_name": "Conv2D",
          "config": {
            "name": "conv1_conv",
            "trainable": false,
            "dtype": "float32",
            "filters": 64,
            "kernel_size": [
              7,
              7
            ],
            "strides": [
              2,
              2
            ],
            "padding": "valid",
            "data_format": "channels_last",
            "dilation_rate": [
              1,
              1
            ],
            "groups": 1,
            "activation": "linear",
            "use_bias": false,
            "kernel_initializer": {
              "module": "keras.initializers",
              "class_name": "GlorotUniform",
              "config": {
                "seed": null
              },
              "registered_name": null
            },
            "bias_initializer": {
              "module": "keras.initializers",
              "class_name": "Zeros",
              "config": {},
              "registered_name": null
            },
            "kernel_regularizer": null,
            "bias_regularizer": null,
            "activity_regularizer": null,
            "kernel_constraint": null,
            "bias_constraint": null
          },
          "registered_name": null,
          "build_config": {
            "input_shape": [
              null,
              230,
              230,
              3
            ]
          },
          "name": "conv1_conv",
          "inbound_nodes": [
            [
              [
                "zero_padding2d",
                0,
                0,
                {}
              ]
            ]
          ]
        },
        {
          "module": "keras.layers",
          "class_name": "BatchNormalization",
          "config": {
            "name": "conv1_bn",
            "trainable": false,
            "dtype": "float32",
            "axis": 3,
            "momentum": 0.99,
            "epsilon": 0.00001001,
            "center": true,
            "scale": true,
            "beta_initializer": {
              "module": "keras.initializers",
              "class_name": "Zeros",
              "config": {},
              "registered_name": null
            },
            "gamma_initializer": {
              "module": "keras.initializers",
              "class_name": "Ones",
              "config": {},
              "registered_name": null
            },
            "moving_mean_initializer": {
              "module": "keras.initializers",
              "class_name": "Zeros",
              "config": {},
              "registered_name": null
            },
            "moving_variance_initializer": {
              "module": "keras.initializers",
              "class_name": "Ones",
              "config": {},
              "registered_name": null
            },
            "beta_regularizer": null,
            "gamma_regularizer": null,
            "beta_constraint": null,
            "gamma_constraint": null,
            "synchronized": false
          },
          "registered_name": null,
          "build_config": {
            "input_shape": [
              null,
              112,
              112,
              64
            ]
          },
          "name": "conv1_bn",
          "inbound_nodes": [
            [
              [
                "conv1_conv",
                0,
                0,
                {}
              ]
            ]
          ]
        },
        {
          "module": "keras.layers",
          "class_name": "Activation",
          "config": {
            "name": "conv1_relu",
            "trainable": false,
            "dtype": "float32",
            "activation": "relu"
          },
          "registered_name": null,
          "name": "conv1_relu",
          "inbound_nodes": [
            [
              [
                "conv1_bn",
                0,
                0,
                {}
              ]
            ]
          ]
        },
        {
          "module": "keras.layers",
          "class_name": "ZeroPadding2D",
          "config": {
            "name": "zero_padding2d_1",
            "trainable": false,
            "dtype": "float32",
            "padding": [
              [
                1,
                1
              ],
              [
                1,
                1
              ]
            ],
            "data_format": "channels_last"
          },
          "registered_name": null,
          "build_config": {
            "input_shape": [
              null,
              112,
              112,
              64
            ]
          },
          "name": "zero_padding2d_1",
          "inbound_nodes": [
            [
              [
                "conv1_relu",
                0,
                0,
                {}
              ]
            ]
          ]
        },
        {
          "module": "keras.layers",
          "class_name": "MaxPooling2D",
          "config": {
            "name": "pool1",
            "trainable": false,
            "dtype": "float32",
            "pool_size": [
              3,
              3
            ],
            "padding": "valid",
            "strides": [
              2,
              2
            ],
            "data_format": "channels_last"
          },
          "registered_name": null,
          "name": "pool1",
          "inbound_nodes": [
            [
              [
                "zero_padding2d_1",
                0,
                0,
                {}
              ]
            ]
          ]
        },
        {
          "module": "keras.layers",
          "class_name": "BatchNormalization",
          "config": {
            "name": "conv2_block1_0_bn",
            "trainable": false,
            "dtype": "float32",
            "axis": 3,
            "momentum": 0.99,
            "epsilon": 0.00001001,
            "center": true,
            "scale": true,
            "beta_initializer": {
              "module": "keras.initializers",
              "class_name": "Zeros",
              "config": {},
              "registered_name": null
            },
            "gamma_initializer": {
              "module": "keras.initializers",
              "class_name": "Ones",
              "config": {},
              "registered_name": null
            },
            "moving_mean_initializer": {
              "module": "keras.initializers",
              "class_name": "Zeros",
              "config": {},
              "registered_name": null
            },
            "moving_variance_initializer": {
              "module": "keras.initializers",
              "class_name": "Ones",
              "config": {},
              "registered_name": null
            },
            "beta_regularizer": null,
            "gamma_regularizer": null,
            "beta_constraint": null,
            "gamma_constraint": null,
            "synchronized": false
          },
          "registered_name": null,
          "build_config": {
            "input_shape": [
              null,
              56,
              56,
              64
            ]
          },
          "name": "conv2_block1_0_bn",
          "inbound_nodes": [
            [
              [
                "pool1",
                0,
                0,
                {}
              ]
            ]
          ]
        },
        {
          "module": "keras.layers",
          "class_name": "Activation",
          "config": {
            "name": "conv2_block1_0_relu",
            "trainable": false,
            "dtype": "float32",
            "activation": "relu"
          },
          "registered_name": null,
          "name": "conv2_block1_0_relu",
          "inbound_nodes": [
            [
              [
                "conv2_block1_0_bn",
                0,
                0,
                {}
              ]
            ]
          ]
        },
        {
          "module": "keras.layers",
          "class_name": "Conv2D",
          "config": {
            "name": "conv2_block1_1_conv",
            "trainable": false,
            "dtype": "float32",
            "filters": 128,
            "kernel_size": [
              1,
              1
            ],
            "strides": [
              1,
              1
            ],
            "padding": "valid",
            "data_format": "channels_last",
            "dilation_rate": [
              1,
              1
            ],
            "groups": 1,
            "activation": "linear",
            "use_bias": false,
            "kernel_initializer": {
              "module": "keras.initializers",
              "class_name": "GlorotUniform",
              "config": {
                "seed": null
              },
              "registered_name": null
            },
            "bias_initializer": {
              "module": "keras.initializers",
              "class_name": "Zeros",
              "config": {},
              "registered_name": null
            },
            "kernel_regularizer": null,
            "bias_regularizer": null,
            "activity_regularizer": null,
            "kernel_constraint": null,
            "bias_constraint": null
          },
          "registered_name": null,
          "build_config": {
            "input_shape": [
              null,
              56,
              56,
              64
            ]
          },
          "name": "conv2_block1_1_conv",
          "inbound_nodes": [
            [
              [
                "conv2_block1_0_relu",
                0,
                0,
                {}
              ]
            ]
          ]
        },
        {
          "module": "keras.layers",
          "class_name": "BatchNormalization",
          "config": {
            "name": "conv2_block1_1_bn",
            "trainable": false,
            "dtype": "float32",
            "axis": 3,
            "momentum": 0.99,
            "epsilon": 0.00001001,
            "center": true,
            "scale": true,
            "beta_initializer": {
              "module": "keras.initializers",
              "class_name": "Zeros",
              "config": {},
              "registered_name": null
            },
            "gamma_initializer": {
              "module": "keras.initializers",
              "class_name": "Ones",
              "config": {},
              "registered_name": null
            },
            "moving_mean_initializer": {
              "module": "keras.initializers",
              "class_name": "Zeros",
              "config": {},
              "registered_name": null
            },
            "moving_variance_initializer": {
              "module": "keras.initializers",
              "class_name": "Ones",
              "config": {},
              "registered_name": null
            },
            "beta_regularizer": null,
            "gamma_regularizer": null,
            "beta_constraint": null,
            "gamma_constraint": null,
            "synchronized": false
          },
          "registered_name": null,
          "build_config": {
            "input_shape": [
              null,
              56,
              56,
              128
            ]
          },
          "name": "conv2_block1_1_bn",
          "inbound_nodes": [
            [
              [
                "conv2_block1_1_conv",
                0,
                0,
                {}
              ]
            ]
          ]
        },
        {
          "module": "keras.layers",
          "class_name": "Activation",
          "config": {
            "name": "conv2_block1_1_relu",
            "trainable": false,
            "dtype": "float32",
            "activation": "relu"
          },
          "registered_name": null,
          "name": "conv2_block1_1_relu",
          "inbound_nodes": [
            [
              [
                "conv2_block1_1_bn",
                0,
                0,
                {}
              ]
            ]
          ]
        },
        {
          "module": "keras.layers",
          "class_name": "Conv2D",
          "config": {
            "name": "conv2_block1_2_conv",
            "trainable": false,
            "dtype": "float32",
            "filters": 32,
            "kernel_size": [
              3,
              3
            ],
            "strides": [
              1,
              1
            ],
            "padding": "same",
            "data_format": "channels_last",
            "dilation_rate": [
              1,
              1
            ],
            "groups": 1,
            "activation": "linear",
            "use_bias": false,
            "kernel_initializer": {
              "module": "keras.initializers",
              "class_name": "GlorotUniform",
              "config": {
                "seed": null
              },
              "registered_name": null
            },
            "bias_initializer": {
              "module": "keras.initializers",
              "class_name": "Zeros",
              "config": {},
              "registered_name": null
            },
            "kernel_regularizer": null,
            "bias_regularizer": null,
            "activity_regularizer": null,
            "kernel_constraint": null,
            "bias_constraint": null
          },
          "registered_name": null,
          "build_config": {
            "input_shape": [
              null,
              56,
              56,
              128
            ]
          },
          "name": "conv2_block1_2_conv",
          "inbound_nodes": [
            [
              [
                "conv2_block1_1_relu",
                0,
                0,
                {}
              ]
            ]
          ]
        },
        {
          "module": "keras.layers",
          "class_name": "Concatenate",
          "config": {
            "name": "conv2_block1_concat",
            "trainable": false,
            "dtype": "float32",
            "axis": 3
          },
          "registered_name": null,
          "build_config": {
            "input_shape": [
              [
                null,
                56,
                56,
                64
              ],
              [
                null,
                56,
                56,
                32
              ]
            ]
          },
          "name": "conv2_block1_concat",
          "inbound_nodes": [
            {
              "args": [
                [
                  {
                    "class_name": "__keras_tensor__",
                    "config": {
                      "shape": [
                        null,
                        56,
                        56,
                        64
                      ],
                      "dtype": "float32",
                      "keras_history": [
                        "pool1",
                        0,
                        0
                      ]
                    }
                  },
                  {
                    "class_name": "__keras_tensor__",
                    "config": {
                      "shape": [
                        null,
                        56,
                        56,
                        32
                      ],
                      "dtype": "float32",
                      "keras_history": [
                        "conv2_block1_2_conv",
                        0,
                        0
                      ]
                    }
                  }
                ]
              ],
              "kwargs": {}
            }
          ]
        },
        {
          "module": "keras.layers",
          "class_name": "BatchNormalization",
          "config": {
            "name": "conv2_block2_0_bn",
            "trainable": false,
            "dtype": "float32",
            "axis": 3,
            "momentum": 0.99,
            "epsilon": 0.00001001,
            "center": true,
            "scale": true,
            "beta_initializer": {
              "module": "keras.initializers",
              "class_name": "Zeros",
              "config": {},
              "registered_name": null
            },
            "gamma_initializer": {
              "module": "keras.initializers",
              "class_name": "Ones",
              "config": {},
              "registered_name": null
            },
            "moving_mean_initializer": {
              "module": "keras.initializers",
              "class_name": "Zeros",
              "config": {},
              "registered_name": null
            },
            "moving_variance_initializer": {
              "module": "keras.initializers",
              "class_name": "Ones",
              "config": {},
              "registered_name": null
            },
            "beta_regularizer": null,
            "gamma_regularizer": null,
            "beta_constraint": null,
            "gamma_constraint": null,
            "synchronized": false
          },
          "registered_name": null,
          "build_config": {
            "input_shape": [
              null,
              56,
              56,
              96
            ]
          },
          "name": "conv2_block2_0_bn",
          "inbound_nodes": [
            [
              [
                "conv2_block1_concat",
                0,
                0,
                {}
              ]
            ]
          ]
        },
        {
          "module": "keras.layers",
          "class_name": "Activation",
          "config": {
            "name": "conv2_block2_0_relu",
            "trainable": false,
            "dtype": "float32",
            "activation": "relu"
          },
          "registered_name": null,
          "name": "conv2_block2_0_relu",
          "inbound_nodes": [
            [
              [
                "conv2_block2_0_bn",
                0,
                0,
                {}
              ]
            ]
          ]
        },
        {
          "module": "keras.layers",
          "class_name": "Conv2D",
          "config": {
            "name": "conv2_block2_1_conv",
            "trainable": false,
            "dtype": "float32",
            "filters": 128,
            "kernel_size": [
              1,
              1
            ],
            "strides": [
              1,
              1
            ],
            "padding": "valid",
            "data_format": "channels_last",
            "dilation_rate": [
              1,
              1
            ],
            "groups": 1,
            "activation": "linear",
            "use_bias": false,
            "kernel_initializer": {
              "module": "keras.initializers",
              "class_name": "GlorotUniform",
              "config": {
                "seed": null
              },
              "registered_name": null
            },
            "bias_initializer": {
              "module": "keras.initializers",
              "class_name": "Zeros",
              "config": {},
              "registered_name": null
            },
            "kernel_regularizer": null,
            "bias_regularizer": null,
            "activity_regularizer": null,
            "kernel_constraint": null,
            "bias_constraint": null
          },
          "registered_name": null,
          "build_config": {
            "input_shape": [
              null,
              56,
              56,
              96
            ]
          },
          "name": "conv2_block2_1_conv",
          "inbound_nodes": [
            [
              [
                "conv2_block2_0_relu",
                0,
                0,
                {}
              ]
            ]
          ]
        },
        {
          "module": "keras.layers",
          "class_name": "BatchNormalization",
          "config": {
            "name": "conv2_block2_1_bn",
            "trainable": false,
            "dtype": "float32",
            "axis": 3,
            "momentum": 0.99,
            "epsilon": 0.00001001,
            "center": true,
            "scale": true,
            "beta_initializer": {
              "module": "keras.initializers",
              "class_name": "Zeros",
              "config": {},
              "registered_name": null
            },
            "gamma_initializer": {
              "module": "keras.initializers",
              "class_name": "Ones",
              "config": {},
              "registered_name": null
            },
            "moving_mean_initializer": {
              "module": "keras.initializers",
              "class_name": "Zeros",
              "config": {},
              "registered_name": null
            },
            "moving_variance_initializer": {
              "module": "keras.initializers",
              "class_name": "Ones",
              "config": {},
              "registered_name": null
            },
            "beta_regularizer": null,
            "gamma_regularizer": null,
            "beta_constraint": null,
            "gamma_constraint": null,
            "synchronized": false
          },
          "registered_name": null,
          "build_config": {
            "input_shape": [
              null,
              56,
              56,
              128
            ]
          },
          "name": "conv2_block2_1_bn",
          "inbound_nodes": [
            [
              [
                "conv2_block2_1_conv",
                0,
                0,
                {}
              ]
            ]
          ]
        },
        {
          "module": "keras.layers",
          "class_name": "Activation",
          "config": {
            "name": "conv2_block2_1_relu",
            "trainable": false,
            "dtype": "float32",
            "activation": "relu"
          },
          "registered_name": null,
          "name": "conv2_block2_1_relu",
          "inbound_nodes": [
            [
              [
                "conv2_block2_1_bn",
                0,
                0,
                {}
              ]
            ]
          ]
        },
        {
          "module": "keras.layers",
          "class_name": "Conv2D",
          "config": {
            "name": "conv2_block2_2_conv",
            "trainable": false,
            "dtype": "float32",
            "filters": 32,
            "kernel_size": [
              3,
              3
            ],
            "strides": [
              1,
              1
            ],
            "padding": "same",
            "data_format": "channels_last",
            "dilation_rate": [
              1,
              1
            ],
            "groups": 1,
            "activation": "linear",
            "use_bias": false,
            "kernel_initializer": {
              "module": "keras.initializers",
              "class_name": "GlorotUniform",
              "config": {
                "seed": null
              },
              "registered_name": null
            },
            "bias_initializer": {
              "module": "keras.initializers",
              "class_name": "Zeros",
              "config": {},
              "registered_name": null
            },
            "kernel_regularizer": null,
            "bias_regularizer": null,
            "activity_regularizer": null,
            "kernel_constraint": null,
            "bias_constraint": null
          },
          "registered_name": null,
          "build_config": {
            "input_shape": [
              null,
              56,
              56,
              128
            ]
          },
          "name": "conv2_block2_2_conv",
          "inbound_nodes": [
            [
              [
                "conv2_block2_1_relu",
                0,
                0,
                {}
              ]
            ]
          ]
        },
        {
          "module": "keras.layers",
          "class_name": "Concatenate",
          "config": {
            "name": "conv2_block2_concat",
            "trainable": false,
            "dtype": "float32",
            "axis": 3
          },
          "registered_name": null,
          "build_config": {
            "input_shape": [
              [
                null,
                56,
                56,
                96
              ],
              [
                null,
                56,
                56,
                32
              ]
            ]
          },
          "name": "conv2_block2_concat",
          "inbound_nodes": [
            {
              "args": [
                [
                  {
                    "class_name": "__keras_tensor__",
                    "config": {
                      "shape": [
                        null,
                        56,
                        56,
                        96
                      ],
                      "dtype": "float32",
                      "keras_history": [
                        "conv2_block1_concat",
                        0,
                        0
                      ]
                    }
                  },
                  {
                    "class_name": "__keras_tensor__",
                    "config": {
                      "shape": [
                        null,
                        56,
                        56,
                        32
                      ],
                      "dtype": "float32",
                      "keras_history": [
                        "conv2_block2_2_conv",
                        0,
                        0
                      ]
                    }
                  }
                ]
              ],
              "kwargs": {}
            }
          ]
        },
        {
          "module": "keras.layers",
          "class_name": "BatchNormalization",
          "config": {
            "name": "conv2_block3_0_bn",
            "trainable": false,
            "dtype": "float32",
            "axis": 3,
            "momentum": 0.99,
            "epsilon": 0.00001001,
            "center": true,
            "scale": true,
            "beta_initializer": {
              "module": "keras.initializers",
              "class_name": "Zeros",
              "config": {},
              "registered_name": null
            },
            "gamma_initializer": {
              "module": "keras.initializers",
              "class_name": "Ones",
              "config": {},
              "registered_name": null
            },
            "moving_mean_initializer": {
              "module": "keras.initializers",
              "class_name": "Zeros",
              "config": {},
              "registered_name": null
            },
            "moving_variance_initializer": {
              "module": "keras.initializers",
              "class_name": "Ones",
              "config": {},
              "registered_name": null
            },
            "beta_regularizer": null,
            "gamma_regularizer": null,
            "beta_constraint": null,
            "gamma_constraint": null,
            "synchronized": false
          },
          "registered_name": null,
          "build_config": {
            "input_shape": [
              null,
              56,
              56,
              128
            ]
          },
          "name": "conv2_block3_0_bn",
          "inbound_nodes": [
            [
              [
                "conv2_block2_concat",
                0,
                0,
                {}
              ]
            ]
          ]
        },
        {
          "module": "keras.layers",
          "class_name": "Activation",
          "config": {
            "name": "conv2_block3_0_relu",
            "trainable": false,
            "dtype": "float32",
            "activation": "relu"
          },
          "registered_name": null,
          "name": "conv2_block3_0_relu",
          "inbound_nodes": [
            [
              [
                "conv2_block3_0_bn",
                0,
                0,
                {}
              ]
            ]
          ]
        },
        {
          "module": "keras.layers",
          "class_name": "Conv2D",
          "config": {
            "name": "conv2_block3_1_conv",
            "trainable": false,
            "dtype": "float32",
            "filters": 128,
            "kernel_size": [
              1,
              1
            ],
            "strides": [
              1,
              1
            ],
            "padding": "valid",
            "data_format": "channels_last",
            "dilation_rate": [
              1,
              1
            ],
            "groups": 1,
            "activation": "linear",
            "use_bias": false,
            "kernel_initializer": {
              "module": "keras.initializers",
              "class_name": "GlorotUniform",
              "config": {
                "seed": null
              },
              "registered_name": null
            },
            "bias_initializer": {
              "module": "keras.initializers",
              "class_name": "Zeros",
              "config": {},
              "registered_name": null
            },
            "kernel_regularizer": null,
            "bias_regularizer": null,
            "activity_regularizer": null,
            "kernel_constraint": null,
            "bias_constraint": null
          },
          "registered_name": null,
          "build_config": {
            "input_shape": [
              null,
              56,
              56,
              128
            ]
          },
          "name": "conv2_block3_1_conv",
          "inbound_nodes": [
            [
              [
                "conv2_block3_0_relu",
                0,
                0,
                {}
              ]
            ]
          ]
        },
        {
          "module": "keras.layers",
          "class_name": "BatchNormalization",
          "config": {
            "name": "conv2_block3_1_bn",
            "trainable": false,
            "dtype": "float32",
            "axis": 3,
            "momentum": 0.99,
            "epsilon": 0.00001001,
            "center": true,
            "scale": true,
            "beta_initializer": {
              "module": "keras.initializers",
              "class_name": "Zeros",
              "config": {},
              "registered_name": null
            },
            "gamma_initializer": {
              "module": "keras.initializers",
              "class_name": "Ones",
              "config": {},
              "registered_name": null
            },
            "moving_mean_initializer": {
              "module": "keras.initializers",
              "class_name": "Zeros",
              "config": {},
              "registered_name": null
            },
            "moving_variance_initializer": {
              "module": "keras.initializers",
              "class_name": "Ones",
              "config": {},
              "registered_name": null
            },
            "beta_regularizer": null,
            "gamma_regularizer": null,
            "beta_constraint": null,
            "gamma_constraint": null,
            "synchronized": false
          },
          "registered_name": null,
          "build_config": {
            "input_shape": [
              null,
              56,
              56,
              128
            ]
          },
          "name": "conv2_block3_1_bn",
          "inbound_nodes": [
            [
              [
                "conv2_block3_1_conv",
                0,
                0,
                {}
              ]
            ]
          ]
        },
        {
          "module": "keras.layers",
          "class_name": "Activation",
          "config": {
            "name": "conv2_block3_1_relu",
            "trainable": false,
            "dtype": "float32",
            "activation": "relu"
          },
          "registered_name": null,
          "name": "conv2_block3_1_relu",
          "inbound_nodes": [
            [
              [
                "conv2_block3_1_bn",
                0,
                0,
                {}
              ]
            ]
          ]
        },
        {
          "module": "keras.layers",
          "class_name": "Conv2D",
          "config": {
            "name": "conv2_block3_2_conv",
            "trainable": false,
            "dtype": "float32",
            "filters": 32,
            "kernel_size": [
              3,
              3
            ],
            "strides": [
              1,
              1
            ],
            "padding": "same",
            "data_format": "channels_last",
            "dilation_rate": [
              1,
              1
            ],
            "groups": 1,
            "activation": "linear",
            "use_bias": false,
            "kernel_initializer": {
              "module": "keras.initializers",
              "class_name": "GlorotUniform",
              "config": {
                "seed": null
              },
              "registered_name": null
            },
            "bias_initializer": {
              "module": "keras.initializers",
              "class_name": "Zeros",
              "config": {},
              "registered_name": null
            },
            "kernel_regularizer": null,
            "bias_regularizer": null,
            "activity_regularizer": null,
            "kernel_constraint": null,
            "bias_constraint": null
          },
          "registered_name": null,
          "build_config": {
            "input_shape": [
              null,
              56,
              56,
              128
            ]
          },
          "name": "conv2_block3_2_conv",
          "inbound_nodes": [
            [
              [
                "conv2_block3_1_relu",
                0,
                0,
                {}
              ]
            ]
          ]
        },
        {
          "module": "keras.layers",
          "class_name": "Concatenate",
          "config": {
            "name": "conv2_block3_concat",
            "trainable": false,
            "dtype": "float32",
            "axis": 3
          },
          "registered_name": null,
          "build_config": {
            "input_shape": [
              [
                null,
                56,
                56,
                128
              ],
              [
                null,
                56,
                56,
                32
              ]
            ]
          },
          "name": "conv2_block3_concat",
          "inbound_nodes": [
            {
              "args": [
                [
                  {
                    "class_name": "__keras_tensor__",
                    "config": {
                      "shape": [
                        null,
                        56,
                        56,
                        128
                      ],
                      "dtype": "float32",
                      "keras_history": [
                        "conv2_block2_concat",
                        0,
                        0
                      ]
                    }
                  },
                  {
                    "class_name": "__keras_tensor__",
                    "config": {
                      "shape": [
                        null,
                        56,
                        56,
                        32
                      ],
                      "dtype": "float32",
                      "keras_history": [
                        "conv2_block3_2_conv",
                        0,
                        0
                      ]
                    }
                  }
                ]
              ],
              "kwargs": {}
            }
          ]
        },
        {
          "module": "keras.layers",
          "class_name": "BatchNormalization",
          "config": {
            "name": "conv2_block4_0_bn",
            "trainable": false,
            "dtype": "float32",
            "axis": 3,
            "momentum": 0.99,
            "epsilon": 0.00001001,
            "center": true,
            "scale": true,
            "beta_initializer": {
              "module": "keras.initializers",
              "class_name": "Zeros",
              "config": {},
              "registered_name": null
            },
            "gamma_initializer": {
              "module": "keras.initializers",
              "class_name": "Ones",
              "config": {},
              "registered_name": null
            },
            "moving_mean_initializer": {
              "module": "keras.initializers",
              "class_name": "Zeros",
              "config": {},
              "registered_name": null
            },
            "moving_variance_initializer": {
              "module": "keras.initializers",
              "class_name": "Ones",
              "config": {},
              "registered_name": null
            },
            "beta_regularizer": null,
            "gamma_regularizer": null,
            "beta_constraint": null,
            "gamma_constraint": null,
            "synchronized": false
          },
          "registered_name": null,
          "build_config": {
            "input_shape": [
              null,
              56,
              56,
              160
            ]
          },
          "name": "conv2_block4_0_bn",
          "inbound_nodes": [
            [
              [
                "conv2_block3_concat",
                0,
                0,
                {}
              ]
            ]
          ]
        },
        {
          "module": "keras.layers",
          "class_name": "Activation",
          "config": {
            "name": "conv2_block4_0_relu",
            "trainable": false,
            "dtype": "float32",
            "activation": "relu"
          },
          "registered_name": null,
          "name": "conv2_block4_0_relu",
          "inbound_nodes": [
            [
              [
                "conv2_block4_0_bn",
                0,
                0,
                {}
              ]
            ]
          ]
        },
        {
          "module": "keras.layers",
          "class_name": "Conv2D",
          "config": {
            "name": "conv2_block4_1_conv",
            "trainable": false,
            "dtype": "float32",
            "filters": 128,
            "kernel_size": [
              1,
              1
            ],
            "strides": [
              1,
              1
            ],
            "padding": "valid",
            "data_format": "channels_last",
            "dilation_rate": [
              1,
              1
            ],
            "groups": 1,
            "activation": "linear",
            "use_bias": false,
            "kernel_initializer": {
              "module": "keras.initializers",
              "class_name": "GlorotUniform",
              "config": {
                "seed": null
              },
              "registered_name": null
            },
            "bias_initializer": {
              "module": "keras.initializers",
              "class_name": "Zeros",
              "config": {},
              "registered_name": null
            },
            "kernel_regularizer": null,
            "bias_regularizer": null,
            "activity_regularizer": null,
            "kernel_constraint": null,
            "bias_constraint": null
          },
          "registered_name": null,
          "build_config": {
            "input_shape": [
              null,
              56,
              56,
              160
            ]
          },
          "name": "conv2_block4_1_conv",
          "inbound_nodes": [
            [
              [
                "conv2_block4_0_relu",
                0,
                0,
                {}
              ]
            ]
          ]
        },
        {
          "module": "keras.layers",
          "class_name": "BatchNormalization",
          "config": {
            "name": "conv2_block4_1_bn",
            "trainable": false,
            "dtype": "float32",
            "axis": 3,
            "momentum": 0.99,
            "epsilon": 0.00001001,
            "center": true,
            "scale": true,
            "beta_initializer": {
              "module": "keras.initializers",
              "class_name": "Zeros",
              "config": {},
              "registered_name": null
            },
            "gamma_initializer": {
              "module": "keras.initializers",
              "class_name": "Ones",
              "config": {},
              "registered_name": null
            },
            "moving_mean_initializer": {
              "module": "keras.initializers",
              "class_name": "Zeros",
              "config": {},
              "registered_name": null
            },
            "moving_variance_initializer": {
              "module": "keras.initializers",
              "class_name": "Ones",
              "config": {},
              "registered_name": null
            },
            "beta_regularizer": null,
            "gamma_regularizer": null,
            "beta_constraint": null,
            "gamma_constraint": null,
            "synchronized": false
          },
          "registered_name": null,
          "build_config": {
            "input_shape": [
              null,
              56,
              56,
              128
            ]
          },
          "name": "conv2_block4_1_bn",
          "inbound_nodes": [
            [
              [
                "conv2_block4_1_conv",
                0,
                0,
                {}
              ]
            ]
          ]
        },
        {
          "module": "keras.layers",
          "class_name": "Activation",
          "config": {
            "name": "conv2_block4_1_relu",
            "trainable": false,
            "dtype": "float32",
            "activation": "relu"
          },
          "registered_name": null,
          "name": "conv2_block4_1_relu",
          "inbound_nodes": [
            [
              [
                "conv2_block4_1_bn",
                0,
                0,
                {}
              ]
            ]
          ]
        },
        {
          "module": "keras.layers",
          "class_name": "Conv2D",
          "config": {
            "name": "conv2_block4_2_conv",
            "trainable": false,
            "dtype": "float32",
            "filters": 32,
            "kernel_size": [
              3,
              3
            ],
            "strides": [
              1,
              1
            ],
            "padding": "same",
            "data_format": "channels_last",
            "dilation_rate": [
              1,
              1
            ],
            "groups": 1,
            "activation": "linear",
            "use_bias": false,
            "kernel_initializer": {
              "module": "keras.initializers",
              "class_name": "GlorotUniform",
              "config": {
                "seed": null
              },
              "registered_name": null
            },
            "bias_initializer": {
              "module": "keras.initializers",
              "class_name": "Zeros",
              "config": {},
              "registered_name": null
            },
            "kernel_regularizer": null,
            "bias_regularizer": null,
            "activity_regularizer": null,
            "kernel_constraint": null,
            "bias_constraint": null
          },
          "registered_name": null,
          "build_config": {
            "input_shape": [
              null,
              56,
              56,
              128
            ]
          },
          "name": "conv2_block4_2_conv",
          "inbound_nodes": [
            [
              [
                "conv2_block4_1_relu",
                0,
                0,
                {}
              ]
            ]
          ]
        },
        {
          "module": "keras.layers",
          "class_name": "Concatenate",
          "config": {
            "name": "conv2_block4_concat",
            "trainable": false,
            "dtype": "float32",
            "axis": 3
          },
          "registered_name": null,
          "build_config": {
            "input_shape": [
              [
                null,
                56,
                56,
                160
              ],
              [
                null,
                56,
                56,
                32
              ]
            ]
          },
          "name": "conv2_block4_concat",
          "inbound_nodes": [
            {
              "args": [
                [
                  {
                    "class_name": "__keras_tensor__",
                    "config": {
                      "shape": [
                        null,
                        56,
                        56,
                        160
                      ],
                      "dtype": "float32",
                      "keras_history": [
                        "conv2_block3_concat",
                        0,
                        0
                      ]
                    }
                  },
                  {
                    "class_name": "__keras_tensor__",
                    "config": {
                      "shape": [
                        null,
                        56,
                        56,
                        32
                      ],
                      "dtype": "float32",
                      "keras_history": [
                        "conv2_block4_2_conv",
                        0,
                        0
                      ]
                    }
                  }
                ]
              ],
              "kwargs": {}
            }
          ]
        },
        {
          "module": "keras.layers",
          "class_name": "BatchNormalization",
          "config": {
            "name": "conv2_block5_0_bn",
            "trainable": false,
            "dtype": "float32",
            "axis": 3,
            "momentum": 0.99,
            "epsilon": 0.00001001,
            "center": true,
            "scale": true,
            "beta_initializer": {
              "module": "keras.initializers",
              "class_name": "Zeros",
              "config": {},
              "registered_name": null
            },
            "gamma_initializer": {
              "module": "keras.initializers",
              "class_name": "Ones",
              "config": {},
              "registered_name": null
            },
            "moving_mean_initializer": {
              "module": "keras.initializers",
              "class_name": "Zeros",
              "config": {},
              "registered_name": null
            },
            "moving_variance_initializer": {
              "module": "keras.initializers",
              "class_name": "Ones",
              "config": {},
              "registered_name": null
            },
            "beta_regularizer": null,
            "gamma_regularizer": null,
            "beta_constraint": null,
            "gamma_constraint": null,
            "synchronized": false
          },
          "registered_name": null,
          "build_config": {
            "input_shape": [
              null,
              56,
              56,
              192
            ]
          },
          "name": "conv2_block5_0_bn",
          "inbound_nodes": [
            [
              [
                "conv2_block4_concat",
                0,
                0,
                {}
              ]
            ]
          ]
        },
        {
          "module": "keras.layers",
          "class_name": "Activation",
          "config": {
            "name": "conv2_block5_0_relu",
            "trainable": false,
            "dtype": "float32",
            "activation": "relu"
          },
          "registered_name": null,
          "name": "conv2_block5_0_relu",
          "inbound_nodes": [
            [
              [
                "conv2_block5_0_bn",
                0,
                0,
                {}
              ]
            ]
          ]
        },
        {
          "module": "keras.layers",
          "class_name": "Conv2D",
          "config": {
            "name": "conv2_block5_1_conv",
            "trainable": false,
            "dtype": "float32",
            "filters": 128,
            "kernel_size": [
              1,
              1
            ],
            "strides": [
              1,
              1
            ],
            "padding": "valid",
            "data_format": "channels_last",
            "dilation_rate": [
              1,
              1
            ],
            "groups": 1,
            "activation": "linear",
            "use_bias": false,
            "kernel_initializer": {
              "module": "keras.initializers",
              "class_name": "GlorotUniform",
              "config": {
                "seed": null
              },
              "registered_name": null
            },
            "bias_initializer": {
              "module": "keras.initializers",
              "class_name": "Zeros",
              "config": {},
              "registered_name": null
            },
            "kernel_regularizer": null,
            "bias_regularizer": null,
            "activity_regularizer": null,
            "kernel_constraint": null,
            "bias_constraint": null
          },
          "registered_name": null,
          "build_config": {
            "input_shape": [
              null,
              56,
              56,
              192
            ]
          },
          "name": "conv2_block5_1_conv",
          "inbound_nodes": [
            [
              [
                "conv2_block5_0_relu",
                0,
                0,
                {}
              ]
            ]
          ]
        },
        {
          "module": "keras.layers",
          "class_name": "BatchNormalization",
          "config": {
            "name": "conv2_block5_1_bn",
            "trainable": false,
            "dtype": "float32",
            "axis": 3,
            "momentum": 0.99,
            "epsilon": 0.00001001,
            "center": true,
            "scale": true,
            "beta_initializer": {
              "module": "keras.initializers",
              "class_name": "Zeros",
              "config": {},
              "registered_name": null
            },
            "gamma_initializer": {
              "module": "keras.initializers",
              "class_name": "Ones",
              "config": {},
              "registered_name": null
            },
            "moving_mean_initializer": {
              "module": "keras.initializers",
              "class_name": "Zeros",
              "config": {},
              "registered_name": null
            },
            "moving_variance_initializer": {
              "module": "keras.initializers",
              "class_name": "Ones",
              "config": {},
              "registered_name": null
            },
            "beta_regularizer": null,
            "gamma_regularizer": null,
            "beta_constraint": null,
            "gamma_constraint": null,
            "synchronized": false
          },
          "registered_name": null,
          "build_config": {
            "input_shape": [
              null,
              56,
              56,
              128
            ]
          },
          "name": "conv2_block5_1_bn",
          "inbound_nodes": [
            [
              [
                "conv2_block5_1_conv",
                0,
                0,
                {}
              ]
            ]
          ]
        },
        {
          "module": "keras.layers",
          "class_name": "Activation",
          "config": {
            "name": "conv2_block5_1_relu",
            "trainable": false,
            "dtype": "float32",
            "activation": "relu"
          },
          "registered_name": null,
          "name": "conv2_block5_1_relu",
          "inbound_nodes": [
            [
              [
                "conv2_block5_1_bn",
                0,
                0,
                {}
              ]
            ]
          ]
        },
        {
          "module": "keras.layers",
          "class_name": "Conv2D",
          "config": {
            "name": "conv2_block5_2_conv",
            "trainable": false,
            "dtype": "float32",
            "filters": 32,
            "kernel_size": [
              3,
              3
            ],
            "strides": [
              1,
              1
            ],
            "padding": "same",
            "data_format": "channels_last",
            "dilation_rate": [
              1,
              1
            ],
            "groups": 1,
            "activation": "linear",
            "use_bias": false,
            "kernel_initializer": {
              "module": "keras.initializers",
              "class_name": "GlorotUniform",
              "config": {
                "seed": null
              },
              "registered_name": null
            },
            "bias_initializer": {
              "module": "keras.initializers",
              "class_name": "Zeros",
              "config": {},
              "registered_name": null
            },
            "kernel_regularizer": null,
            "bias_regularizer": null,
            "activity_regularizer": null,
            "kernel_constraint": null,
            "bias_constraint": null
          },
          "registered_name": null,
          "build_config": {
            "input_shape": [
              null,
              56,
              56,
              128
            ]
          },
          "name": "conv2_block5_2_conv",
          "inbound_nodes": [
            [
              [
                "conv2_block5_1_relu",
                0,
                0,
                {}
              ]
            ]
          ]
        },
        {
          "module": "keras.layers",
          "class_name": "Concatenate",
          "config": {
            "name": "conv2_block5_concat",
            "trainable": false,
            "dtype": "float32",
            "axis": 3
          },
          "registered_name": null,
          "build_config": {
            "input_shape": [
              [
                null,
                56,
                56,
                192
              ],
              [
                null,
                56,
                56,
                32
              ]
            ]
          },
          "name": "conv2_block5_concat",
          "inbound_nodes": [
            {
              "args": [
                [
                  {
                    "class_name": "__keras_tensor__",
                    "config": {
                      "shape": [
                        null,
                        56,
                        56,
                        192
                      ],
                      "dtype": "float32",
                      "keras_history": [
                        "conv2_block4_concat",
                        0,
                        0
                      ]
                    }
                  },
                  {
                    "class_name": "__keras_tensor__",
                    "config": {
                      "shape": [
                        null,
                        56,
                        56,
                        32
                      ],
                      "dtype": "float32",
                      "keras_history": [
                        "conv2_block5_2_conv",
                        0,
                        0
                      ]
                    }
                  }
                ]
              ],
              "kwargs": {}
            }
          ]
        },
        {
          "module": "keras.layers",
          "class_name": "BatchNormalization",
          "config": {
            "name": "conv2_block6_0_bn",
            "trainable": false,
            "dtype": "float32",
            "axis": 3,
            "momentum": 0.99,
            "epsilon": 0.00001001,
            "center": true,
            "scale": true,
            "beta_initializer": {
              "module": "keras.initializers",
              "class_name": "Zeros",
              "config": {},
              "registered_name": null
            },
            "gamma_initializer": {
              "module": "keras.initializers",
              "class_name": "Ones",
              "config": {},
              "registered_name": null
            },
            "moving_mean_initializer": {
              "module": "keras.initializers",
              "class_name": "Zeros",
              "config": {},
              "registered_name": null
            },
            "moving_variance_initializer": {
              "module": "keras.initializers",
              "class_name": "Ones",
              "config": {},
              "registered_name": null
            },
            "beta_regularizer": null,
            "gamma_regularizer": null,
            "beta_constraint": null,
            "gamma_constraint": null,
            "synchronized": false
          },
          "registered_name": null,
          "build_config": {
            "input_shape": [
              null,
              56,
              56,
              224
            ]
          },
          "name": "conv2_block6_0_bn",
          "inbound_nodes": [
            [
              [
                "conv2_block5_concat",
                0,
                0,
                {}
              ]
            ]
          ]
        },
        {
          "module": "keras.layers",
          "class_name": "Activation",
          "config": {
            "name": "conv2_block6_0_relu",
            "trainable": false,
            "dtype": "float32",
            "activation": "relu"
          },
          "registered_name": null,
          "name": "conv2_block6_0_relu",
          "inbound_nodes": [
            [
              [
                "conv2_block6_0_bn",
                0,
                0,
                {}
              ]
            ]
          ]
        },
        {
          "module": "keras.layers",
          "class_name": "Conv2D",
          "config": {
            "name": "conv2_block6_1_conv",
            "trainable": false,
            "dtype": "float32",
            "filters": 128,
            "kernel_size": [
              1,
              1
            ],
            "strides": [
              1,
              1
            ],
            "padding": "valid",
            "data_format": "channels_last",
            "dilation_rate": [
              1,
              1
            ],
            "groups": 1,
            "activation": "linear",
            "use_bias": false,
            "kernel_initializer": {
              "module": "keras.initializers",
              "class_name": "GlorotUniform",
              "config": {
                "seed": null
              },
              "registered_name": null
            },
            "bias_initializer": {
              "module": "keras.initializers",
              "class_name": "Zeros",
              "config": {},
              "registered_name": null
            },
            "kernel_regularizer": null,
            "bias_regularizer": null,
            "activity_regularizer": null,
            "kernel_constraint": null,
            "bias_constraint": null
          },
          "registered_name": null,
          "build_config": {
            "input_shape": [
              null,
              56,
              56,
              224
            ]
          },
          "name": "conv2_block6_1_conv",
          "inbound_nodes": [
            [
              [
                "conv2_block6_0_relu",
                0,
                0,
                {}
              ]
            ]
          ]
        },
        {
          "module": "keras.layers",
          "class_name": "BatchNormalization",
          "config": {
            "name": "conv2_block6_1_bn",
            "trainable": false,
            "dtype": "float32",
            "axis": 3,
            "momentum": 0.99,
            "epsilon": 0.00001001,
            "center": true,
            "scale": true,
            "beta_initializer": {
              "module": "keras.initializers",
              "class_name": "Zeros",
              "config": {},
              "registered_name": null
            },
            "gamma_initializer": {
              "module": "keras.initializers",
              "class_name": "Ones",
              "config": {},
              "registered_name": null
            },
            "moving_mean_initializer": {
              "module": "keras.initializers",
              "class_name": "Zeros",
              "config": {},
              "registered_name": null
            },
            "moving_variance_initializer": {
              "module": "keras.initializers",
              "class_name": "Ones",
              "config": {},
              "registered_name": null
            },
            "beta_regularizer": null,
            "gamma_regularizer": null,
            "beta_constraint": null,
            "gamma_constraint": null,
            "synchronized": false
          },
          "registered_name": null,
          "build_config": {
            "input_shape": [
              null,
              56,
              56,
              128
            ]
          },
          "name": "conv2_block6_1_bn",
          "inbound_nodes": [
            [
              [
                "conv2_block6_1_conv",
                0,
                0,
                {}
              ]
            ]
          ]
        },
        {
          "module": "keras.layers",
          "class_name": "Activation",
          "config": {
            "name": "conv2_block6_1_relu",
            "trainable": false,
            "dtype": "float32",
            "activation": "relu"
          },
          "registered_name": null,
          "name": "conv2_block6_1_relu",
          "inbound_nodes": [
            [
              [
                "conv2_block6_1_bn",
                0,
                0,
                {}
              ]
            ]
          ]
        },
        {
          "module": "keras.layers",
          "class_name": "Conv2D",
          "config": {
            "name": "conv2_block6_2_conv",
            "trainable": false,
            "dtype": "float32",
            "filters": 32,
            "kernel_size": [
              3,
              3
            ],
            "strides": [
              1,
              1
            ],
            "padding": "same",
            "data_format": "channels_last",
            "dilation_rate": [
              1,
              1
            ],
            "groups": 1,
            "activation": "linear",
            "use_bias": false,
            "kernel_initializer": {
              "module": "keras.initializers",
              "class_name": "GlorotUniform",
              "config": {
                "seed": null
              },
              "registered_name": null
            },
            "bias_initializer": {
              "module": "keras.initializers",
              "class_name": "Zeros",
              "config": {},
              "registered_name": null
            },
            "kernel_regularizer": null,
            "bias_regularizer": null,
            "activity_regularizer": null,
            "kernel_constraint": null,
            "bias_constraint": null
          },
          "registered_name": null,
          "build_config": {
            "input_shape": [
              null,
              56,
              56,
              128
            ]
          },
          "name": "conv2_block6_2_conv",
          "inbound_nodes": [
            [
              [
                "conv2_block6_1_relu",
                0,
                0,
                {}
              ]
            ]
          ]
        },
        {
          "module": "keras.layers",
          "class_name": "Concatenate",
          "config": {
            "name": "conv2_block6_concat",
            "trainable": false,
            "dtype": "float32",
            "axis": 3
          },
          "registered_name": null,
          "build_config": {
            "input_shape": [
              [
                null,
                56,
                56,
                224
              ],
              [
                null,
                56,
                56,
                32
              ]
            ]
          },
          "name": "conv2_block6_concat",
          "inbound_nodes": [
            {
              "args": [
                [
                  {
                    "class_name": "__keras_tensor__",
                    "config": {
                      "shape": [
                        null,
                        56,
                        56,
                        224
                      ],
                      "dtype": "float32",
                      "keras_history": [
                        "conv2_block5_concat",
                        0,
                        0
                      ]
                    }
                  },
                  {
                    "class_name": "__keras_tensor__",
                    "config": {
                      "shape": [
                        null,
                        56,
                        56,
                        32
                      ],
                      "dtype": "float32",
                      "keras_history": [
                        "conv2_block6_2_conv",
                        0,
                        0
                      ]
                    }
                  }
                ]
              ],
              "kwargs": {}
            }
          ]
        },
        {
          "module": "keras.layers",
          "class_name": "BatchNormalization",
          "config": {
            "name": "pool2_bn",
            "trainable": false,
            "dtype": "float32",
            "axis": 3,
            "momentum": 0.99,
            "epsilon": 0.00001001,
            "center": true,
            "scale": true,
            "beta_initializer": {
              "module": "keras.initializers",
              "class_name": "Zeros",
              "config": {},
              "registered_name": null
            },
            "gamma_initializer": {
              "module": "keras.initializers",
              "class_name": "Ones",
              "config": {},
              "registered_name": null
            },
            "moving_mean_initializer": {
              "module": "keras.initializers",
              "class_name": "Zeros",
              "config": {},
              "registered_name": null
            },
            "moving_variance_initializer": {
              "module": "keras.initializers",
              "class_name": "Ones",
              "config": {},
              "registered_name": null
            },
            "beta_regularizer": null,
            "gamma_regularizer": null,
            "beta_constraint": null,
            "gamma_constraint": null,
            "synchronized": false
          },
          "registered_name": null,
          "build_config": {
            "input_shape": [
              null,
              56,
              56,
              256
            ]
          },
          "name": "pool2_bn",
          "inbound_nodes": [
            [
              [
                "conv2_block6_concat",
                0,
                0,
                {}
              ]
            ]
          ]
        },
        {
          "module": "keras.layers",
          "class_name": "Activation",
          "config": {
            "name": "pool2_relu",
            "trainable": false,
            "dtype": "float32",
            "activation": "relu"
          },
          "registered_name": null,
          "name": "pool2_relu",
          "inbound_nodes": [
            [
              [
                "pool2_bn",
                0,
                0,
                {}
              ]
            ]
          ]
        },
        {
          "module": "keras.layers",
          "class_name": "Conv2D",
          "config": {
            "name": "pool2_conv",
            "trainable": false,
            "dtype": "float32",
            "filters": 128,
            "kernel_size": [
              1,
              1
            ],
            "strides": [
              1,
              1
            ],
            "padding": "valid",
            "data_format": "channels_last",
            "dilation_rate": [
              1,
              1
            ],
            "groups": 1,
            "activation": "linear",
            "use_bias": false,
            "kernel_initializer": {
              "module": "keras.initializers",
              "class_name": "GlorotUniform",
              "config": {
                "seed": null
              },
              "registered_name": null
            },
            "bias_initializer": {
              "module": "keras.initializers",
              "class_name": "Zeros",
              "config": {},
              "registered_name": null
            },
            "kernel_regularizer": null,
            "bias_regularizer": null,
            "activity_regularizer": null,
            "kernel_constraint": null,
            "bias_constraint": null
          },
          "registered_name": null,
          "build_config": {
            "input_shape": [
              null,
              56,
              56,
              256
            ]
          },
          "name": "pool2_conv",
          "inbound_nodes": [
            [
              [
                "pool2_relu",
                0,
                0,
                {}
              ]
            ]
          ]
        },
        {
          "module": "keras.layers",
          "class_name": "AveragePooling2D",
          "config": {
            "name": "pool2_pool",
            "trainable": false,
            "dtype": "float32",
            "pool_size": [
              2,
              2
            ],
            "padding": "valid",
            "strides": [
              2,
              2
            ],
            "data_format": "channels_last"
          },
          "registered_name": null,
          "name": "pool2_pool",
          "inbound_nodes": [
            [
              [
                "pool2_conv",
                0,
                0,
                {}
              ]
            ]
          ]
        },
        {
          "module": "keras.layers",
          "class_name": "BatchNormalization",
          "config": {
            "name": "conv3_block1_0_bn",
            "trainable": false,
            "dtype": "float32",
            "axis": 3,
            "momentum": 0.99,
            "epsilon": 0.00001001,
            "center": true,
            "scale": true,
            "beta_initializer": {
              "module": "keras.initializers",
              "class_name": "Zeros",
              "config": {},
              "registered_name": null
            },
            "gamma_initializer": {
              "module": "keras.initializers",
              "class_name": "Ones",
              "config": {},
              "registered_name": null
            },
            "moving_mean_initializer": {
              "module": "keras.initializers",
              "class_name": "Zeros",
              "config": {},
              "registered_name": null
            },
            "moving_variance_initializer": {
              "module": "keras.initializers",
              "class_name": "Ones",
              "config": {},
              "registered_name": null
            },
            "beta_regularizer": null,
            "gamma_regularizer": null,
            "beta_constraint": null,
            "gamma_constraint": null,
            "synchronized": false
          },
          "registered_name": null,
          "build_config": {
            "input_shape": [
              null,
              28,
              28,
              128
            ]
          },
          "name": "conv3_block1_0_bn",
          "inbound_nodes": [
            [
              [
                "pool2_pool",
                0,
                0,
                {}
              ]
            ]
          ]
        },
        {
          "module": "keras.layers",
          "class_name": "Activation",
          "config": {
            "name": "conv3_block1_0_relu",
            "trainable": false,
            "dtype": "float32",
            "activation": "relu"
          },
          "registered_name": null,
          "name": "conv3_block1_0_relu",
          "inbound_nodes": [
            [
              [
                "conv3_block1_0_bn",
                0,
                0,
                {}
              ]
            ]
          ]
        },
        {
          "module": "keras.layers",
          "class_name": "Conv2D",
          "config": {
            "name": "conv3_block1_1_conv",
            "trainable": false,
            "dtype": "float32",
            "filters": 128,
            "kernel_size": [
              1,
              1
            ],
            "strides": [
              1,
              1
            ],
            "padding": "valid",
            "data_format": "channels_last",
            "dilation_rate": [
              1,
              1
            ],
            "groups": 1,
            "activation": "linear",
            "use_bias": false,
            "kernel_initializer": {
              "module": "keras.initializers",
              "class_name": "GlorotUniform",
              "config": {
                "seed": null
              },
              "registered_name": null
            },
            "bias_initializer": {
              "module": "keras.initializers",
              "class_name": "Zeros",
              "config": {},
              "registered_name": null
            },
            "kernel_regularizer": null,
            "bias_regularizer": null,
            "activity_regularizer": null,
            "kernel_constraint": null,
            "bias_constraint": null
          },
          "registered_name": null,
          "build_config": {
            "input_shape": [
              null,
              28,
              28,
              128
            ]
          },
          "name": "conv3_block1_1_conv",
          "inbound_nodes": [
            [
              [
                "conv3_block1_0_relu",
                0,
                0,
                {}
              ]
            ]
          ]
        },
        {
          "module": "keras.layers",
          "class_name": "BatchNormalization",
          "config": {
            "name": "conv3_block1_1_bn",
            "trainable": false,
            "dtype": "float32",
            "axis": 3,
            "momentum": 0.99,
            "epsilon": 0.00001001,
            "center": true,
            "scale": true,
            "beta_initializer": {
              "module": "keras.initializers",
              "class_name": "Zeros",
              "config": {},
              "registered_name": null
            },
            "gamma_initializer": {
              "module": "keras.initializers",
              "class_name": "Ones",
              "config": {},
              "registered_name": null
            },
            "moving_mean_initializer": {
              "module": "keras.initializers",
              "class_name": "Zeros",
              "config": {},
              "registered_name": null
            },
            "moving_variance_initializer": {
              "module": "keras.initializers",
              "class_name": "Ones",
              "config": {},
              "registered_name": null
            },
            "beta_regularizer": null,
            "gamma_regularizer": null,
            "beta_constraint": null,
            "gamma_constraint": null,
            "synchronized": false
          },
          "registered_name": null,
          "build_config": {
            "input_shape": [
              null,
              28,
              28,
              128
            ]
          },
          "name": "conv3_block1_1_bn",
          "inbound_nodes": [
            [
              [
                "conv3_block1_1_conv",
                0,
                0,
                {}
              ]
            ]
          ]
        },
        {
          "module": "keras.layers",
          "class_name": "Activation",
          "config": {
            "name": "conv3_block1_1_relu",
            "trainable": false,
            "dtype": "float32",
            "activation": "relu"
          },
          "registered_name": null,
          "name": "conv3_block1_1_relu",
          "inbound_nodes": [
            [
              [
                "conv3_block1_1_bn",
                0,
                0,
                {}
              ]
            ]
          ]
        },
        {
          "module": "keras.layers",
          "class_name": "Conv2D",
          "config": {
            "name": "conv3_block1_2_conv",
            "trainable": false,
            "dtype": "float32",
            "filters": 32,
            "kernel_size": [
              3,
              3
            ],
            "strides": [
              1,
              1
            ],
            "padding": "same",
            "data_format": "channels_last",
            "dilation_rate": [
              1,
              1
            ],
            "groups": 1,
            "activation": "linear",
            "use_bias": false,
            "kernel_initializer": {
              "module": "keras.initializers",
              "class_name": "GlorotUniform",
              "config": {
                "seed": null
              },
              "registered_name": null
            },
            "bias_initializer": {
              "module": "keras.initializers",
              "class_name": "Zeros",
              "config": {},
              "registered_name": null
            },
            "kernel_regularizer": null,
            "bias_regularizer": null,
            "activity_regularizer": null,
            "kernel_constraint": null,
            "bias_constraint": null
          },
          "registered_name": null,
          "build_config": {
            "input_shape": [
              null,
              28,
              28,
              128
            ]
          },
          "name": "conv3_block1_2_conv",
          "inbound_nodes": [
            [
              [
                "conv3_block1_1_relu",
                0,
                0,
                {}
              ]
            ]
          ]
        },
        {
          "module": "keras.layers",
          "class_name": "Concatenate",
          "config": {
            "name": "conv3_block1_concat",
            "trainable": false,
            "dtype": "float32",
            "axis": 3
          },
          "registered_name": null,
          "build_config": {
            "input_shape": [
              [
                null,
                28,
                28,
                128
              ],
              [
                null,
                28,
                28,
                32
              ]
            ]
          },
          "name": "conv3_block1_concat",
          "inbound_nodes": [
            {
              "args": [
                [
                  {
                    "class_name": "__keras_tensor__",
                    "config": {
                      "shape": [
                        null,
                        28,
                        28,
                        128
                      ],
                      "dtype": "float32",
                      "keras_history": [
                        "pool2_pool",
                        0,
                        0
                      ]
                    }
                  },
                  {
                    "class_name": "__keras_tensor__",
                    "config": {
                      "shape": [
                        null,
                        28,
                        28,
                        32
                      ],
                      "dtype": "float32",
                      "keras_history": [
                        "conv3_block1_2_conv",
                        0,
                        0
                      ]
                    }
                  }
                ]
              ],
              "kwargs": {}
            }
          ]
        },
        {
          "module": "keras.layers",
          "class_name": "BatchNormalization",
          "config": {
            "name": "conv3_block2_0_bn",
            "trainable": false,
            "dtype": "float32",
            "axis": 3,
            "momentum": 0.99,
            "epsilon": 0.00001001,
            "center": true,
            "scale": true,
            "beta_initializer": {
              "module": "keras.initializers",
              "class_name": "Zeros",
              "config": {},
              "registered_name": null
            },
            "gamma_initializer": {
              "module": "keras.initializers",
              "class_name": "Ones",
              "config": {},
              "registered_name": null
            },
            "moving_mean_initializer": {
              "module": "keras.initializers",
              "class_name": "Zeros",
              "config": {},
              "registered_name": null
            },
            "moving_variance_initializer": {
              "module": "keras.initializers",
              "class_name": "Ones",
              "config": {},
              "registered_name": null
            },
            "beta_regularizer": null,
            "gamma_regularizer": null,
            "beta_constraint": null,
            "gamma_constraint": null,
            "synchronized": false
          },
          "registered_name": null,
          "build_config": {
            "input_shape": [
              null,
              28,
              28,
              160
            ]
          },
          "name": "conv3_block2_0_bn",
          "inbound_nodes": [
            [
              [
                "conv3_block1_concat",
                0,
                0,
                {}
              ]
            ]
          ]
        },
        {
          "module": "keras.layers",
          "class_name": "Activation",
          "config": {
            "name": "conv3_block2_0_relu",
            "trainable": false,
            "dtype": "float32",
            "activation": "relu"
          },
          "registered_name": null,
          "name": "conv3_block2_0_relu",
          "inbound_nodes": [
            [
              [
                "conv3_block2_0_bn",
                0,
                0,
                {}
              ]
            ]
          ]
        },
        {
          "module": "keras.layers",
          "class_name": "Conv2D",
          "config": {
            "name": "conv3_block2_1_conv",
            "trainable": false,
            "dtype": "float32",
            "filters": 128,
            "kernel_size": [
              1,
              1
            ],
            "strides": [
              1,
              1
            ],
            "padding": "valid",
            "data_format": "channels_last",
            "dilation_rate": [
              1,
              1
            ],
            "groups": 1,
            "activation": "linear",
            "use_bias": false,
            "kernel_initializer": {
              "module": "keras.initializers",
              "class_name": "GlorotUniform",
              "config": {
                "seed": null
              },
              "registered_name": null
            },
            "bias_initializer": {
              "module": "keras.initializers",
              "class_name": "Zeros",
              "config": {},
              "registered_name": null
            },
            "kernel_regularizer": null,
            "bias_regularizer": null,
            "activity_regularizer": null,
            "kernel_constraint": null,
            "bias_constraint": null
          },
          "registered_name": null,
          "build_config": {
            "input_shape": [
              null,
              28,
              28,
              160
            ]
          },
          "name": "conv3_block2_1_conv",
          "inbound_nodes": [
            [
              [
                "conv3_block2_0_relu",
                0,
                0,
                {}
              ]
            ]
          ]
        },
        {
          "module": "keras.layers",
          "class_name": "BatchNormalization",
          "config": {
            "name": "conv3_block2_1_bn",
            "trainable": false,
            "dtype": "float32",
            "axis": 3,
            "momentum": 0.99,
            "epsilon": 0.00001001,
            "center": true,
            "scale": true,
            "beta_initializer": {
              "module": "keras.initializers",
              "class_name": "Zeros",
              "config": {},
              "registered_name": null
            },
            "gamma_initializer": {
              "module": "keras.initializers",
              "class_name": "Ones",
              "config": {},
              "registered_name": null
            },
            "moving_mean_initializer": {
              "module": "keras.initializers",
              "class_name": "Zeros",
              "config": {},
              "registered_name": null
            },
            "moving_variance_initializer": {
              "module": "keras.initializers",
              "class_name": "Ones",
              "config": {},
              "registered_name": null
            },
            "beta_regularizer": null,
            "gamma_regularizer": null,
            "beta_constraint": null,
            "gamma_constraint": null,
            "synchronized": false
          },
          "registered_name": null,
          "build_config": {
            "input_shape": [
              null,
              28,
              28,
              128
            ]
          },
          "name": "conv3_block2_1_bn",
          "inbound_nodes": [
            [
              [
                "conv3_block2_1_conv",
                0,
                0,
                {}
              ]
            ]
          ]
        },
        {
          "module": "keras.layers",
          "class_name": "Activation",
          "config": {
            "name": "conv3_block2_1_relu",
            "trainable": false,
            "dtype": "float32",
            "activation": "relu"
          },
          "registered_name": null,
          "name": "conv3_block2_1_relu",
          "inbound_nodes": [
            [
              [
                "conv3_block2_1_bn",
                0,
                0,
                {}
              ]
            ]
          ]
        },
        {
          "module": "keras.layers",
          "class_name": "Conv2D",
          "config": {
            "name": "conv3_block2_2_conv",
            "trainable": false,
            "dtype": "float32",
            "filters": 32,
            "kernel_size": [
              3,
              3
            ],
            "strides": [
              1,
              1
            ],
            "padding": "same",
            "data_format": "channels_last",
            "dilation_rate": [
              1,
              1
            ],
            "groups": 1,
            "activation": "linear",
            "use_bias": false,
            "kernel_initializer": {
              "module": "keras.initializers",
              "class_name": "GlorotUniform",
              "config": {
                "seed": null
              },
              "registered_name": null
            },
            "bias_initializer": {
              "module": "keras.initializers",
              "class_name": "Zeros",
              "config": {},
              "registered_name": null
            },
            "kernel_regularizer": null,
            "bias_regularizer": null,
            "activity_regularizer": null,
            "kernel_constraint": null,
            "bias_constraint": null
          },
          "registered_name": null,
          "build_config": {
            "input_shape": [
              null,
              28,
              28,
              128
            ]
          },
          "name": "conv3_block2_2_conv",
          "inbound_nodes": [
            [
              [
                "conv3_block2_1_relu",
                0,
                0,
                {}
              ]
            ]
          ]
        },
        {
          "module": "keras.layers",
          "class_name": "Concatenate",
          "config": {
            "name": "conv3_block2_concat",
            "trainable": false,
            "dtype": "float32",
            "axis": 3
          },
          "registered_name": null,
          "build_config": {
            "input_shape": [
              [
                null,
                28,
                28,
                160
              ],
              [
                null,
                28,
                28,
                32
              ]
            ]
          },
          "name": "conv3_block2_concat",
          "inbound_nodes": [
            {
              "args": [
                [
                  {
                    "class_name": "__keras_tensor__",
                    "config": {
                      "shape": [
                        null,
                        28,
                        28,
                        160
                      ],
                      "dtype": "float32",
                      "keras_history": [
                        "conv3_block1_concat",
                        0,
                        0
                      ]
                    }
                  },
                  {
                    "class_name": "__keras_tensor__",
                    "config": {
                      "shape": [
                        null,
                        28,
                        28,
                        32
                      ],
                      "dtype": "float32",
                      "keras_history": [
                        "conv3_block2_2_conv",
                        0,
                        0
                      ]
                    }
                  }
                ]
              ],
              "kwargs": {}
            }
          ]
        },
        {
          "module": "keras.layers",
          "class_name": "BatchNormalization",
          "config": {
            "name": "conv3_block3_0_bn",
            "trainable": false,
            "dtype": "float32",
            "axis": 3,
            "momentum": 0.99,
            "epsilon": 0.00001001,
            "center": true,
            "scale": true,
            "beta_initializer": {
              "module": "keras.initializers",
              "class_name": "Zeros",
              "config": {},
              "registered_name": null
            },
            "gamma_initializer": {
              "module": "keras.initializers",
              "class_name": "Ones",
              "config": {},
              "registered_name": null
            },
            "moving_mean_initializer": {
              "module": "keras.initializers",
              "class_name": "Zeros",
              "config": {},
              "registered_name": null
            },
            "moving_variance_initializer": {
              "module": "keras.initializers",
              "class_name": "Ones",
              "config": {},
              "registered_name": null
            },
            "beta_regularizer": null,
            "gamma_regularizer": null,
            "beta_constraint": null,
            "gamma_constraint": null,
            "synchronized": false
          },
          "registered_name": null,
          "build_config": {
            "input_shape": [
              null,
              28,
              28,
              192
            ]
          },
          "name": "conv3_block3_0_bn",
          "inbound_nodes": [
            [
              [
                "conv3_block2_concat",
                0,
                0,
                {}
              ]
            ]
          ]
        },
        {
          "module": "keras.layers",
          "class_name": "Activation",
          "config": {
            "name": "conv3_block3_0_relu",
            "trainable": false,
            "dtype": "float32",
            "activation": "relu"
          },
          "registered_name": null,
          "name": "conv3_block3_0_relu",
          "inbound_nodes": [
            [
              [
                "conv3_block3_0_bn",
                0,
                0,
                {}
              ]
            ]
          ]
        },
        {
          "module": "keras.layers",
          "class_name": "Conv2D",
          "config": {
            "name": "conv3_block3_1_conv",
            "trainable": false,
            "dtype": "float32",
            "filters": 128,
            "kernel_size": [
              1,
              1
            ],
            "strides": [
              1,
              1
            ],
            "padding": "valid",
            "data_format": "channels_last",
            "dilation_rate": [
              1,
              1
            ],
            "groups": 1,
            "activation": "linear",
            "use_bias": false,
            "kernel_initializer": {
              "module": "keras.initializers",
              "class_name": "GlorotUniform",
              "config": {
                "seed": null
              },
              "registered_name": null
            },
            "bias_initializer": {
              "module": "keras.initializers",
              "class_name": "Zeros",
              "config": {},
              "registered_name": null
            },
            "kernel_regularizer": null,
            "bias_regularizer": null,
            "activity_regularizer": null,
            "kernel_constraint": null,
            "bias_constraint": null
          },
          "registered_name": null,
          "build_config": {
            "input_shape": [
              null,
              28,
              28,
              192
            ]
          },
          "name": "conv3_block3_1_conv",
          "inbound_nodes": [
            [
              [
                "conv3_block3_0_relu",
                0,
                0,
                {}
              ]
            ]
          ]
        },
        {
          "module": "keras.layers",
          "class_name": "BatchNormalization",
          "config": {
            "name": "conv3_block3_1_bn",
            "trainable": false,
            "dtype": "float32",
            "axis": 3,
            "momentum": 0.99,
            "epsilon": 0.00001001,
            "center": true,
            "scale": true,
            "beta_initializer": {
              "module": "keras.initializers",
              "class_name": "Zeros",
              "config": {},
              "registered_name": null
            },
            "gamma_initializer": {
              "module": "keras.initializers",
              "class_name": "Ones",
              "config": {},
              "registered_name": null
            },
            "moving_mean_initializer": {
              "module": "keras.initializers",
              "class_name": "Zeros",
              "config": {},
              "registered_name": null
            },
            "moving_variance_initializer": {
              "module": "keras.initializers",
              "class_name": "Ones",
              "config": {},
              "registered_name": null
            },
            "beta_regularizer": null,
            "gamma_regularizer": null,
            "beta_constraint": null,
            "gamma_constraint": null,
            "synchronized": false
          },
          "registered_name": null,
          "build_config": {
            "input_shape": [
              null,
              28,
              28,
              128
            ]
          },
          "name": "conv3_block3_1_bn",
          "inbound_nodes": [
            [
              [
                "conv3_block3_1_conv",
                0,
                0,
                {}
              ]
            ]
          ]
        },
        {
          "module": "keras.layers",
          "class_name": "Activation",
          "config": {
            "name": "conv3_block3_1_relu",
            "trainable": false,
            "dtype": "float32",
            "activation": "relu"
          },
          "registered_name": null,
          "name": "conv3_block3_1_relu",
          "inbound_nodes": [
            [
              [
                "conv3_block3_1_bn",
                0,
                0,
                {}
              ]
            ]
          ]
        },
        {
          "module": "keras.layers",
          "class_name": "Conv2D",
          "config": {
            "name": "conv3_block3_2_conv",
            "trainable": false,
            "dtype": "float32",
            "filters": 32,
            "kernel_size": [
              3,
              3
            ],
            "strides": [
              1,
              1
            ],
            "padding": "same",
            "data_format": "channels_last",
            "dilation_rate": [
              1,
              1
            ],
            "groups": 1,
            "activation": "linear",
            "use_bias": false,
            "kernel_initializer": {
              "module": "keras.initializers",
              "class_name": "GlorotUniform",
              "config": {
                "seed": null
              },
              "registered_name": null
            },
            "bias_initializer": {
              "module": "keras.initializers",
              "class_name": "Zeros",
              "config": {},
              "registered_name": null
            },
            "kernel_regularizer": null,
            "bias_regularizer": null,
            "activity_regularizer": null,
            "kernel_constraint": null,
            "bias_constraint": null
          },
          "registered_name": null,
          "build_config": {
            "input_shape": [
              null,
              28,
              28,
              128
            ]
          },
          "name": "conv3_block3_2_conv",
          "inbound_nodes": [
            [
              [
                "conv3_block3_1_relu",
                0,
                0,
                {}
              ]
            ]
          ]
        },
        {
          "module": "keras.layers",
          "class_name": "Concatenate",
          "config": {
            "name": "conv3_block3_concat",
            "trainable": false,
            "dtype": "float32",
            "axis": 3
          },
          "registered_name": null,
          "build_config": {
            "input_shape": [
              [
                null,
                28,
                28,
                192
              ],
              [
                null,
                28,
                28,
                32
              ]
            ]
          },
          "name": "conv3_block3_concat",
          "inbound_nodes": [
            {
              "args": [
                [
                  {
                    "class_name": "__keras_tensor__",
                    "config": {
                      "shape": [
                        null,
                        28,
                        28,
                        192
                      ],
                      "dtype": "float32",
                      "keras_history": [
                        "conv3_block2_concat",
                        0,
                        0
                      ]
                    }
                  },
                  {
                    "class_name": "__keras_tensor__",
                    "config": {
                      "shape": [
                        null,
                        28,
                        28,
                        32
                      ],
                      "dtype": "float32",
                      "keras_history": [
                        "conv3_block3_2_conv",
                        0,
                        0
                      ]
                    }
                  }
                ]
              ],
              "kwargs": {}
            }
          ]
        },
        {
          "module": "keras.layers",
          "class_name": "BatchNormalization",
          "config": {
            "name": "conv3_block4_0_bn",
            "trainable": false,
            "dtype": "float32",
            "axis": 3,
            "momentum": 0.99,
            "epsilon": 0.00001001,
            "center": true,
            "scale": true,
            "beta_initializer": {
              "module": "keras.initializers",
              "class_name": "Zeros",
              "config": {},
              "registered_name": null
            },
            "gamma_initializer": {
              "module": "keras.initializers",
              "class_name": "Ones",
              "config": {},
              "registered_name": null
            },
            "moving_mean_initializer": {
              "module": "keras.initializers",
              "class_name": "Zeros",
              "config": {},
              "registered_name": null
            },
            "moving_variance_initializer": {
              "module": "keras.initializers",
              "class_name": "Ones",
              "config": {},
              "registered_name": null
            },
            "beta_regularizer": null,
            "gamma_regularizer": null,
            "beta_constraint": null,
            "gamma_constraint": null,
            "synchronized": false
          },
          "registered_name": null,
          "build_config": {
            "input_shape": [
              null,
              28,
              28,
              224
            ]
          },
          "name": "conv3_block4_0_bn",
          "inbound_nodes": [
            [
              [
                "conv3_block3_concat",
                0,
                0,
                {}
              ]
            ]
          ]
        },
        {
          "module": "keras.layers",
          "class_name": "Activation",
          "config": {
            "name": "conv3_block4_0_relu",
            "trainable": false,
            "dtype": "float32",
            "activation": "relu"
          },
          "registered_name": null,
          "name": "conv3_block4_0_relu",
          "inbound_nodes": [
            [
              [
                "conv3_block4_0_bn",
                0,
                0,
                {}
              ]
            ]
          ]
        },
        {
          "module": "keras.layers",
          "class_name": "Conv2D",
          "config": {
            "name": "conv3_block4_1_conv",
            "trainable": false,
            "dtype": "float32",
            "filters": 128,
            "kernel_size": [
              1,
              1
            ],
            "strides": [
              1,
              1
            ],
            "padding": "valid",
            "data_format": "channels_last",
            "dilation_rate": [
              1,
              1
            ],
            "groups": 1,
            "activation": "linear",
            "use_bias": false,
            "kernel_initializer": {
              "module": "keras.initializers",
              "class_name": "GlorotUniform",
              "config": {
                "seed": null
              },
              "registered_name": null
            },
            "bias_initializer": {
              "module": "keras.initializers",
              "class_name": "Zeros",
              "config": {},
              "registered_name": null
            },
            "kernel_regularizer": null,
            "bias_regularizer": null,
            "activity_regularizer": null,
            "kernel_constraint": null,
            "bias_constraint": null
          },
          "registered_name": null,
          "build_config": {
            "input_shape": [
              null,
              28,
              28,
              224
            ]
          },
          "name": "conv3_block4_1_conv",
          "inbound_nodes": [
            [
              [
                "conv3_block4_0_relu",
                0,
                0,
                {}
              ]
            ]
          ]
        },
        {
          "module": "keras.layers",
          "class_name": "BatchNormalization",
          "config": {
            "name": "conv3_block4_1_bn",
            "trainable": false,
            "dtype": "float32",
            "axis": 3,
            "momentum": 0.99,
            "epsilon": 0.00001001,
            "center": true,
            "scale": true,
            "beta_initializer": {
              "module": "keras.initializers",
              "class_name": "Zeros",
              "config": {},
              "registered_name": null
            },
            "gamma_initializer": {
              "module": "keras.initializers",
              "class_name": "Ones",
              "config": {},
              "registered_name": null
            },
            "moving_mean_initializer": {
              "module": "keras.initializers",
              "class_name": "Zeros",
              "config": {},
              "registered_name": null
            },
            "moving_variance_initializer": {
              "module": "keras.initializers",
              "class_name": "Ones",
              "config": {},
              "registered_name": null
            },
            "beta_regularizer": null,
            "gamma_regularizer": null,
            "beta_constraint": null,
            "gamma_constraint": null,
            "synchronized": false
          },
          "registered_name": null,
          "build_config": {
            "input_shape": [
              null,
              28,
              28,
              128
            ]
          },
          "name": "conv3_block4_1_bn",
          "inbound_nodes": [
            [
              [
                "conv3_block4_1_conv",
                0,
                0,
                {}
              ]
            ]
          ]
        },
        {
          "module": "keras.layers",
          "class_name": "Activation",
          "config": {
            "name": "conv3_block4_1_relu",
            "trainable": false,
            "dtype": "float32",
            "activation": "relu"
          },
          "registered_name": null,
          "name": "conv3_block4_1_relu",
          "inbound_nodes": [
            [
              [
                "conv3_block4_1_bn",
                0,
                0,
                {}
              ]
            ]
          ]
        },
        {
          "module": "keras.layers",
          "class_name": "Conv2D",
          "config": {
            "name": "conv3_block4_2_conv",
            "trainable": false,
            "dtype": "float32",
            "filters": 32,
            "kernel_size": [
              3,
              3
            ],
            "strides": [
              1,
              1
            ],
            "padding": "same",
            "data_format": "channels_last",
            "dilation_rate": [
              1,
              1
            ],
            "groups": 1,
            "activation": "linear",
            "use_bias": false,
            "kernel_initializer": {
              "module": "keras.initializers",
              "class_name": "GlorotUniform",
              "config": {
                "seed": null
              },
              "registered_name": null
            },
            "bias_initializer": {
              "module": "keras.initializers",
              "class_name": "Zeros",
              "config": {},
              "registered_name": null
            },
            "kernel_regularizer": null,
            "bias_regularizer": null,
            "activity_regularizer": null,
            "kernel_constraint": null,
            "bias_constraint": null
          },
          "registered_name": null,
          "build_config": {
            "input_shape": [
              null,
              28,
              28,
              128
            ]
          },
          "name": "conv3_block4_2_conv",
          "inbound_nodes": [
            [
              [
                "conv3_block4_1_relu",
                0,
                0,
                {}
              ]
            ]
          ]
        },
        {
          "module": "keras.layers",
          "class_name": "Concatenate",
          "config": {
            "name": "conv3_block4_concat",
            "trainable": false,
            "dtype": "float32",
            "axis": 3
          },
          "registered_name": null,
          "build_config": {
            "input_shape": [
              [
                null,
                28,
                28,
                224
              ],
              [
                null,
                28,
                28,
                32
              ]
            ]
          },
          "name": "conv3_block4_concat",
          "inbound_nodes": [
            {
              "args": [
                [
                  {
                    "class_name": "__keras_tensor__",
                    "config": {
                      "shape": [
                        null,
                        28,
                        28,
                        224
                      ],
                      "dtype": "float32",
                      "keras_history": [
                        "conv3_block3_concat",
                        0,
                        0
                      ]
                    }
                  },
                  {
                    "class_name": "__keras_tensor__",
                    "config": {
                      "shape": [
                        null,
                        28,
                        28,
                        32
                      ],
                      "dtype": "float32",
                      "keras_history": [
                        "conv3_block4_2_conv",
                        0,
                        0
                      ]
                    }
                  }
                ]
              ],
              "kwargs": {}
            }
          ]
        },
        {
          "module": "keras.layers",
          "class_name": "BatchNormalization",
          "config": {
            "name": "conv3_block5_0_bn",
            "trainable": false,
            "dtype": "float32",
            "axis": 3,
            "momentum": 0.99,
            "epsilon": 0.00001001,
            "center": true,
            "scale": true,
            "beta_initializer": {
              "module": "keras.initializers",
              "class_name": "Zeros",
              "config": {},
              "registered_name": null
            },
            "gamma_initializer": {
              "module": "keras.initializers",
              "class_name": "Ones",
              "config": {},
              "registered_name": null
            },
            "moving_mean_initializer": {
              "module": "keras.initializers",
              "class_name": "Zeros",
              "config": {},
              "registered_name": null
            },
            "moving_variance_initializer": {
              "module": "keras.initializers",
              "class_name": "Ones",
              "config": {},
              "registered_name": null
            },
            "beta_regularizer": null,
            "gamma_regularizer": null,
            "beta_constraint": null,
            "gamma_constraint": null,
            "synchronized": false
          },
          "registered_name": null,
          "build_config": {
            "input_shape": [
              null,
              28,
              28,
              256
            ]
          },
          "name": "conv3_block5_0_bn",
          "inbound_nodes": [
            [
              [
                "conv3_block4_concat",
                0,
                0,
                {}
              ]
            ]
          ]
        },
        {
          "module": "keras.layers",
          "class_name": "Activation",
          "config": {
            "name": "conv3_block5_0_relu",
            "trainable": false,
            "dtype": "float32",
            "activation": "relu"
          },
          "registered_name": null,
          "name": "conv3_block5_0_relu",
          "inbound_nodes": [
            [
              [
                "conv3_block5_0_bn",
                0,
                0,
                {}
              ]
            ]
          ]
        },
        {
          "module": "keras.layers",
          "class_name": "Conv2D",
          "config": {
            "name": "conv3_block5_1_conv",
            "trainable": false,
            "dtype": "float32",
            "filters": 128,
            "kernel_size": [
              1,
              1
            ],
            "strides": [
              1,
              1
            ],
            "padding": "valid",
            "data_format": "channels_last",
            "dilation_rate": [
              1,
              1
            ],
            "groups": 1,
            "activation": "linear",
            "use_bias": false,
            "kernel_initializer": {
              "module": "keras.initializers",
              "class_name": "GlorotUniform",
              "config": {
                "seed": null
              },
              "registered_name": null
            },
            "bias_initializer": {
              "module": "keras.initializers",
              "class_name": "Zeros",
              "config": {},
              "registered_name": null
            },
            "kernel_regularizer": null,
            "bias_regularizer": null,
            "activity_regularizer": null,
            "kernel_constraint": null,
            "bias_constraint": null
          },
          "registered_name": null,
          "build_config": {
            "input_shape": [
              null,
              28,
              28,
              256
            ]
          },
          "name": "conv3_block5_1_conv",
          "inbound_nodes": [
            [
              [
                "conv3_block5_0_relu",
                0,
                0,
                {}
              ]
            ]
          ]
        },
        {
          "module": "keras.layers",
          "class_name": "BatchNormalization",
          "config": {
            "name": "conv3_block5_1_bn",
            "trainable": false,
            "dtype": "float32",
            "axis": 3,
            "momentum": 0.99,
            "epsilon": 0.00001001,
            "center": true,
            "scale": true,
            "beta_initializer": {
              "module": "keras.initializers",
              "class_name": "Zeros",
              "config": {},
              "registered_name": null
            },
            "gamma_initializer": {
              "module": "keras.initializers",
              "class_name": "Ones",
              "config": {},
              "registered_name": null
            },
            "moving_mean_initializer": {
              "module": "keras.initializers",
              "class_name": "Zeros",
              "config": {},
              "registered_name": null
            },
            "moving_variance_initializer": {
              "module": "keras.initializers",
              "class_name": "Ones",
              "config": {},
              "registered_name": null
            },
            "beta_regularizer": null,
            "gamma_regularizer": null,
            "beta_constraint": null,
            "gamma_constraint": null,
            "synchronized": false
          },
          "registered_name": null,
          "build_config": {
            "input_shape": [
              null,
              28,
              28,
              128
            ]
          },
          "name": "conv3_block5_1_bn",
          "inbound_nodes": [
            [
              [
                "conv3_block5_1_conv",
                0,
                0,
                {}
              ]
            ]
          ]
        },
        {
          "module": "keras.layers",
          "class_name": "Activation",
          "config": {
            "name": "conv3_block5_1_relu",
            "trainable": false,
            "dtype": "float32",
            "activation": "relu"
          },
          "registered_name": null,
          "name": "conv3_block5_1_relu",
          "inbound_nodes": [
            [
              [
                "conv3_block5_1_bn",
                0,
                0,
                {}
              ]
            ]
          ]
        },
        {
          "module": "keras.layers",
          "class_name": "Conv2D",
          "config": {
            "name": "conv3_block5_2_conv",
            "trainable": false,
            "dtype": "float32",
            "filters": 32,
            "kernel_size": [
              3,
              3
            ],
            "strides": [
              1,
              1
            ],
            "padding": "same",
            "data_format": "channels_last",
            "dilation_rate": [
              1,
              1
            ],
            "groups": 1,
            "activation": "linear",
            "use_bias": false,
            "kernel_initializer": {
              "module": "keras.initializers",
              "class_name": "GlorotUniform",
              "config": {
                "seed": null
              },
              "registered_name": null
            },
            "bias_initializer": {
              "module": "keras.initializers",
              "class_name": "Zeros",
              "config": {},
              "registered_name": null
            },
            "kernel_regularizer": null,
            "bias_regularizer": null,
            "activity_regularizer": null,
            "kernel_constraint": null,
            "bias_constraint": null
          },
          "registered_name": null,
          "build_config": {
            "input_shape": [
              null,
              28,
              28,
              128
            ]
          },
          "name": "conv3_block5_2_conv",
          "inbound_nodes": [
            [
              [
                "conv3_block5_1_relu",
                0,
                0,
                {}
              ]
            ]
          ]
        },
        {
          "module": "keras.layers",
          "class_name": "Concatenate",
          "config": {
            "name": "conv3_block5_concat",
            "trainable": false,
            "dtype": "float32",
            "axis": 3
          },
          "registered_name": null,
          "build_config": {
            "input_shape": [
              [
                null,
                28,
                28,
                256
              ],
              [
                null,
                28,
                28,
                32
              ]
            ]
          },
          "name": "conv3_block5_concat",
          "inbound_nodes": [
            {
              "args": [
                [
                  {
                    "class_name": "__keras_tensor__",
                    "config": {
                      "shape": [
                        null,
                        28,
                        28,
                        256
                      ],
                      "dtype": "float32",
                      "keras_history": [
                        "conv3_block4_concat",
                        0,
                        0
                      ]
                    }
                  },
                  {
                    "class_name": "__keras_tensor__",
                    "config": {
                      "shape": [
                        null,
                        28,
                        28,
                        32
                      ],
                      "dtype": "float32",
                      "keras_history": [
                        "conv3_block5_2_conv",
                        0,
                        0
                      ]
                    }
                  }
                ]
              ],
              "kwargs": {}
            }
          ]
        },
        {
          "module": "keras.layers",
          "class_name": "BatchNormalization",
          "config": {
            "name": "conv3_block6_0_bn",
            "trainable": false,
            "dtype": "float32",
            "axis": 3,
            "momentum": 0.99,
            "epsilon": 0.00001001,
            "center": true,
            "scale": true,
            "beta_initializer": {
              "module": "keras.initializers",
              "class_name": "Zeros",
              "config": {},
              "registered_name": null
            },
            "gamma_initializer": {
              "module": "keras.initializers",
              "class_name": "Ones",
              "config": {},
              "registered_name": null
            },
            "moving_mean_initializer": {
              "module": "keras.initializers",
              "class_name": "Zeros",
              "config": {},
              "registered_name": null
            },
            "moving_variance_initializer": {
              "module": "keras.initializers",
              "class_name": "Ones",
              "config": {},
              "registered_name": null
            },
            "beta_regularizer": null,
            "gamma_regularizer": null,
            "beta_constraint": null,
            "gamma_constraint": null,
            "synchronized": false
          },
          "registered_name": null,
          "build_config": {
            "input_shape": [
              null,
              28,
              28,
              288
            ]
          },
          "name": "conv3_block6_0_bn",
          "inbound_nodes": [
            [
              [
                "conv3_block5_concat",
                0,
                0,
                {}
              ]
            ]
          ]
        },
        {
          "module": "keras.layers",
          "class_name": "Activation",
          "config": {
            "name": "conv3_block6_0_relu",
            "trainable": false,
            "dtype": "float32",
            "activation": "relu"
          },
          "registered_name": null,
          "name": "conv3_block6_0_relu",
          "inbound_nodes": [
            [
              [
                "conv3_block6_0_bn",
                0,
                0,
                {}
              ]
            ]
          ]
        },
        {
          "module": "keras.layers",
          "class_name": "Conv2D",
          "config": {
            "name": "conv3_block6_1_conv",
            "trainable": false,
            "dtype": "float32",
            "filters": 128,
            "kernel_size": [
              1,
              1
            ],
            "strides": [
              1,
              1
            ],
            "padding": "valid",
            "data_format": "channels_last",
            "dilation_rate": [
              1,
              1
            ],
            "groups": 1,
            "activation": "linear",
            "use_bias": false,
            "kernel_initializer": {
              "module": "keras.initializers",
              "class_name": "GlorotUniform",
              "config": {
                "seed": null
              },
              "registered_name": null
            },
            "bias_initializer": {
              "module": "keras.initializers",
              "class_name": "Zeros",
              "config": {},
              "registered_name": null
            },
            "kernel_regularizer": null,
            "bias_regularizer": null,
            "activity_regularizer": null,
            "kernel_constraint": null,
            "bias_constraint": null
          },
          "registered_name": null,
          "build_config": {
            "input_shape": [
              null,
              28,
              28,
              288
            ]
          },
          "name": "conv3_block6_1_conv",
          "inbound_nodes": [
            [
              [
                "conv3_block6_0_relu",
                0,
                0,
                {}
              ]
            ]
          ]
        },
        {
          "module": "keras.layers",
          "class_name": "BatchNormalization",
          "config": {
            "name": "conv3_block6_1_bn",
            "trainable": false,
            "dtype": "float32",
            "axis": 3,
            "momentum": 0.99,
            "epsilon": 0.00001001,
            "center": true,
            "scale": true,
            "beta_initializer": {
              "module": "keras.initializers",
              "class_name": "Zeros",
              "config": {},
              "registered_name": null
            },
            "gamma_initializer": {
              "module": "keras.initializers",
              "class_name": "Ones",
              "config": {},
              "registered_name": null
            },
            "moving_mean_initializer": {
              "module": "keras.initializers",
              "class_name": "Zeros",
              "config": {},
              "registered_name": null
            },
            "moving_variance_initializer": {
              "module": "keras.initializers",
              "class_name": "Ones",
              "config": {},
              "registered_name": null
            },
            "beta_regularizer": null,
            "gamma_regularizer": null,
            "beta_constraint": null,
            "gamma_constraint": null,
            "synchronized": false
          },
          "registered_name": null,
          "build_config": {
            "input_shape": [
              null,
              28,
              28,
              128
            ]
          },
          "name": "conv3_block6_1_bn",
          "inbound_nodes": [
            [
              [
                "conv3_block6_1_conv",
                0,
                0,
                {}
              ]
            ]
          ]
        },
        {
          "module": "keras.layers",
          "class_name": "Activation",
          "config": {
            "name": "conv3_block6_1_relu",
            "trainable": false,
            "dtype": "float32",
            "activation": "relu"
          },
          "registered_name": null,
          "name": "conv3_block6_1_relu",
          "inbound_nodes": [
            [
              [
                "conv3_block6_1_bn",
                0,
                0,
                {}
              ]
            ]
          ]
        },
        {
          "module": "keras.layers",
          "class_name": "Conv2D",
          "config": {
            "name": "conv3_block6_2_conv",
            "trainable": false,
            "dtype": "float32",
            "filters": 32,
            "kernel_size": [
              3,
              3
            ],
            "strides": [
              1,
              1
            ],
            "padding": "same",
            "data_format": "channels_last",
            "dilation_rate": [
              1,
              1
            ],
            "groups": 1,
            "activation": "linear",
            "use_bias": false,
            "kernel_initializer": {
              "module": "keras.initializers",
              "class_name": "GlorotUniform",
              "config": {
                "seed": null
              },
              "registered_name": null
            },
            "bias_initializer": {
              "module": "keras.initializers",
              "class_name": "Zeros",
              "config": {},
              "registered_name": null
            },
            "kernel_regularizer": null,
            "bias_regularizer": null,
            "activity_regularizer": null,
            "kernel_constraint": null,
            "bias_constraint": null
          },
          "registered_name": null,
          "build_config": {
            "input_shape": [
              null,
              28,
              28,
              128
            ]
          },
          "name": "conv3_block6_2_conv",
          "inbound_nodes": [
            [
              [
                "conv3_block6_1_relu",
                0,
                0,
                {}
              ]
            ]
          ]
        },
        {
          "module": "keras.layers",
          "class_name": "Concatenate",
          "config": {
            "name": "conv3_block6_concat",
            "trainable": false,
            "dtype": "float32",
            "axis": 3
          },
          "registered_name": null,
          "build_config": {
            "input_shape": [
              [
                null,
                28,
                28,
                288
              ],
              [
                null,
                28,
                28,
                32
              ]
            ]
          },
          "name": "conv3_block6_concat",
          "inbound_nodes": [
            {
              "args": [
                [
                  {
                    "class_name": "__keras_tensor__",
                    "config": {
                      "shape": [
                        null,
                        28,
                        28,
                        288
                      ],
                      "dtype": "float32",
                      "keras_history": [
                        "conv3_block5_concat",
                        0,
                        0
                      ]
                    }
                  },
                  {
                    "class_name": "__keras_tensor__",
                    "config": {
                      "shape": [
                        null,
                        28,
                        28,
                        32
                      ],
                      "dtype": "float32",
                      "keras_history": [
                        "conv3_block6_2_conv",
                        0,
                        0
                      ]
                    }
                  }
                ]
              ],
              "kwargs": {}
            }
          ]
        },
        {
          "module": "keras.layers",
          "class_name": "BatchNormalization",
          "config": {
            "name": "conv3_block7_0_bn",
            "trainable": false,
            "dtype": "float32",
            "axis": 3,
            "momentum": 0.99,
            "epsilon": 0.00001001,
            "center": true,
            "scale": true,
            "beta_initializer": {
              "module": "keras.initializers",
              "class_name": "Zeros",
              "config": {},
              "registered_name": null
            },
            "gamma_initializer": {
              "module": "keras.initializers",
              "class_name": "Ones",
              "config": {},
              "registered_name": null
            },
            "moving_mean_initializer": {
              "module": "keras.initializers",
              "class_name": "Zeros",
              "config": {},
              "registered_name": null
            },
            "moving_variance_initializer": {
              "module": "keras.initializers",
              "class_name": "Ones",
              "config": {},
              "registered_name": null
            },
            "beta_regularizer": null,
            "gamma_regularizer": null,
            "beta_constraint": null,
            "gamma_constraint": null,
            "synchronized": false
          },
          "registered_name": null,
          "build_config": {
            "input_shape": [
              null,
              28,
              28,
              320
            ]
          },
          "name": "conv3_block7_0_bn",
          "inbound_nodes": [
            [
              [
                "conv3_block6_concat",
                0,
                0,
                {}
              ]
            ]
          ]
        },
        {
          "module": "keras.layers",
          "class_name": "Activation",
          "config": {
            "name": "conv3_block7_0_relu",
            "trainable": false,
            "dtype": "float32",
            "activation": "relu"
          },
          "registered_name": null,
          "name": "conv3_block7_0_relu",
          "inbound_nodes": [
            [
              [
                "conv3_block7_0_bn",
                0,
                0,
                {}
              ]
            ]
          ]
        },
        {
          "module": "keras.layers",
          "class_name": "Conv2D",
          "config": {
            "name": "conv3_block7_1_conv",
            "trainable": false,
            "dtype": "float32",
            "filters": 128,
            "kernel_size": [
              1,
              1
            ],
            "strides": [
              1,
              1
            ],
            "padding": "valid",
            "data_format": "channels_last",
            "dilation_rate": [
              1,
              1
            ],
            "groups": 1,
            "activation": "linear",
            "use_bias": false,
            "kernel_initializer": {
              "module": "keras.initializers",
              "class_name": "GlorotUniform",
              "config": {
                "seed": null
              },
              "registered_name": null
            },
            "bias_initializer": {
              "module": "keras.initializers",
              "class_name": "Zeros",
              "config": {},
              "registered_name": null
            },
            "kernel_regularizer": null,
            "bias_regularizer": null,
            "activity_regularizer": null,
            "kernel_constraint": null,
            "bias_constraint": null
          },
          "registered_name": null,
          "build_config": {
            "input_shape": [
              null,
              28,
              28,
              320
            ]
          },
          "name": "conv3_block7_1_conv",
          "inbound_nodes": [
            [
              [
                "conv3_block7_0_relu",
                0,
                0,
                {}
              ]
            ]
          ]
        },
        {
          "module": "keras.layers",
          "class_name": "BatchNormalization",
          "config": {
            "name": "conv3_block7_1_bn",
            "trainable": false,
            "dtype": "float32",
            "axis": 3,
            "momentum": 0.99,
            "epsilon": 0.00001001,
            "center": true,
            "scale": true,
            "beta_initializer": {
              "module": "keras.initializers",
              "class_name": "Zeros",
              "config": {},
              "registered_name": null
            },
            "gamma_initializer": {
              "module": "keras.initializers",
              "class_name": "Ones",
              "config": {},
              "registered_name": null
            },
            "moving_mean_initializer": {
              "module": "keras.initializers",
              "class_name": "Zeros",
              "config": {},
              "registered_name": null
            },
            "moving_variance_initializer": {
              "module": "keras.initializers",
              "class_name": "Ones",
              "config": {},
              "registered_name": null
            },
            "beta_regularizer": null,
            "gamma_regularizer": null,
            "beta_constraint": null,
            "gamma_constraint": null,
            "synchronized": false
          },
          "registered_name": null,
          "build_config": {
            "input_shape": [
              null,
              28,
              28,
              128
            ]
          },
          "name": "conv3_block7_1_bn",
          "inbound_nodes": [
            [
              [
                "conv3_block7_1_conv",
                0,
                0,
                {}
              ]
            ]
          ]
        },
        {
          "module": "keras.layers",
          "class_name": "Activation",
          "config": {
            "name": "conv3_block7_1_relu",
            "trainable": false,
            "dtype": "float32",
            "activation": "relu"
          },
          "registered_name": null,
          "name": "conv3_block7_1_relu",
          "inbound_nodes": [
            [
              [
                "conv3_block7_1_bn",
                0,
                0,
                {}
              ]
            ]
          ]
        },
        {
          "module": "keras.layers",
          "class_name": "Conv2D",
          "config": {
            "name": "conv3_block7_2_conv",
            "trainable": false,
            "dtype": "float32",
            "filters": 32,
            "kernel_size": [
              3,
              3
            ],
            "strides": [
              1,
              1
            ],
            "padding": "same",
            "data_format": "channels_last",
            "dilation_rate": [
              1,
              1
            ],
            "groups": 1,
            "activation": "linear",
            "use_bias": false,
            "kernel_initializer": {
              "module": "keras.initializers",
              "class_name": "GlorotUniform",
              "config": {
                "seed": null
              },
              "registered_name": null
            },
            "bias_initializer": {
              "module": "keras.initializers",
              "class_name": "Zeros",
              "config": {},
              "registered_name": null
            },
            "kernel_regularizer": null,
            "bias_regularizer": null,
            "activity_regularizer": null,
            "kernel_constraint": null,
            "bias_constraint": null
          },
          "registered_name": null,
          "build_config": {
            "input_shape": [
              null,
              28,
              28,
              128
            ]
          },
          "name": "conv3_block7_2_conv",
          "inbound_nodes": [
            [
              [
                "conv3_block7_1_relu",
                0,
                0,
                {}
              ]
            ]
          ]
        },
        {
          "module": "keras.layers",
          "class_name": "Concatenate",
          "config": {
            "name": "conv3_block7_concat",
            "trainable": false,
            "dtype": "float32",
            "axis": 3
          },
          "registered_name": null,
          "build_config": {
            "input_shape": [
              [
                null,
                28,
                28,
                320
              ],
              [
                null,
                28,
                28,
                32
              ]
            ]
          },
          "name": "conv3_block7_concat",
          "inbound_nodes": [
            {
              "args": [
                [
                  {
                    "class_name": "__keras_tensor__",
                    "config": {
                      "shape": [
                        null,
                        28,
                        28,
                        320
                      ],
                      "dtype": "float32",
                      "keras_history": [
                        "conv3_block6_concat",
                        0,
                        0
                      ]
                    }
                  },
                  {
                    "class_name": "__keras_tensor__",
                    "config": {
                      "shape": [
                        null,
                        28,
                        28,
                        32
                      ],
                      "dtype": "float32",
                      "keras_history": [
                        "conv3_block7_2_conv",
                        0,
                        0
                      ]
                    }
                  }
                ]
              ],
              "kwargs": {}
            }
          ]
        },
        {
          "module": "keras.layers",
          "class_name": "BatchNormalization",
          "config": {
            "name": "conv3_block8_0_bn",
            "trainable": false,
            "dtype": "float32",
            "axis": 3,
            "momentum": 0.99,
            "epsilon": 0.00001001,
            "center": true,
            "scale": true,
            "beta_initializer": {
              "module": "keras.initializers",
              "class_name": "Zeros",
              "config": {},
              "registered_name": null
            },
            "gamma_initializer": {
              "module": "keras.initializers",
              "class_name": "Ones",
              "config": {},
              "registered_name": null
            },
            "moving_mean_initializer": {
              "module": "keras.initializers",
              "class_name": "Zeros",
              "config": {},
              "registered_name": null
            },
            "moving_variance_initializer": {
              "module": "keras.initializers",
              "class_name": "Ones",
              "config": {},
              "registered_name": null
            },
            "beta_regularizer": null,
            "gamma_regularizer": null,
            "beta_constraint": null,
            "gamma_constraint": null,
            "synchronized": false
          },
          "registered_name": null,
          "build_config": {
            "input_shape": [
              null,
              28,
              28,
              352
            ]
          },
          "name": "conv3_block8_0_bn",
          "inbound_nodes": [
            [
              [
                "conv3_block7_concat",
                0,
                0,
                {}
              ]
            ]
          ]
        },
        {
          "module": "keras.layers",
          "class_name": "Activation",
          "config": {
            "name": "conv3_block8_0_relu",
            "trainable": false,
            "dtype": "float32",
            "activation": "relu"
          },
          "registered_name": null,
          "name": "conv3_block8_0_relu",
          "inbound_nodes": [
            [
              [
                "conv3_block8_0_bn",
                0,
                0,
                {}
              ]
            ]
          ]
        },
        {
          "module": "keras.layers",
          "class_name": "Conv2D",
          "config": {
            "name": "conv3_block8_1_conv",
            "trainable": false,
            "dtype": "float32",
            "filters": 128,
            "kernel_size": [
              1,
              1
            ],
            "strides": [
              1,
              1
            ],
            "padding": "valid",
            "data_format": "channels_last",
            "dilation_rate": [
              1,
              1
            ],
            "groups": 1,
            "activation": "linear",
            "use_bias": false,
            "kernel_initializer": {
              "module": "keras.initializers",
              "class_name": "GlorotUniform",
              "config": {
                "seed": null
              },
              "registered_name": null
            },
            "bias_initializer": {
              "module": "keras.initializers",
              "class_name": "Zeros",
              "config": {},
              "registered_name": null
            },
            "kernel_regularizer": null,
            "bias_regularizer": null,
            "activity_regularizer": null,
            "kernel_constraint": null,
            "bias_constraint": null
          },
          "registered_name": null,
          "build_config": {
            "input_shape": [
              null,
              28,
              28,
              352
            ]
          },
          "name": "conv3_block8_1_conv",
          "inbound_nodes": [
            [
              [
                "conv3_block8_0_relu",
                0,
                0,
                {}
              ]
            ]
          ]
        },
        {
          "module": "keras.layers",
          "class_name": "BatchNormalization",
          "config": {
            "name": "conv3_block8_1_bn",
            "trainable": false,
            "dtype": "float32",
            "axis": 3,
            "momentum": 0.99,
            "epsilon": 0.00001001,
            "center": true,
            "scale": true,
            "beta_initializer": {
              "module": "keras.initializers",
              "class_name": "Zeros",
              "config": {},
              "registered_name": null
            },
            "gamma_initializer": {
              "module": "keras.initializers",
              "class_name": "Ones",
              "config": {},
              "registered_name": null
            },
            "moving_mean_initializer": {
              "module": "keras.initializers",
              "class_name": "Zeros",
              "config": {},
              "registered_name": null
            },
            "moving_variance_initializer": {
              "module": "keras.initializers",
              "class_name": "Ones",
              "config": {},
              "registered_name": null
            },
            "beta_regularizer": null,
            "gamma_regularizer": null,
            "beta_constraint": null,
            "gamma_constraint": null,
            "synchronized": false
          },
          "registered_name": null,
          "build_config": {
            "input_shape": [
              null,
              28,
              28,
              128
            ]
          },
          "name": "conv3_block8_1_bn",
          "inbound_nodes": [
            [
              [
                "conv3_block8_1_conv",
                0,
                0,
                {}
              ]
            ]
          ]
        },
        {
          "module": "keras.layers",
          "class_name": "Activation",
          "config": {
            "name": "conv3_block8_1_relu",
            "trainable": false,
            "dtype": "float32",
            "activation": "relu"
          },
          "registered_name": null,
          "name": "conv3_block8_1_relu",
          "inbound_nodes": [
            [
              [
                "conv3_block8_1_bn",
                0,
                0,
                {}
              ]
            ]
          ]
        },
        {
          "module": "keras.layers",
          "class_name": "Conv2D",
          "config": {
            "name": "conv3_block8_2_conv",
            "trainable": false,
            "dtype": "float32",
            "filters": 32,
            "kernel_size": [
              3,
              3
            ],
            "strides": [
              1,
              1
            ],
            "padding": "same",
            "data_format": "channels_last",
            "dilation_rate": [
              1,
              1
            ],
            "groups": 1,
            "activation": "linear",
            "use_bias": false,
            "kernel_initializer": {
              "module": "keras.initializers",
              "class_name": "GlorotUniform",
              "config": {
                "seed": null
              },
              "registered_name": null
            },
            "bias_initializer": {
              "module": "keras.initializers",
              "class_name": "Zeros",
              "config": {},
…
          ],
          "dtype": "float32"
        },
        {
          "name": "layers.conv2d_37.vars.0",
          "shape": [
            3,
            3,
            128,
            32
          ],
          "dtype": "float32"
        },
        {
          "name": "layers.conv2d_38.vars.0",
          "shape": [
            1,
            1,
            512,
            256
          ],
          "dtype": "float32"
        },
        {
          "name": "layers.conv2d_39.vars.0",
          "shape": [
            1,
            1,
            256,
            128
          ],
          "dtype": "float32"
        },
        {
          "name": "layers.conv2d_4.vars.0",
          "shape": [
            3,
            3,
            128,
            32
          ],
          "dtype": "float32"
        },
        {
          "name": "layers.conv2d_40.vars.0",
          "shape": [
            3,
            3,
            128,
            32
          ],
          "dtype": "float32"
        },
        {
          "name": "layers.conv2d_41.vars.0",
          "shape": [
            1,
            1,
            288,
            128
          ],
          "dtype": "float32"
        },
        {
          "name": "layers.conv2d_42.vars.0",
          "shape": [
            3,
            3,
            128,
            32
          ],
          "dtype": "float32"
        },
        {
          "name": "layers.conv2d_43.vars.0",
          "shape": [
            1,
            1,
            320,
            128
          ],
          "dtype": "float32"
        },
        {
          "name": "layers.conv2d_44.vars.0",
          "shape": [
            3,
            3,
            128,
            32
          ],
          "dtype": "float32"
        },
        {
          "name": "layers.conv2d_45.vars.0",
          "shape": [
            1,
            1,
            352,
            128
          ],
          "dtype": "float32"
        },
        {
          "name": "layers.conv2d_46.vars.0",
          "shape": [
            3,
            3,
            128,
            32
          ],
          "dtype": "float32"
        },
        {
          "name": "layers.conv2d_47.vars.0",
          "shape": [
            1,
            1,
            384,
            128
          ],
          "dtype": "float32"
        },
        {
          "name": "layers.conv2d_48.vars.0",
          "shape": [
            3,
            3,
            128,
            32
          ],
          "dtype": "float32"
        },
        {
          "name": "layers.conv2d_49.vars.0",
          "shape": [
            1,
            1,
            416,
            128
          ],
          "dtype": "float32"
        },
        {
          "name": "layers.conv2d_5.vars.0",
          "shape": [
            1,
            1,
            128,
            128
          ],
          "dtype": "float32"
        },
        {
          "name": "layers.conv2d_50.vars.0",
          "shape": [
            3,
            3,
            128,
            32
          ],
          "dtype": "float32"
        },
        {
          "name": "layers.conv2d_51.vars.0",
          "shape": [
            1,
            1,
            448,
            128
          ],
          "dtype": "float32"
        },
        {
          "name": "layers.conv2d_52.vars.0",
          "shape": [
            3,
            3,
            128,
            32
          ],
          "dtype": "float32"
        },
        {
          "name": "layers.conv2d_53.vars.0",
          "shape": [
            1,
            1,
            480,
            128
          ],
          "dtype": "float32"
        },
        {
          "name": "layers.conv2d_54.vars.0",
          "shape": [
            3,
            3,
            128,
            32
          ],
          "dtype": "float32"
        },
        {
          "name": "layers.conv2d_55.vars.0",
          "shape": [
            1,
            1,
            512,
            128
          ],
          "dtype": "float32"
        },
        {
          "name": "layers.conv2d_56.vars.0",
          "shape": [
            3,
            3,
            128,
            32
          ],
          "dtype": "float32"
        },
        {
          "name": "layers.conv2d_57.vars.0",
          "shape": [
            1,
            1,
            544,
            128
          ],
          "dtype": "float32"
        },
        {
          "name": "layers.conv2d_58.vars.0",
          "shape": [
            3,
            3,
            128,
            32
          ],
          "dtype": "float32"
        },
        {
          "name": "layers.conv2d_59.vars.0",
          "shape": [
            1,
            1,
            576,
            128
          ],
          "dtype": "float32"
        },
        {
          "name": "layers.conv2d_6.vars.0",
          "shape": [
            3,
            3,
            128,
            32
          ],
          "dtype": "float32"
        },
        {
          "name": "layers.conv2d_60.vars.0",
          "shape": [
            3,
            3,
            128,
            32
          ],
          "dtype": "float32"
        },
        {
          "name": "layers.conv2d_61.vars.0",
          "shape": [
            1,
            1,
            608,
            128
          ],
          "dtype": "float32"
        },
        {
          "name": "layers.conv2d_62.vars.0",
          "shape": [
            3,
            3,
            128,
            32
          ],
          "dtype": "float32"
        },
        {
          "name": "layers.conv2d_63.vars.0",
          "shape": [
            1,
            1,
            640,
            128
          ],
          "dtype": "float32"
        },
        {
          "name": "layers.conv2d_64.vars.0",
          "shape": [
            3,
            3,
            128,
            32
          ],
          "dtype": "float32"
        },
        {
          "name": "layers.conv2d_65.vars.0",
          "shape": [
            1,
            1,
            672,
            128
          ],
          "dtype": "float32"
        },
        {
          "name": "layers.conv2d_66.vars.0",
          "shape": [
            3,
            3,
            128,
            32
          ],
          "dtype": "float32"
        },
        {
          "name": "layers.conv2d_67.vars.0",
          "shape": [
            1,
            1,
            704,
            128
          ],
          "dtype": "float32"
        },
        {
          "name": "layers.conv2d_68.vars.0",
          "shape": [
            3,
            3,
            128,
            32
          ],
          "dtype": "float32"
        },
        {
          "name": "layers.conv2d_69.vars.0",
          "shape": [
            1,
            1,
            736,
            128
          ],
          "dtype": "float32"
        },
        {
          "name": "layers.conv2d_7.vars.0",
          "shape": [
            1,
            1,
            160,
            128
          ],
          "dtype": "float32"
        },
        {
          "name": "layers.conv2d_70.vars.0",
          "shape": [
            3,
            3,
            128,
            32
          ],
          "dtype": "float32"
        },
        {
          "name": "layers.conv2d_71.vars.0",
          "shape": [
            1,
            1,
            768,
            128
          ],
          "dtype": "float32"
        },
        {
          "name": "layers.conv2d_72.vars.0",
          "shape": [
            3,
            3,
            128,
            32
          ],
          "dtype": "float32"
        },
        {
          "name": "layers.conv2d_73.vars.0",
          "shape": [
            1,
            1,
            800,
            128
          ],
          "dtype": "float32"
        },
        {
          "name": "layers.conv2d_74.vars.0",
          "shape": [
            3,
            3,
            128,
            32
          ],
          "dtype": "float32"
        },
        {
          "name": "layers.conv2d_75.vars.0",
          "shape": [
            1,
            1,
            832,
            128
          ],
          "dtype": "float32"
        },
        {
          "name": "layers.conv2d_76.vars.0",
          "shape": [
            3,
            3,
            128,
            32
          ],
          "dtype": "float32"
        },
        {
          "name": "layers.conv2d_77.vars.0",
          "shape": [
            1,
            1,
            864,
            128
          ],
          "dtype": "float32"
        },
        {
          "name": "layers.conv2d_78.vars.0",
          "shape": [
            3,
            3,
            128,
            32
          ],
          "dtype": "float32"
        },
        {
          "name": "layers.conv2d_79.vars.0",
          "shape": [
            1,
            1,
            896,
            128
          ],
          "dtype": "float32"
        },
        {
          "name": "layers.conv2d_8.vars.0",
          "shape": [
            3,
            3,
            128,
            32
          ],
          "dtype": "float32"
        },
        {
          "name": "layers.conv2d_80.vars.0",
          "shape": [
            3,
            3,
            128,
            32
          ],
          "dtype": "float32"
        },
        {
          "name": "layers.conv2d_81.vars.0",
          "shape": [
            1,
            1,
            928,
            128
          ],
          "dtype": "float32"
        },
        {
          "name": "layers.conv2d_82.vars.0",
          "shape": [
            3,
            3,
            128,
            32
          ],
          "dtype": "float32"
        },
        {
          "name": "layers.conv2d_83.vars.0",
          "shape": [
            1,
            1,
            960,
            128
          ],
          "dtype": "float32"
        },
        {
          "name": "layers.conv2d_84.vars.0",
          "shape": [
            3,
            3,
            128,
            32
          ],
          "dtype": "float32"
        },
        {
          "name": "layers.conv2d_85.vars.0",
          "shape": [
            1,
            1,
            992,
            128
          ],
          "dtype": "float32"
        },
        {
          "name": "layers.conv2d_86.vars.0",
          "shape": [
            3,
            3,
            128,
            32
          ],
          "dtype": "float32"
        },
        {
          "name": "layers.conv2d_87.vars.0",
          "shape": [
            1,
            1,
            1024,
            512
          ],
          "dtype": "float32"
        },
        {
          "name": "layers.conv2d_88.vars.0",
          "shape": [
            1,
            1,
            512,
            128
          ],
          "dtype": "float32"
        },
        {
          "name": "layers.conv2d_89.vars.0",
          "shape": [
            3,
            3,
            128,
            32
          ],
          "dtype": "float32"
        },
        {
          "name": "layers.conv2d_9.vars.0",
          "shape": [
            1,
            1,
            192,
            128
          ],
          "dtype": "float32"
        },
        {
          "name": "layers.conv2d_90.vars.0",
          "shape": [
            1,
            1,
            544,
            128
          ],
          "dtype": "float32"
        },
        {
          "name": "layers.conv2d_91.vars.0",
          "shape": [
            3,
            3,
            128,
            32
          ],
          "dtype": "float32"
        },
        {
          "name": "layers.conv2d_92.vars.0",
          "shape": [
            1,
            1,
            576,
            128
          ],
          "dtype": "float32"
        },
        {
          "name": "layers.conv2d_93.vars.0",
          "shape": [
            3,
            3,
            128,
            32
          ],
          "dtype": "float32"
        },
        {
          "name": "layers.conv2d_94.vars.0",
          "shape": [
            1,
            1,
            608,
            128
          ],
          "dtype": "float32"
        },
        {
          "name": "layers.conv2d_95.vars.0",
          "shape": [
            3,
            3,
            128,
            32
          ],
          "dtype": "float32"
        },
        {
          "name": "layers.conv2d_96.vars.0",
          "shape": [
            1,
            1,
            640,
            128
          ],
          "dtype": "float32"
        },
        {
          "name": "layers.conv2d_97.vars.0",
          "shape": [
            3,
            3,
            128,
            32
          ],
          "dtype": "float32"
        },
        {
          "name": "layers.conv2d_98.vars.0",
          "shape": [
            1,
            1,
            672,
            128
          ],
          "dtype": "float32"
        },
        {
          "name": "layers.conv2d_99.vars.0",
          "shape": [
            3,
            3,
            128,
            32
          ],
          "dtype": "float32"
        },
        {
          "name": "layers.dense.vars.0",
          "shape": [
            1024,
            256
          ],
          "dtype": "float32"
        },
        {
          "name": "layers.dense.vars.1",
          "shape": [
            256
          ],
          "dtype": "float32"
        },
        {
          "name": "layers.dense_1.vars.0",
          "shape": [
            256,
            128
          ],
          "dtype": "float32"
        },
        {
          "name": "layers.dense_1.vars.1",
          "shape": [
            128
          ],
          "dtype": "float32"
        },
        {
          "name": "layers.dense_2.vars.0",
          "shape": [
            128,
            1
          ],
          "dtype": "float32"
        },
        {
          "name": "layers.dense_2.vars.1",
          "shape": [
            1
          ],
          "dtype": "float32"
        },
        {
          "name": "optimizer.vars.1",
          "shape": [
            128
          ],
          "dtype": "float32"
        },
        {
          "name": "optimizer.vars.10",
          "shape": [
            992
          ],
          "dtype": "float32"
        },
        {
          "name": "optimizer.vars.100",
          "shape": [
            704
          ],
          "dtype": "float32"
        },
        {
          "name": "optimizer.vars.101",
          "shape": [
            1,
            1,
            704,
            128
          ],
          "dtype": "float32"
        },
        {
          "name": "optimizer.vars.102",
          "shape": [
            1,
            1,
            704,
            128
          ],
          "dtype": "float32"
        },
        {
          "name": "optimizer.vars.103",
          "shape": [
            128
          ],
          "dtype": "float32"
        },
        {
          "name": "optimizer.vars.104",
          "shape": [
            128
          ],
          "dtype": "float32"
        },
        {
          "name": "optimizer.vars.105",
          "shape": [
            128
          ],
          "dtype": "float32"
        },
        {
          "name": "optimizer.vars.106",
          "shape": [
            128
          ],
          "dtype": "float32"
        },
        {
          "name": "optimizer.vars.107",
          "shape": [
            3,
            3,
            128,
            32
          ],
          "dtype": "float32"
        },
        {
          "name": "optimizer.vars.108",
          "shape": [
            3,
            3,
            128,
            32
          ],
          "dtype": "float32"
        },
        {
          "name": "optimizer.vars.109",
          "shape": [
            736
          ],
          "dtype": "float32"
        },
        {
          "name": "optimizer.vars.11",
          "shape": [
            1,
            1,
            992,
            128
          ],
          "dtype": "float32"
        },
        {
          "name": "optimizer.vars.110",
          "shape": [
            736
          ],
          "dtype": "float32"
        },
        {
          "name": "optimizer.vars.111",
          "shape": [
            736
          ],
          "dtype": "float32"
        },
        {
          "name": "optimizer.vars.112",
          "shape": [
            736
          ],
          "dtype": "float32"
        },
        {
          "name": "optimizer.vars.113",
          "shape": [
            1,
            1,
            736,
            128
          ],
          "dtype": "float32"
        },
        {
          "name": "optimizer.vars.114",
          "shape": [
            1,
            1,
            736,
            128
          ],
          "dtype": "float32"
        },
        {
          "name": "optimizer.vars.115",
          "shape": [
            128
          ],
          "dtype": "float32"
        },
        {
          "name": "optimizer.vars.116",
          "shape": [
            128
          ],
          "dtype": "float32"
        },
        {
          "name": "optimizer.vars.117",
          "shape": [
            128
          ],
          "dtype": "float32"
        },
        {
          "name": "optimizer.vars.118",
          "shape": [
            128
          ],
          "dtype": "float32"
        },
        {
          "name": "optimizer.vars.119",
          "shape": [
            3,
            3,
            128,
            32
          ],
          "dtype": "float32"
        },
        {
          "name": "optimizer.vars.12",
          "shape": [
            1,
            1,
            992,
            128
          ],
          "dtype": "float32"
        },
        {
          "name": "optimizer.vars.120",
          "shape": [
            3,
            3,
            128,
            32
          ],
          "dtype": "float32"
        },
        {
          "name": "optimizer.vars.121",
          "shape": [
            768
          ],
          "dtype": "float32"
        },
        {
          "name": "optimizer.vars.122",
          "shape": [
            768
          ],
          "dtype": "float32"
        },
        {
          "name": "optimizer.vars.123",
          "shape": [
            768
          ],
          "dtype": "float32"
        },
        {
          "name": "optimizer.vars.124",
          "shape": [
            768
          ],
          "dtype": "float32"
        },
        {
          "name": "optimizer.vars.125",
          "shape": [
            1,
            1,
            768,
            128
          ],
          "dtype": "float32"
        },
        {
          "name": "optimizer.vars.126",
          "shape": [
            1,
            1,
            768,
            128
          ],
          "dtype": "float32"
        },
        {
          "name": "optimizer.vars.127",
          "shape": [
            128
          ],
          "dtype": "float32"
        },
        {
          "name": "optimizer.vars.128",
          "shape": [
            128
          ],
          "dtype": "float32"
        },
        {
          "name": "optimizer.vars.129",
          "shape": [
            128
          ],
          "dtype": "float32"
        },
        {
          "name": "optimizer.vars.13",
          "shape": [
            128
          ],
          "dtype": "float32"
        },
        {
          "name": "optimizer.vars.130",
          "shape": [
            128
          ],
          "dtype": "float32"
        },
        {
          "name": "optimizer.vars.131",
          "shape": [
            3,
            3,
            128,
            32
          ],
          "dtype": "float32"
        },
        {
          "name": "optimizer.vars.132",
          "shape": [
            3,
            3,
            128,
            32
          ],
          "dtype": "float32"
        },
        {
          "name": "optimizer.vars.133",
          "shape": [
            800
          ],
          "dtype": "float32"
        },
        {
          "name": "optimizer.vars.134",
          "shape": [
            800
          ],
          "dtype": "float32"
        },
        {
          "name": "optimizer.vars.135",
          "shape": [
            800
          ],
          "dtype": "float32"
        },
        {
          "name": "optimizer.vars.136",
          "shape": [
            800
          ],
          "dtype": "float32"
        },
        {
          "name": "optimizer.vars.137",
          "shape": [
            1,
            1,
            800,
            128
          ],
          "dtype": "float32"
        },
        {
          "name": "optimizer.vars.138",
          "shape": [
            1,
            1,
            800,
            128
          ],
          "dtype": "float32"
        },
        {
          "name": "optimizer.vars.139",
          "shape": [
            128
          ],
          "dtype": "float32"
        },
        {
          "name": "optimizer.vars.14",
          "shape": [
            128
          ],
          "dtype": "float32"
        },
        {
          "name": "optimizer.vars.140",
          "shape": [
            128
          ],
          "dtype": "float32"
        },
        {
          "name": "optimizer.vars.141",
          "shape": [
            128
          ],
          "dtype": "float32"
        },
        {
          "name": "optimizer.vars.142",
          "shape": [
            128
          ],
          "dtype": "float32"
        },
        {
          "name": "optimizer.vars.143",
          "shape": [
            3,
            3,
            128,
            32
          ],
          "dtype": "float32"
        },
        {
          "name": "optimizer.vars.144",
          "shape": [
            3,
            3,
            128,
            32
          ],
          "dtype": "float32"
        },
        {
          "name": "optimizer.vars.145",
          "shape": [
            832
          ],
          "dtype": "float32"
        },
        {
          "name": "optimizer.vars.146",
          "shape": [
            832
          ],
          "dtype": "float32"
        },
        {
          "name": "optimizer.vars.147",
          "shape": [
            832
          ],
          "dtype": "float32"
        },
        {
          "name": "optimizer.vars.148",
          "shape": [
            832
          ],
          "dtype": "float32"
        },
        {
          "name": "optimizer.vars.149",
          "shape": [
            1,
            1,
            832,
            128
          ],
          "dtype": "float32"
        },
        {
          "name": "optimizer.vars.15",
          "shape": [
            128
          ],
          "dtype": "float32"
        },
        {
          "name": "optimizer.vars.150",
          "shape": [
            1,
            1,
            832,
            128
          ],
          "dtype": "float32"
        },
        {
          "name": "optimizer.vars.151",
          "shape": [
            128
          ],
          "dtype": "float32"
        },
        {
          "name": "optimizer.vars.152",
          "shape": [
            128
          ],
          "dtype": "float32"
        },
        {
          "name": "optimizer.vars.153",
          "shape": [
            128
          ],
          "dtype": "float32"
        },
        {
          "name": "optimizer.vars.154",
          "shape": [
            128
          ],
          "dtype": "float32"
        },
        {
          "name": "optimizer.vars.155",
          "shape": [
            3,
            3,
            128,
            32
          ],
          "dtype": "float32"
        },
        {
          "name": "optimizer.vars.156",
          "shape": [
            3,
            3,
            128,
            32
          ],
          "dtype": "float32"
        },
        {
          "name": "optimizer.vars.157",
          "shape": [
            864
          ],
          "dtype": "float32"
        },
        {
          "name": "optimizer.vars.158",
          "shape": [
            864
          ],
          "dtype": "float32"
        },
        {
          "name": "optimizer.vars.159",
          "shape": [
            864
          ],
          "dtype": "float32"
        },
        {
          "name": "optimizer.vars.16",
          "shape": [
            128
          ],
          "dtype": "float32"
        },
        {
          "name": "optimizer.vars.160",
          "shape": [
            864
          ],
          "dtype": "float32"
        },
        {
          "name": "optimizer.vars.161",
          "shape": [
            1,
            1,
            864,
            128
          ],
          "dtype": "float32"
        },
        {
          "name": "optimizer.vars.162",
          "shape": [
            1,
            1,
            864,
            128
          ],
          "dtype": "float32"
        },
        {
          "name": "optimizer.vars.163",
          "shape": [
            128
          ],
          "dtype": "float32"
        },
        {
          "name": "optimizer.vars.164",
          "shape": [
            128
          ],
          "dtype": "float32"
        },
        {
          "name": "optimizer.vars.165",
          "shape": [
            128
          ],
          "dtype": "float32"
        },
        {
          "name": "optimizer.vars.166",
          "shape": [
            128
          ],
          "dtype": "float32"
        },
        {
          "name": "optimizer.vars.167",
          "shape": [
            3,
            3,
            128,
            32
          ],
          "dtype": "float32"
        },
        {
          "name": "optimizer.vars.168",
          "shape": [
            3,
            3,
            128,
            32
          ],
          "dtype": "float32"
        },
        {
          "name": "optimizer.vars.169",
          "shape": [
            896
          ],
          "dtype": "float32"
        },
        {
          "name": "optimizer.vars.17",
          "shape": [
            3,
            3,
            128,
            32
          ],
          "dtype": "float32"
        },
        {
          "name": "optimizer.vars.170",
          "shape": [
            896
          ],
          "dtype": "float32"
        },
        {
          "name": "optimizer.vars.171",
          "shape": [
            896
          ],
          "dtype": "float32"
        },
        {
          "name": "optimizer.vars.172",
          "shape": [
            896
          ],
          "dtype": "float32"
        },
        {
          "name": "optimizer.vars.173",
          "shape": [
            1,
            1,
            896,
            128
          ],
          "dtype": "float32"
        },
        {
          "name": "optimizer.vars.174",
          "shape": [
            1,
            1,
            896,
            128
          ],
          "dtype": "float32"
        },
        {
          "name": "optimizer.vars.175",
          "shape": [
            128
          ],
          "dtype": "float32"
        },
        {
          "name": "optimizer.vars.176",
          "shape": [
            128
          ],
          "dtype": "float32"
        },
        {
          "name": "optimizer.vars.177",
          "shape": [
            128
          ],
          "dtype": "float32"
        },
        {
          "name": "optimizer.vars.178",
          "shape": [
            128
          ],
          "dtype": "float32"
        },
        {
          "name": "optimizer.vars.179",
          "shape": [
            3,
            3,
            128,
            32
          ],
          "dtype": "float32"
        },
        {
          "name": "optimizer.vars.18",
          "shape": [
            3,
            3,
            128,
            32
          ],
          "dtype": "float32"
        },
        {
          "name": "optimizer.vars.180",
          "shape": [
            3,
            3,
            128,
            32
          ],
          "dtype": "float32"
        },
        {
          "name": "optimizer.vars.181",
          "shape": [
            928
          ],
          "dtype": "float32"
        },
        {
          "name": "optimizer.vars.182",
          "shape": [
            928
          ],
          "dtype": "float32"
        },
        {
          "name": "optimizer.vars.183",
          "shape": [
            928
          ],
          "dtype": "float32"
        },
        {
          "name": "optimizer.vars.184",
          "shape": [
            928
          ],
          "dtype": "float32"
        },
        {
          "name": "optimizer.vars.185",
          "shape": [
            1,
            1,
            928,
            128
          ],
          "dtype": "float32"
        },
        {
          "name": "optimizer.vars.186",
          "shape": [
            1,
            1,
            928,
            128
          ],
          "dtype": "float32"
        },
        {
          "name": "optimizer.vars.187",
          "shape": [
            128
          ],
          "dtype": "float32"
        },
        {
          "name": "optimizer.vars.188",
          "shape": [
            128
          ],
          "dtype": "float32"
        },
        {
          "name": "optimizer.vars.189",
          "shape": [
            128
          ],
          "dtype": "float32"
        },
        {
          "name": "optimizer.vars.19",
          "shape": [
            1024
          ],
          "dtype": "float32"
        },
        {
          "name": "optimizer.vars.190",
          "shape": [
            128
          ],
          "dtype": "float32"
        },
        {
          "name": "optimizer.vars.191",
          "shape": [
            3,
            3,
            128,
            32
          ],
          "dtype": "float32"
        },
        {
          "name": "optimizer.vars.192",
          "shape": [
            3,
            3,
            128,
            32
          ],
          "dtype": "float32"
        },
        {
          "name": "optimizer.vars.193",
          "shape": [
            960
          ],
          "dtype": "float32"
        },
        {
          "name": "optimizer.vars.194",
          "shape": [
            960
          ],
          "dtype": "float32"
        },
        {
          "name": "optimizer.vars.195",
          "shape": [
            960
          ],
          "dtype": "float32"
        },
        {
          "name": "optimizer.vars.196",
          "shape": [
            960
          ],
          "dtype": "float32"
        },
        {
          "name": "optimizer.vars.197",
          "shape": [
            1,
            1,
            960,
            128
          ],
          "dtype": "float32"
        },
        {
          "name": "optimizer.vars.198",
          "shape": [
            1,
            1,
            960,
            128
          ],
          "dtype": "float32"
        },
        {
          "name": "optimizer.vars.199",
          "shape": [
            128
          ],
          "dtype": "float32"
        },
        {
          "name": "optimizer.vars.2",
          "shape": [
            128
          ],
          "dtype": "float32"
        },
        {
          "name": "optimizer.vars.20",
          "shape": [
            1024
          ],
          "dtype": "float32"
        },
        {
          "name": "optimizer.vars.200",
          "shape": [
            128
          ],
          "dtype": "float32"
        },
        {
          "name": "optimizer.vars.201",
          "shape": [
            128
          ],
          "dtype": "float32"
        },
        {
          "name": "optimizer.vars.202",
          "shape": [
            128
          ],
          "dtype": "float32"
        },
        {
          "name": "optimizer.vars.203",
          "shape": [
            3,
            3,
            128,
            32
          ],
          "dtype": "float32"
        },
        {
          "name": "optimizer.vars.204",
          "shape": [
            3,
            3,
            128,
            32
          ],
          "dtype": "float32"
        },
        {
          "name": "optimizer.vars.205",
          "shape": [
            992
          ],
          "dtype": "float32"
        },
        {
          "name": "optimizer.vars.206",
          "shape": [
            992
          ],
          "dtype": "float32"
        },
        {
          "name": "optimizer.vars.207",
          "shape": [
            992
          ],
          "dtype": "float32"
        },
        {
          "name": "optimizer.vars.208",
          "shape": [
            992
          ],
          "dtype": "float32"
        },
        {
          "name": "optimizer.vars.209",
          "shape": [
            1,
            1,
            992,
            128
          ],
          "dtype": "float32"
        },
        {
          "name": "optimizer.vars.21",
          "shape": [
            1024
          ],
          "dtype": "float32"
        },
        {
          "name": "optimizer.vars.210",
          "shape": [
            1,
            1,
            992,
            128
          ],
          "dtype": "float32"
        },
        {
          "name": "optimizer.vars.211",
          "shape": [
            128
          ],
          "dtype": "float32"
        },
        {
          "name": "optimizer.vars.212",
          "shape": [
            128
          ],
          "dtype": "float32"
        },
        {
          "name": "optimizer.vars.213",
          "shape": [
            128
          ],
          "dtype": "float32"
        },
        {
          "name": "optimizer.vars.214",
          "shape": [
            128
          ],
          "dtype": "float32"
        },
        {
          "name": "optimizer.vars.215",
          "shape": [
            3,
            3,
            128,
            32
          ],
          "dtype": "float32"
        },
        {
          "name": "optimizer.vars.216",
          "shape": [
            3,
            3,
            128,
            32
          ],
          "dtype": "float32"
        },
        {
          "name": "optimizer.vars.217",
          "shape": [
            1024
          ],
          "dtype": "float32"
        },
        {
          "name": "optimizer.vars.218",
          "shape": [
            1024
          ],
          "dtype": "float32"
        },
        {
          "name": "optimizer.vars.219",
          "shape": [
            1024
          ],
          "dtype": "float32"
        },
        {
          "name": "optimizer.vars.22",
          "shape": [
            1024
          ],
          "dtype": "float32"
        },
        {
          "name": "optimizer.vars.220",
          "shape": [
            1024
          ],
          "dtype": "float32"
        },
        {
          "name": "optimizer.vars.221",
          "shape": [
            1024,
            256
          ],
          "dtype": "float32"
        },
        {
          "name": "optimizer.vars.222",
          "shape": [
            1024,
            256
          ],
          "dtype": "float32"
        },
        {
          "name": "optimizer.vars.223",
          "shape": [
            256
          ],
          "dtype": "float32"
        },
        {
          "name": "optimizer.vars.224",
          "shape": [
            256
          ],
          "dtype": "float32"
        },
        {
          "name": "optimizer.vars.225",
          "shape": [
            256,
            128
          ],
          "dtype": "float32"
        },
        {
          "name": "optimizer.vars.226",
          "shape": [
            256,
            128
          ],
          "dtype": "float32"
        },
        {
          "name": "optimizer.vars.227",
          "shape": [
            128
          ],
          "dtype": "float32"
        },
        {
          "name": "optimizer.vars.228",
          "shape": [
            128
          ],
          "dtype": "float32"
        },
        {
          "name": "optimizer.vars.229",
          "shape": [
            128,
            1
          ],
          "dtype": "float32"
        },
        {
          "name": "optimizer.vars.23",
          "shape": [
            1,
            1,
            1024,
            512
          ],
          "dtype": "float32"
        },
        {
          "name": "optimizer.vars.230",
          "shape": [
            128,
            1
          ],
          "dtype": "float32"
        },
        {
          "name": "optimizer.vars.231",
          "shape": [
            1
          ],
          "dtype": "float32"
        },
        {
          "name": "optimizer.vars.232",
          "shape": [
            1
          ],
          "dtype": "float32"
        },
        {
          "name": "optimizer.vars.24",
          "shape": [
            1,
            1,
            1024,
            512
          ],
          "dtype": "float32"
        },
        {
          "name": "optimizer.vars.25",
          "shape": [
            512
          ],
          "dtype": "float32"
        },
        {
          "name": "optimizer.vars.26",
          "shape": [
            512
          ],
          "dtype": "float32"
        },
        {
          "name": "optimizer.vars.27",
          "shape": [
            512
          ],
          "dtype": "float32"
        },
        {
          "name": "optimizer.vars.28",
          "shape": [
            512
          ],
          "dtype": "float32"
        },
        {
          "name": "optimizer.vars.29",
          "shape": [
            1,
            1,
            512,
            128
          ],
          "dtype": "float32"
        },
        {
          "name": "optimizer.vars.3",
          "shape": [
            128
          ],
          "dtype": "float32"
        },
        {
          "name": "optimizer.vars.30",
          "shape": [
            1,
            1,
            512,
            128
          ],
          "dtype": "float32"
        },
        {
          "name": "optimizer.vars.31",
          "shape": [
            128
          ],
          "dtype": "float32"
        },
        {
          "name": "optimizer.vars.32",
          "shape": [
            128
          ],
          "dtype": "float32"
        },
        {
          "name": "optimizer.vars.33",
          "shape": [
            128
          ],
          "dtype": "float32"
        },
        {
          "name": "optimizer.vars.34",
          "shape": [
            128
          ],
          "dtype": "float32"
        },
        {
          "name": "optimizer.vars.35",
          "shape": [
            3,
            3,
            128,
            32
          ],
          "dtype": "float32"
        },
        {
          "name": "optimizer.vars.36",
          "shape": [
            3,
            3,
            128,
            32
          ],
          "dtype": "float32"
        },
        {
          "name": "optimizer.vars.37",
          "shape": [
            544
          ],
          "dtype": "float32"
        },
        {
          "name": "optimizer.vars.38",
          "shape": [
            544
          ],
          "dtype": "float32"
        },
        {
          "name": "optimizer.vars.39",
          "shape": [
            544
          ],
          "dtype": "float32"
        },
        {
          "name": "optimizer.vars.4",
          "shape": [
            128
          ],
          "dtype": "float32"
        },
        {
          "name": "optimizer.vars.40",
          "shape": [
            544
          ],
          "dtype": "float32"
        },
        {
          "name": "optimizer.vars.41",
          "shape": [
            1,
            1,
            544,
            128
          ],
          "dtype": "float32"
        },
        {
          "name": "optimizer.vars.42",
          "shape": [
            1,
            1,
            544,
            128
          ],
          "dtype": "float32"
        },
        {
          "name": "optimizer.vars.43",
          "shape": [
            128
          ],
          "dtype": "float32"
        },
        {
          "name": "optimizer.vars.44",
          "shape": [
            128
          ],
          "dtype": "float32"
        },
        {
          "name": "optimizer.vars.45",
          "shape": [
            128
          ],
          "dtype": "float32"
        },
        {
          "name": "optimizer.vars.46",
          "shape": [
            128
          ],
          "dtype": "float32"
        },
        {
          "name": "optimizer.vars.47",
          "shape": [
            3,
            3,
            128,
            32
          ],
          "dtype": "float32"
        },
        {
          "name": "optimizer.vars.48",
          "shape": [
            3,
            3,
            128,
            32
          ],
          "dtype": "float32"
        },
        {
          "name": "optimizer.vars.49",
          "shape": [
            576
          ],
          "dtype": "float32"
        },
        {
          "name": "optimizer.vars.5",
          "shape": [
            3,
            3,
            128,
            32
          ],
          "dtype": "float32"
        },
        {
          "name": "optimizer.vars.50",
          "shape": [
            576
          ],
          "dtype": "float32"
        },
        {
          "name": "optimizer.vars.51",
          "shape": [
            576
          ],
          "dtype": "float32"
        },
        {
          "name": "optimizer.vars.52",
          "shape": [
            576
          ],
          "dtype": "float32"
        },
        {
          "name": "optimizer.vars.53",
          "shape": [
            1,
            1,
            576,
            128
          ],
          "dtype": "float32"
        },
        {
          "name": "optimizer.vars.54",
          "shape": [
            1,
            1,
            576,
            128
          ],
          "dtype": "float32"
        },
        {
          "name": "optimizer.vars.55",
          "shape": [
            128
          ],
          "dtype": "float32"
        },
        {
          "name": "optimizer.vars.56",
          "shape": [
            128
          ],
          "dtype": "float32"
        },
        {
          "name": "optimizer.vars.57",
          "shape": [
            128
          ],
          "dtype": "float32"
        },
        {
          "name": "optimizer.vars.58",
          "shape": [
            128
          ],
          "dtype": "float32"
        },
        {
          "name": "optimizer.vars.59",
          "shape": [
            3,
            3,
            128,
            32
          ],
          "dtype": "float32"
        },
        {
          "name": "optimizer.vars.6",
          "shape": [
            3,
            3,
            128,
            32
          ],
          "dtype": "float32"
        },
        {
          "name": "optimizer.vars.60",
          "shape": [
            3,
            3,
            128,
            32
          ],
          "dtype": "float32"
        },
        {
          "name": "optimizer.vars.61",
          "shape": [
            608
          ],
          "dtype": "float32"
        },
        {
          "name": "optimizer.vars.62",
          "shape": [
            608
          ],
          "dtype": "float32"
        },
        {
          "name": "optimizer.vars.63",
          "shape": [
            608
          ],
          "dtype": "float32"
        },
        {
          "name": "optimizer.vars.64",
          "shape": [
            608
          ],
          "dtype": "float32"
        },
        {
          "name": "optimizer.vars.65",
          "shape": [
            1,
            1,
            608,
            128
          ],
          "dtype": "float32"
        },
        {
          "name": "optimizer.vars.66",
          "shape": [
            1,
            1,
            608,
            128
          ],
          "dtype": "float32"
        },
        {
          "name": "optimizer.vars.67",
          "shape": [
            128
          ],
          "dtype": "float32"
        },
        {
          "name": "optimizer.vars.68",
          "shape": [
            128
          ],
          "dtype": "float32"
        },
        {
          "name": "optimizer.vars.69",
          "shape": [
            128
          ],
          "dtype": "float32"
        },
        {
          "name": "optimizer.vars.7",
          "shape": [
            992
          ],
          "dtype": "float32"
        },
        {
          "name": "optimizer.vars.70",
          "shape": [
            128
          ],
          "dtype": "float32"
        },
        {
          "name": "optimizer.vars.71",
          "shape": [
            3,
            3,
            128,
            32
          ],
          "dtype": "float32"
        },
        {
          "name": "optimizer.vars.72",
          "shape": [
            3,
            3,
            128,
            32
          ],
          "dtype": "float32"
        },
        {
          "name": "optimizer.vars.73",
          "shape": [
            640
          ],
          "dtype": "float32"
        },
        {
          "name": "optimizer.vars.74",
          "shape": [
            640
          ],
          "dtype": "float32"
        },
        {
          "name": "optimizer.vars.75",
          "shape": [
            640
          ],
          "dtype": "float32"
        },
        {
          "name": "optimizer.vars.76",
          "shape": [
            640
          ],
          "dtype": "float32"
        },
        {
          "name": "optimizer.vars.77",
          "shape": [
            1,
            1,
            640,
            128
          ],
          "dtype": "float32"
        },
        {
          "name": "optimizer.vars.78",
          "shape": [
            1,
            1,
            640,
            128
          ],
          "dtype": "float32"
        },
        {
          "name": "optimizer.vars.79",
          "shape": [
            128
          ],
          "dtype": "float32"
        },
        {
          "name": "optimizer.vars.8",
          "shape": [
            992
          ],
          "dtype": "float32"
        },
        {
          "name": "optimizer.vars.80",
          "shape": [
            128
          ],
          "dtype": "float32"
        },
        {
          "name": "optimizer.vars.81",
          "shape": [
            128
          ],
          "dtype": "float32"
        },
        {
          "name": "optimizer.vars.82",
          "shape": [
            128
          ],
          "dtype": "float32"
        },
        {
          "name": "optimizer.vars.83",
          "shape": [
            3,
            3,
            128,
            32
          ],
          "dtype": "float32"
        },
        {
          "name": "optimizer.vars.84",
          "shape": [
            3,
            3,
            128,
            32
          ],
          "dtype": "float32"
        },
        {
          "name": "optimizer.vars.85",
          "shape": [
            672
          ],
          "dtype": "float32"
        },
        {
          "name": "optimizer.vars.86",
          "shape": [
            672
          ],
          "dtype": "float32"
        },
        {
          "name": "optimizer.vars.87",
          "shape": [
            672
          ],
          "dtype": "float32"
        },
        {
          "name": "optimizer.vars.88",
          "shape": [
            672
          ],
          "dtype": "float32"
        },
        {
          "name": "optimizer.vars.89",
          "shape": [
            1,
            1,
            672,
            128
          ],
          "dtype": "float32"
        },
        {
          "name": "optimizer.vars.9",
          "shape": [
            992
          ],
          "dtype": "float32"
        },
        {
          "name": "optimizer.vars.90",
          "shape": [
            1,
            1,
            672,
            128
          ],
          "dtype": "float32"
        },
        {
          "name": "optimizer.vars.91",
          "shape": [
            128
          ],
          "dtype": "float32"
        },
        {
          "name": "optimizer.vars.92",
          "shape": [
            128
          ],
          "dtype": "float32"
        },
        {
          "name": "optimizer.vars.93",
          "shape": [
            128
          ],
          "dtype": "float32"
        },
        {
          "name": "optimizer.vars.94",
          "shape": [
            128
          ],
          "dtype": "float32"
        },
        {
          "name": "optimizer.vars.95",
          "shape": [
            3,
            3,
            128,
            32
          ],
          "dtype": "float32"
        },
        {
          "name": "optimizer.vars.96",
          "shape": [
            3,
            3,
            128,
            32
          ],
          "dtype": "float32"
        },
        {
          "name": "optimizer.vars.97",
          "shape": [
            704
          ],
          "dtype": "float32"
        },
        {
          "name": "optimizer.vars.98",
          "shape": [
            704
          ],
          "dtype": "float32"
        },
        {
          "name": "optimizer.vars.99",
          "shape": [
            704
          ],
          "dtype": "float32"
        }
      ]
    }
  ]
}