{
  "format": "layers-model",
  "generatedBy": "keras 3.x",
  "convertedBy": "manual",
  "modelTopology": {
    "module": "keras.src.models.functional",
    "class_name": "Functional",
    "config": {
      "name": "scout_squeezenet_eye",
      "trainable": true,
      "layers": [
        {
          "module": "keras.layers",
          "class_name": "InputLayer",
          "config": {
            "batch_input_shape": [
              null,
              227,
              227,
              3
            ],
            "dtype": "float32",
            "sparse": false,
            "ragged": false,
            "name": "scout_squeezenet_eye_input"
          },
          "registered_name": null,
          "name": "scout_squeezenet_eye_input",
          "inbound_nodes": []
        },
        {
          "module": "keras.layers",
          "class_name": "Conv2D",
          "config": {
            "name": "scout_squeezenet_eye_conv1",
            "trainable": true,
            "dtype": {
              "module": "keras",
              "class_name": "DTypePolicy",
              "config": {
                "name": "float32"
              },
              "registered_name": null
            },
            "filters": 96,
            "kernel_size": [
              7,
              7
            ],
            "strides": [
              2,
              2
            ],
            "padding": "valid",
            "data_format": "channels_last",
            "dilation_rate": [
              1,
              1
            ],
            "groups": 1,
            "activation": "relu",
            "use_bias": true,
            "kernel_initializer": {
              "module": "keras.initializers",
              "class_name": "GlorotUniform",
              "config": {
                "seed": null
              },
              "registered_name": null
            },
            "bias_initializer": {
              "module": "keras.initializers",
              "class_name": "Zeros",
              "config": {},
              "registered_name": null
            },
            "kernel_regularizer": null,
            "bias_regularizer": null,
            "activity_regularizer": null,
            "kernel_constraint": null,
            "bias_constraint": null
          },
          "registered_name": null,
          "build_config": {
            "input_shape": [
              null,
              227,
              227,
              3
            ]
          },
          "name": "scout_squeezenet_eye_conv1",
          "inbound_nodes": [
            {
              "args": [
                {
                  "class_name": "__keras_tensor__",
                  "config": {
                    "shape": [
                      null,
                      227,
                      227,
                      3
                    ],
                    "dtype": "float32",
                    "keras_history": [
                      "scout_squeezenet_eye_input",
                      0,
                      0
                    ]
                  }
                }
              ],
              "kwargs": {}
            }
          ]
        },
        {
          "module": "keras.layers",
          "class_name": "MaxPooling2D",
          "config": {
            "name": "max_pooling2d",
            "trainable": true,
            "dtype": {
              "module": "keras",
              "class_name": "DTypePolicy",
              "config": {
                "name": "float32"
              },
              "registered_name": null,
              "shared_object_id": 133457544880896
            },
            "pool_size": [
              3,
              3
            ],
            "padding": "valid",
            "strides": [
              2,
              2
            ],
            "data_format": "channels_last"
          },
          "registered_name": null,
          "name": "max_pooling2d",
          "inbound_nodes": [
            {
              "args": [
                {
                  "class_name": "__keras_tensor__",
                  "config": {
                    "shape": [
                      null,
                      111,
                      111,
                      96
                    ],
                    "dtype": "float32",
                    "keras_history": [
                      "scout_squeezenet_eye_conv1",
                      0,
                      0
                    ]
                  }
                }
              ],
              "kwargs": {}
            }
          ]
        },
        {
          "module": "keras.layers",
          "class_name": "Conv2D",
          "config": {
            "name": "scout_squeezenet_eye_fire2_squeeze",
            "trainable": true,
            "dtype": {
              "module": "keras",
              "class_name": "DTypePolicy",
              "config": {
                "name": "float32"
              },
              "registered_name": null,
              "shared_object_id": 133457544880896
            },
            "filters": 16,
            "kernel_size": [
              1,
              1
            ],
            "strides": [
              1,
              1
            ],
            "padding": "valid",
            "data_format": "channels_last",
            "dilation_rate": [
              1,
              1
            ],
            "groups": 1,
            "activation": "relu",
            "use_bias": true,
            "kernel_initializer": {
              "module": "keras.initializers",
              "class_name": "GlorotUniform",
              "config": {
                "seed": null
              },
              "registered_name": null
            },
            "bias_initializer": {
              "module": "keras.initializers",
              "class_name": "Zeros",
              "config": {},
              "registered_name": null
            },
            "kernel_regularizer": null,
            "bias_regularizer": null,
            "activity_regularizer": null,
            "kernel_constraint": null,
            "bias_constraint": null
          },
          "registered_name": null,
          "build_config": {
            "input_shape": [
              null,
              55,
              55,
              96
            ]
          },
          "name": "scout_squeezenet_eye_fire2_squeeze",
          "inbound_nodes": [
            {
              "args": [
                {
                  "class_name": "__keras_tensor__",
                  "config": {
                    "shape": [
                      null,
                      55,
                      55,
                      96
                    ],
                    "dtype": "float32",
                    "keras_history": [
                      "max_pooling2d",
                      0,
                      0
                    ]
                  }
                }
              ],
              "kwargs": {}
            }
          ]
        },
        {
          "module": "keras.layers",
          "class_name": "Conv2D",
          "config": {
            "name": "scout_squeezenet_eye_fire2_e1x1",
            "trainable": true,
            "dtype": {
              "module": "keras",
              "class_name": "DTypePolicy",
              "config": {
                "name": "float32"
              },
              "registered_name": null,
              "shared_object_id": 133457544880896
            },
            "filters": 64,
            "kernel_size": [
              1,
              1
            ],
            "strides": [
              1,
              1
            ],
            "padding": "valid",
            "data_format": "channels_last",
            "dilation_rate": [
              1,
              1
            ],
            "groups": 1,
            "activation": "relu",
            "use_bias": true,
            "kernel_initializer": {
              "module": "keras.initializers",
              "class_name": "GlorotUniform",
              "config": {
                "seed": null
              },
              "registered_name": null
            },
            "bias_initializer": {
              "module": "keras.initializers",
              "class_name": "Zeros",
              "config": {},
              "registered_name": null
            },
            "kernel_regularizer": null,
            "bias_regularizer": null,
            "activity_regularizer": null,
            "kernel_constraint": null,
            "bias_constraint": null
          },
          "registered_name": null,
          "build_config": {
            "input_shape": [
              null,
              55,
              55,
              16
            ]
          },
          "name": "scout_squeezenet_eye_fire2_e1x1",
          "inbound_nodes": [
            {
              "args": [
                {
                  "class_name": "__keras_tensor__",
                  "config": {
                    "shape": [
                      null,
                      55,
                      55,
                      16
                    ],
                    "dtype": "float32",
                    "keras_history": [
                      "scout_squeezenet_eye_fire2_squeeze",
                      0,
                      0
                    ]
                  }
                }
              ],
              "kwargs": {}
            }
          ]
        },
        {
          "module": "keras.layers",
          "class_name": "Conv2D",
          "config": {
            "name": "scout_squeezenet_eye_fire2_e3x3",
            "trainable": true,
            "dtype": {
              "module": "keras",
              "class_name": "DTypePolicy",
              "config": {
                "name": "float32"
              },
              "registered_name": null,
              "shared_object_id": 133457544880896
            },
            "filters": 64,
            "kernel_size": [
              3,
              3
            ],
            "strides": [
              1,
              1
            ],
            "padding": "same",
            "data_format": "channels_last",
            "dilation_rate": [
              1,
              1
            ],
            "groups": 1,
            "activation": "relu",
            "use_bias": true,
            "kernel_initializer": {
              "module": "keras.initializers",
              "class_name": "GlorotUniform",
              "config": {
                "seed": null
              },
              "registered_name": null
            },
            "bias_initializer": {
              "module": "keras.initializers",
              "class_name": "Zeros",
              "config": {},
              "registered_name": null
            },
            "kernel_regularizer": null,
            "bias_regularizer": null,
            "activity_regularizer": null,
            "kernel_constraint": null,
            "bias_constraint": null
          },
          "registered_name": null,
          "build_config": {
            "input_shape": [
              null,
              55,
              55,
              16
            ]
          },
          "name": "scout_squeezenet_eye_fire2_e3x3",
          "inbound_nodes": [
            {
              "args": [
                {
                  "class_name": "__keras_tensor__",
                  "config": {
                    "shape": [
                      null,
                      55,
                      55,
                      16
                    ],
                    "dtype": "float32",
                    "keras_history": [
                      "scout_squeezenet_eye_fire2_squeeze",
                      0,
                      0
                    ]
                  }
                }
              ],
              "kwargs": {}
            }
          ]
        },
        {
          "module": "keras.layers",
          "class_name": "Concatenate",
          "config": {
            "name": "scout_squeezenet_eye_fire2_concat",
            "trainable": true,
            "dtype": {
              "module": "keras",
              "class_name": "DTypePolicy",
              "config": {
                "name": "float32"
              },
              "registered_name": null,
              "shared_object_id": 133457544880896
            },
            "axis": -1
          },
          "registered_name": null,
          "build_config": {
            "input_shape": [
              [
                null,
                55,
                55,
                64
              ],
              [
                null,
                55,
                55,
                64
              ]
            ]
          },
          "name": "scout_squeezenet_eye_fire2_concat",
          "inbound_nodes": [
            {
              "args": [
                [
                  {
                    "class_name": "__keras_tensor__",
                    "config": {
                      "shape": [
                        null,
                        55,
                        55,
                        64
                      ],
                      "dtype": "float32",
                      "keras_history": [
                        "scout_squeezenet_eye_fire2_e1x1",
                        0,
                        0
                      ]
                    }
                  },
                  {
                    "class_name": "__keras_tensor__",
                    "config": {
                      "shape": [
                        null,
                        55,
                        55,
                        64
                      ],
                      "dtype": "float32",
                      "keras_history": [
                        "scout_squeezenet_eye_fire2_e3x3",
                        0,
                        0
                      ]
                    }
                  }
                ]
              ],
              "kwargs": {}
            }
          ]
        },
        {
          "module": "keras.layers",
          "class_name": "Conv2D",
          "config": {
            "name": "scout_squeezenet_eye_fire3_squeeze",
            "trainable": true,
            "dtype": {
              "module": "keras",
              "class_name": "DTypePolicy",
              "config": {
                "name": "float32"
              },
              "registered_name": null,
              "shared_object_id": 133457544880896
            },
            "filters": 16,
            "kernel_size": [
              1,
              1
            ],
            "strides": [
              1,
              1
            ],
            "padding": "valid",
            "data_format": "channels_last",
            "dilation_rate": [
              1,
              1
            ],
            "groups": 1,
            "activation": "relu",
            "use_bias": true,
            "kernel_initializer": {
              "module": "keras.initializers",
              "class_name": "GlorotUniform",
              "config": {
                "seed": null
              },
              "registered_name": null
            },
            "bias_initializer": {
              "module": "keras.initializers",
              "class_name": "Zeros",
              "config": {},
              "registered_name": null
            },
            "kernel_regularizer": null,
            "bias_regularizer": null,
            "activity_regularizer": null,
            "kernel_constraint": null,
            "bias_constraint": null
          },
          "registered_name": null,
          "build_config": {
            "input_shape": [
              null,
              55,
              55,
              128
            ]
          },
          "name": "scout_squeezenet_eye_fire3_squeeze",
          "inbound_nodes": [
            {
              "args": [
                {
                  "class_name": "__keras_tensor__",
                  "config": {
                    "shape": [
                      null,
                      55,
                      55,
                      128
                    ],
                    "dtype": "float32",
                    "keras_history": [
                      "scout_squeezenet_eye_fire2_concat",
                      0,
                      0
                    ]
                  }
                }
              ],
              "kwargs": {}
            }
          ]
        },
        {
          "module": "keras.layers",
          "class_name": "Conv2D",
          "config": {
            "name": "scout_squeezenet_eye_fire3_e1x1",
            "trainable": true,
            "dtype": {
              "module": "keras",
              "class_name": "DTypePolicy",
              "config": {
                "name": "float32"
              },
              "registered_name": null,
              "shared_object_id": 133457544880896
            },
            "filters": 64,
            "kernel_size": [
              1,
              1
            ],
            "strides": [
              1,
              1
            ],
            "padding": "valid",
            "data_format": "channels_last",
            "dilation_rate": [
              1,
              1
            ],
            "groups": 1,
            "activation": "relu",
            "use_bias": true,
            "kernel_initializer": {
              "module": "keras.initializers",
              "class_name": "GlorotUniform",
              "config": {
                "seed": null
              },
              "registered_name": null
            },
            "bias_initializer": {
              "module": "keras.initializers",
              "class_name": "Zeros",
              "config": {},
              "registered_name": null
            },
            "kernel_regularizer": null,
            "bias_regularizer": null,
            "activity_regularizer": null,
            "kernel_constraint": null,
            "bias_constraint": null
          },
          "registered_name": null,
          "build_config": {
            "input_shape": [
              null,
              55,
              55,
              16
            ]
          },
          "name": "scout_squeezenet_eye_fire3_e1x1",
          "inbound_nodes": [
            {
              "args": [
                {
                  "class_name": "__keras_tensor__",
                  "config": {
                    "shape": [
                      null,
                      55,
                      55,
                      16
                    ],
                    "dtype": "float32",
                    "keras_history": [
                      "scout_squeezenet_eye_fire3_squeeze",
                      0,
                      0
                    ]
                  }
                }
              ],
              "kwargs": {}
            }
          ]
        },
        {
          "module": "keras.layers",
          "class_name": "Conv2D",
          "config": {
            "name": "scout_squeezenet_eye_fire3_e3x3",
            "trainable": true,
            "dtype": {
              "module": "keras",
              "class_name": "DTypePolicy",
              "config": {
                "name": "float32"
              },
              "registered_name": null,
              "shared_object_id": 133457544880896
            },
            "filters": 64,
            "kernel_size": [
              3,
              3
            ],
            "strides": [
              1,
              1
            ],
            "padding": "same",
            "data_format": "channels_last",
            "dilation_rate": [
              1,
              1
            ],
            "groups": 1,
            "activation": "relu",
            "use_bias": true,
            "kernel_initializer": {
              "module": "keras.initializers",
              "class_name": "GlorotUniform",
              "config": {
                "seed": null
              },
              "registered_name": null
            },
            "bias_initializer": {
              "module": "keras.initializers",
              "class_name": "Zeros",
              "config": {},
              "registered_name": null
            },
            "kernel_regularizer": null,
            "bias_regularizer": null,
            "activity_regularizer": null,
            "kernel_constraint": null,
            "bias_constraint": null
          },
          "registered_name": null,
          "build_config": {
            "input_shape": [
              null,
              55,
              55,
              16
            ]
          },
          "name": "scout_squeezenet_eye_fire3_e3x3",
          "inbound_nodes": [
            {
              "args": [
                {
                  "class_name": "__keras_tensor__",
                  "config": {
                    "shape": [
                      null,
                      55,
                      55,
                      16
                    ],
                    "dtype": "float32",
                    "keras_history": [
                      "scout_squeezenet_eye_fire3_squeeze",
                      0,
                      0
                    ]
                  }
                }
              ],
              "kwargs": {}
            }
          ]
        },
        {
          "module": "keras.layers",
          "class_name": "Concatenate",
          "config": {
            "name": "scout_squeezenet_eye_fire3_concat",
            "trainable": true,
            "dtype": {
              "module": "keras",
              "class_name": "DTypePolicy",
              "config": {
                "name": "float32"
              },
              "registered_name": null,
              "shared_object_id": 133457544880896
            },
            "axis": -1
          },
          "registered_name": null,
          "build_config": {
            "input_shape": [
              [
                null,
                55,
                55,
                64
              ],
              [
                null,
                55,
                55,
                64
              ]
            ]
          },
          "name": "scout_squeezenet_eye_fire3_concat",
          "inbound_nodes": [
            {
              "args": [
                [
                  {
                    "class_name": "__keras_tensor__",
                    "config": {
                      "shape": [
                        null,
                        55,
                        55,
                        64
                      ],
                      "dtype": "float32",
                      "keras_history": [
                        "scout_squeezenet_eye_fire3_e1x1",
                        0,
                        0
                      ]
                    }
                  },
                  {
                    "class_name": "__keras_tensor__",
                    "config": {
                      "shape": [
                        null,
                        55,
                        55,
                        64
                      ],
                      "dtype": "float32",
                      "keras_history": [
                        "scout_squeezenet_eye_fire3_e3x3",
                        0,
                        0
                      ]
                    }
                  }
                ]
              ],
              "kwargs": {}
            }
          ]
        },
        {
          "module": "keras.layers",
          "class_name": "Conv2D",
          "config": {
            "name": "scout_squeezenet_eye_fire4_squeeze",
            "trainable": true,
            "dtype": {
              "module": "keras",
              "class_name": "DTypePolicy",
              "config": {
                "name": "float32"
              },
              "registered_name": null,
              "shared_object_id": 133457544880896
            },
            "filters": 32,
            "kernel_size": [
              1,
              1
            ],
            "strides": [
              1,
              1
            ],
            "padding": "valid",
            "data_format": "channels_last",
            "dilation_rate": [
              1,
              1
            ],
            "groups": 1,
            "activation": "relu",
            "use_bias": true,
            "kernel_initializer": {
              "module": "keras.initializers",
              "class_name": "GlorotUniform",
              "config": {
                "seed": null
              },
              "registered_name": null
            },
            "bias_initializer": {
              "module": "keras.initializers",
              "class_name": "Zeros",
              "config": {},
              "registered_name": null
            },
            "kernel_regularizer": null,
            "bias_regularizer": null,
            "activity_regularizer": null,
            "kernel_constraint": null,
            "bias_constraint": null
          },
          "registered_name": null,
          "build_config": {
            "input_shape": [
              null,
              55,
              55,
              128
            ]
          },
          "name": "scout_squeezenet_eye_fire4_squeeze",
          "inbound_nodes": [
            {
              "args": [
                {
                  "class_name": "__keras_tensor__",
                  "config": {
                    "shape": [
                      null,
                      55,
                      55,
                      128
                    ],
                    "dtype": "float32",
                    "keras_history": [
                      "scout_squeezenet_eye_fire3_concat",
                      0,
                      0
                    ]
                  }
                }
              ],
              "kwargs": {}
            }
          ]
        },
        {
          "module": "keras.layers",
          "class_name": "Conv2D",
          "config": {
            "name": "scout_squeezenet_eye_fire4_e1x1",
            "trainable": true,
            "dtype": {
              "module": "keras",
              "class_name": "DTypePolicy",
              "config": {
                "name": "float32"
              },
              "registered_name": null,
              "shared_object_id": 133457544880896
            },
            "filters": 128,
            "kernel_size": [
              1,
              1
            ],
            "strides": [
              1,
              1
            ],
            "padding": "valid",
            "data_format": "channels_last",
            "dilation_rate": [
              1,
              1
            ],
            "groups": 1,
            "activation": "relu",
            "use_bias": true,
            "kernel_initializer": {
              "module": "keras.initializers",
              "class_name": "GlorotUniform",
              "config": {
                "seed": null
              },
              "registered_name": null
            },
            "bias_initializer": {
              "module": "keras.initializers",
              "class_name": "Zeros",
              "config": {},
              "registered_name": null
            },
            "kernel_regularizer": null,
            "bias_regularizer": null,
            "activity_regularizer": null,
            "kernel_constraint": null,
            "bias_constraint": null
          },
          "registered_name": null,
          "build_config": {
            "input_shape": [
              null,
              55,
              55,
              32
            ]
          },
          "name": "scout_squeezenet_eye_fire4_e1x1",
          "inbound_nodes": [
            {
              "args": [
                {
                  "class_name": "__keras_tensor__",
                  "config": {
                    "shape": [
                      null,
                      55,
                      55,
                      32
                    ],
                    "dtype": "float32",
                    "keras_history": [
                      "scout_squeezenet_eye_fire4_squeeze",
                      0,
                      0
                    ]
                  }
                }
              ],
              "kwargs": {}
            }
          ]
        },
        {
          "module": "keras.layers",
          "class_name": "Conv2D",
          "config": {
            "name": "scout_squeezenet_eye_fire4_e3x3",
            "trainable": true,
            "dtype": {
              "module": "keras",
              "class_name": "DTypePolicy",
              "config": {
                "name": "float32"
              },
              "registered_name": null,
              "shared_object_id": 133457544880896
            },
            "filters": 128,
            "kernel_size": [
              3,
              3
            ],
            "strides": [
              1,
              1
            ],
            "padding": "same",
            "data_format": "channels_last",
            "dilation_rate": [
              1,
              1
            ],
            "groups": 1,
            "activation": "relu",
            "use_bias": true,
            "kernel_initializer": {
              "module": "keras.initializers",
              "class_name": "GlorotUniform",
              "config": {
                "seed": null
              },
              "registered_name": null
            },
            "bias_initializer": {
              "module": "keras.initializers",
              "class_name": "Zeros",
              "config": {},
              "registered_name": null
            },
            "kernel_regularizer": null,
            "bias_regularizer": null,
            "activity_regularizer": null,
            "kernel_constraint": null,
            "bias_constraint": null
          },
          "registered_name": null,
          "build_config": {
            "input_shape": [
              null,
              55,
              55,
              32
            ]
          },
          "name": "scout_squeezenet_eye_fire4_e3x3",
          "inbound_nodes": [
            {
              "args": [
                {
                  "class_name": "__keras_tensor__",
                  "config": {
                    "shape": [
                      null,
                      55,
                      55,
                      32
                    ],
                    "dtype": "float32",
                    "keras_history": [
                      "scout_squeezenet_eye_fire4_squeeze",
                      0,
                      0
                    ]
                  }
                }
              ],
              "kwargs": {}
            }
          ]
        },
        {
          "module": "keras.layers",
          "class_name": "Concatenate",
          "config": {
            "name": "scout_squeezenet_eye_fire4_concat",
            "trainable": true,
            "dtype": {
              "module": "keras",
              "class_name": "DTypePolicy",
              "config": {
                "name": "float32"
              },
              "registered_name": null,
              "shared_object_id": 133457544880896
            },
            "axis": -1
          },
          "registered_name": null,
          "build_config": {
            "input_shape": [
              [
                null,
                55,
                55,
                128
              ],
              [
                null,
                55,
                55,
                128
              ]
            ]
          },
          "name": "scout_squeezenet_eye_fire4_concat",
          "inbound_nodes": [
            {
              "args": [
                [
                  {
                    "class_name": "__keras_tensor__",
                    "config": {
                      "shape": [
                        null,
                        55,
                        55,
                        128
                      ],
                      "dtype": "float32",
                      "keras_history": [
                        "scout_squeezenet_eye_fire4_e1x1",
                        0,
                        0
                      ]
                    }
                  },
                  {
                    "class_name": "__keras_tensor__",
                    "config": {
                      "shape": [
                        null,
                        55,
                        55,
                        128
                      ],
                      "dtype": "float32",
                      "keras_history": [
                        "scout_squeezenet_eye_fire4_e3x3",
                        0,
                        0
                      ]
                    }
                  }
                ]
              ],
              "kwargs": {}
            }
          ]
        },
        {
          "module": "keras.layers",
          "class_name": "MaxPooling2D",
          "config": {
            "name": "max_pooling2d_1",
            "trainable": true,
            "dtype": {
              "module": "keras",
              "class_name": "DTypePolicy",
              "config": {
                "name": "float32"
              },
              "registered_name": null,
              "shared_object_id": 133457544880896
            },
            "pool_size": [
              3,
              3
            ],
            "padding": "valid",
            "strides": [
              2,
              2
            ],
            "data_format": "channels_last"
          },
          "registered_name": null,
          "name": "max_pooling2d_1",
          "inbound_nodes": [
            {
              "args": [
                {
                  "class_name": "__keras_tensor__",
                  "config": {
                    "shape": [
                      null,
                      55,
                      55,
                      256
                    ],
                    "dtype": "float32",
                    "keras_history": [
                      "scout_squeezenet_eye_fire4_concat",
                      0,
                      0
                    ]
                  }
                }
              ],
              "kwargs": {}
            }
          ]
        },
        {
          "module": "keras.layers",
          "class_name": "Conv2D",
          "config": {
            "name": "scout_squeezenet_eye_fire5_squeeze",
            "trainable": true,
            "dtype": {
              "module": "keras",
              "class_name": "DTypePolicy",
              "config": {
                "name": "float32"
              },
              "registered_name": null,
              "shared_object_id": 133457544880896
            },
            "filters": 32,
            "kernel_size": [
              1,
              1
            ],
            "strides": [
              1,
              1
            ],
            "padding": "valid",
            "data_format": "channels_last",
            "dilation_rate": [
              1,
              1
            ],
            "groups": 1,
            "activation": "relu",
            "use_bias": true,
            "kernel_initializer": {
              "module": "keras.initializers",
              "class_name": "GlorotUniform",
              "config": {
                "seed": null
              },
              "registered_name": null
            },
            "bias_initializer": {
              "module": "keras.initializers",
              "class_name": "Zeros",
              "config": {},
              "registered_name": null
            },
            "kernel_regularizer": null,
            "bias_regularizer": null,
            "activity_regularizer": null,
            "kernel_constraint": null,
            "bias_constraint": null
          },
          "registered_name": null,
          "build_config": {
            "input_shape": [
              null,
              27,
              27,
              256
            ]
          },
          "name": "scout_squeezenet_eye_fire5_squeeze",
          "inbound_nodes": [
            {
              "args": [
                {
                  "class_name": "__keras_tensor__",
                  "config": {
                    "shape": [
                      null,
                      27,
                      27,
                      256
                    ],
                    "dtype": "float32",
                    "keras_history": [
                      "max_pooling2d_1",
                      0,
                      0
                    ]
                  }
                }
              ],
              "kwargs": {}
            }
          ]
        },
        {
          "module": "keras.layers",
          "class_name": "Conv2D",
          "config": {
            "name": "scout_squeezenet_eye_fire5_e1x1",
            "trainable": true,
            "dtype": {
              "module": "keras",
              "class_name": "DTypePolicy",
              "config": {
                "name": "float32"
              },
              "registered_name": null,
              "shared_object_id": 133457544880896
            },
            "filters": 128,
            "kernel_size": [
              1,
              1
            ],
            "strides": [
              1,
              1
            ],
            "padding": "valid",
            "data_format": "channels_last",
            "dilation_rate": [
              1,
              1
            ],
            "groups": 1,
            "activation": "relu",
            "use_bias": true,
            "kernel_initializer": {
              "module": "keras.initializers",
              "class_name": "GlorotUniform",
              "config": {
                "seed": null
              },
              "registered_name": null
            },
            "bias_initializer": {
              "module": "keras.initializers",
              "class_name": "Zeros",
              "config": {},
              "registered_name": null
            },
            "kernel_regularizer": null,
            "bias_regularizer": null,
            "activity_regularizer": null,
            "kernel_constraint": null,
            "bias_constraint": null
          },
          "registered_name": null,
          "build_config": {
            "input_shape": [
              null,
              27,
              27,
              32
            ]
          },
          "name": "scout_squeezenet_eye_fire5_e1x1",
          "inbound_nodes": [
            {
              "args": [
                {
                  "class_name": "__keras_tensor__",
                  "config": {
                    "shape": [
                      null,
                      27,
                      27,
                      32
                    ],
                    "dtype": "float32",
                    "keras_history": [
                      "scout_squeezenet_eye_fire5_squeeze",
                      0,
                      0
                    ]
                  }
                }
              ],
              "kwargs": {}
            }
          ]
        },
        {
          "module": "keras.layers",
          "class_name": "Conv2D",
          "config": {
            "name": "scout_squeezenet_eye_fire5_e3x3",
            "trainable": true,
            "dtype": {
              "module": "keras",
              "class_name": "DTypePolicy",
              "config": {
                "name": "float32"
              },
              "registered_name": null,
              "shared_object_id": 133457544880896
            },
            "filters": 128,
            "kernel_size": [
              3,
              3
            ],
            "strides": [
              1,
              1
            ],
            "padding": "same",
            "data_format": "channels_last",
            "dilation_rate": [
              1,
              1
            ],
            "groups": 1,
            "activation": "relu",
            "use_bias": true,
            "kernel_initializer": {
              "module": "keras.initializers",
              "class_name": "GlorotUniform",
              "config": {
                "seed": null
              },
              "registered_name": null
            },
            "bias_initializer": {
              "module": "keras.initializers",
              "class_name": "Zeros",
              "config": {},
              "registered_name": null
            },
            "kernel_regularizer": null,
            "bias_regularizer": null,
            "activity_regularizer": null,
            "kernel_constraint": null,
            "bias_constraint": null
          },
          "registered_name": null,
          "build_config": {
            "input_shape": [
              null,
              27,
              27,
              32
            ]
          },
          "name": "scout_squeezenet_eye_fire5_e3x3",
          "inbound_nodes": [
            {
              "args": [
                {
                  "class_name": "__keras_tensor__",
                  "config": {
                    "shape": [
                      null,
                      27,
                      27,
                      32
                    ],
                    "dtype": "float32",
                    "keras_history": [
                      "scout_squeezenet_eye_fire5_squeeze",
                      0,
                      0
                    ]
                  }
                }
              ],
              "kwargs": {}
            }
          ]
        },
        {
          "module": "keras.layers",
          "class_name": "Concatenate",
          "config": {
            "name": "scout_squeezenet_eye_fire5_concat",
            "trainable": true,
            "dtype": {
              "module": "keras",
              "class_name": "DTypePolicy",
              "config": {
                "name": "float32"
              },
              "registered_name": null,
              "shared_object_id": 133457544880896
            },
            "axis": -1
          },
          "registered_name": null,
          "build_config": {
            "input_shape": [
              [
                null,
                27,
                27,
                128
              ],
              [
                null,
                27,
                27,
                128
              ]
            ]
          },
          "name": "scout_squeezenet_eye_fire5_concat",
          "inbound_nodes": [
            {
              "args": [
                [
                  {
                    "class_name": "__keras_tensor__",
                    "config": {
                      "shape": [
                        null,
                        27,
                        27,
                        128
                      ],
                      "dtype": "float32",
                      "keras_history": [
                        "scout_squeezenet_eye_fire5_e1x1",
                        0,
                        0
                      ]
                    }
                  },
                  {
                    "class_name": "__keras_tensor__",
                    "config": {
                      "shape": [
                        null,
                        27,
                        27,
                        128
                      ],
                      "dtype": "float32",
                      "keras_history": [
                        "scout_squeezenet_eye_fire5_e3x3",
                        0,
                        0
                      ]
                    }
                  }
                ]
              ],
              "kwargs": {}
            }
          ]
        },
        {
          "module": "keras.layers",
          "class_name": "Conv2D",
          "config": {
            "name": "scout_squeezenet_eye_fire6_squeeze",
            "trainable": true,
            "dtype": {
              "module": "keras",
              "class_name": "DTypePolicy",
              "config": {
                "name": "float32"
              },
              "registered_name": null,
              "shared_object_id": 133457544880896
            },
            "filters": 48,
            "kernel_size": [
              1,
              1
            ],
            "strides": [
              1,
              1
            ],
            "padding": "valid",
            "data_format": "channels_last",
            "dilation_rate": [
              1,
              1
            ],
            "groups": 1,
            "activation": "relu",
            "use_bias": true,
            "kernel_initializer": {
              "module": "keras.initializers",
              "class_name": "GlorotUniform",
              "config": {
                "seed": null
              },
              "registered_name": null
            },
            "bias_initializer": {
              "module": "keras.initializers",
              "class_name": "Zeros",
              "config": {},
              "registered_name": null
            },
            "kernel_regularizer": null,
            "bias_regularizer": null,
            "activity_regularizer": null,
            "kernel_constraint": null,
            "bias_constraint": null
          },
          "registered_name": null,
          "build_config": {
            "input_shape": [
              null,
              27,
              27,
              256
            ]
          },
          "name": "scout_squeezenet_eye_fire6_squeeze",
          "inbound_nodes": [
            {
              "args": [
                {
                  "class_name": "__keras_tensor__",
                  "config": {
                    "shape": [
                      null,
                      27,
                      27,
                      256
                    ],
                    "dtype": "float32",
                    "keras_history": [
                      "scout_squeezenet_eye_fire5_concat",
                      0,
                      0
                    ]
                  }
                }
              ],
              "kwargs": {}
            }
          ]
        },
        {
          "module": "keras.layers",
          "class_name": "Conv2D",
          "config": {
            "name": "scout_squeezenet_eye_fire6_e1x1",
            "trainable": true,
            "dtype": {
              "module": "keras",
              "class_name": "DTypePolicy",
              "config": {
                "name": "float32"
              },
              "registered_name": null,
              "shared_object_id": 133457544880896
            },
            "filters": 192,
            "kernel_size": [
              1,
              1
            ],
            "strides": [
              1,
              1
            ],
            "padding": "valid",
            "data_format": "channels_last",
            "dilation_rate": [
              1,
              1
            ],
            "groups": 1,
            "activation": "relu",
            "use_bias": true,
            "kernel_initializer": {
              "module": "keras.initializers",
              "class_name": "GlorotUniform",
              "config": {
                "seed": null
              },
              "registered_name": null
            },
            "bias_initializer": {
              "module": "keras.initializers",
              "class_name": "Zeros",
              "config": {},
              "registered_name": null
            },
            "kernel_regularizer": null,
            "bias_regularizer": null,
            "activity_regularizer": null,
            "kernel_constraint": null,
            "bias_constraint": null
          },
          "registered_name": null,
          "build_config": {
            "input_shape": [
              null,
              27,
              27,
              48
            ]
          },
          "name": "scout_squeezenet_eye_fire6_e1x1",
          "inbound_nodes": [
            {
              "args": [
                {
                  "class_name": "__keras_tensor__",
                  "config": {
                    "shape": [
                      null,
                      27,
                      27,
                      48
                    ],
                    "dtype": "float32",
                    "keras_history": [
                      "scout_squeezenet_eye_fire6_squeeze",
                      0,
                      0
                    ]
                  }
                }
              ],
              "kwargs": {}
            }
          ]
        },
        {
          "module": "keras.layers",
          "class_name": "Conv2D",
          "config": {
            "name": "scout_squeezenet_eye_fire6_e3x3",
            "trainable": true,
            "dtype": {
              "module": "keras",
              "class_name": "DTypePolicy",
              "config": {
                "name": "float32"
              },
              "registered_name": null,
              "shared_object_id": 133457544880896
            },
            "filters": 192,
            "kernel_size": [
              3,
              3
            ],
            "strides": [
              1,
              1
            ],
            "padding": "same",
            "data_format": "channels_last",
            "dilation_rate": [
              1,
              1
            ],
            "groups": 1,
            "activation": "relu",
            "use_bias": true,
            "kernel_initializer": {
              "module": "keras.initializers",
              "class_name": "GlorotUniform",
              "config": {
                "seed": null
              },
              "registered_name": null
            },
            "bias_initializer": {
              "module": "keras.initializers",
              "class_name": "Zeros",
              "config": {},
              "registered_name": null
            },
            "kernel_regularizer": null,
            "bias_regularizer": null,
            "activity_regularizer": null,
            "kernel_constraint": null,
            "bias_constraint": null
          },
          "registered_name": null,
          "build_config": {
            "input_shape": [
              null,
              27,
              27,
              48
            ]
          },
          "name": "scout_squeezenet_eye_fire6_e3x3",
          "inbound_nodes": [
            {
              "args": [
                {
                  "class_name": "__keras_tensor__",
                  "config": {
                    "shape": [
                      null,
                      27,
                      27,
                      48
                    ],
                    "dtype": "float32",
                    "keras_history": [
                      "scout_squeezenet_eye_fire6_squeeze",
                      0,
                      0
                    ]
                  }
                }
              ],
              "kwargs": {}
            }
          ]
        },
        {
          "module": "keras.layers",
          "class_name": "Concatenate",
          "config": {
            "name": "scout_squeezenet_eye_fire6_concat",
            "trainable": true,
            "dtype": {
              "module": "keras",
              "class_name": "DTypePolicy",
              "config": {
                "name": "float32"
              },
              "registered_name": null,
              "shared_object_id": 133457544880896
            },
            "axis": -1
          },
          "registered_name": null,
          "build_config": {
            "input_shape": [
              [
                null,
                27,
                27,
                192
              ],
              [
                null,
                27,
                27,
                192
              ]
            ]
          },
          "name": "scout_squeezenet_eye_fire6_concat",
          "inbound_nodes": [
            {
              "args": [
                [
                  {
                    "class_name": "__keras_tensor__",
                    "config": {
                      "shape": [
                        null,
                        27,
                        27,
                        192
                      ],
                      "dtype": "float32",
                      "keras_history": [
                        "scout_squeezenet_eye_fire6_e1x1",
                        0,
                        0
                      ]
                    }
                  },
                  {
                    "class_name": "__keras_tensor__",
                    "config": {
                      "shape": [
                        null,
                        27,
                        27,
                        192
                      ],
                      "dtype": "float32",
                      "keras_history": [
                        "scout_squeezenet_eye_fire6_e3x3",
                        0,
                        0
                      ]
                    }
                  }
                ]
              ],
              "kwargs": {}
            }
          ]
        },
        {
          "module": "keras.layers",
          "class_name": "Conv2D",
          "config": {
            "name": "scout_squeezenet_eye_fire7_squeeze",
            "trainable": true,
            "dtype": {
              "module": "keras",
              "class_name": "DTypePolicy",
              "config": {
                "name": "float32"
              },
              "registered_name": null,
              "shared_object_id": 133457544880896
            },
            "filters": 48,
            "kernel_size": [
              1,
              1
            ],
            "strides": [
              1,
              1
            ],
            "padding": "valid",
            "data_format": "channels_last",
            "dilation_rate": [
              1,
              1
            ],
            "groups": 1,
            "activation": "relu",
            "use_bias": true,
            "kernel_initializer": {
              "module": "keras.initializers",
              "class_name": "GlorotUniform",
              "config": {
                "seed": null
              },
              "registered_name": null
            },
            "bias_initializer": {
              "module": "keras.initializers",
              "class_name": "Zeros",
              "config": {},
              "registered_name": null
            },
            "kernel_regularizer": null,
            "bias_regularizer": null,
            "activity_regularizer": null,
            "kernel_constraint": null,
            "bias_constraint": null
          },
          "registered_name": null,
          "build_config": {
            "input_shape": [
              null,
              27,
              27,
              384
            ]
          },
          "name": "scout_squeezenet_eye_fire7_squeeze",
          "inbound_nodes": [
            {
              "args": [
                {
                  "class_name": "__keras_tensor__",
                  "config": {
                    "shape": [
                      null,
                      27,
                      27,
                      384
                    ],
                    "dtype": "float32",
                    "keras_history": [
                      "scout_squeezenet_eye_fire6_concat",
                      0,
                      0
                    ]
                  }
                }
              ],
              "kwargs": {}
            }
          ]
        },
        {
          "module": "keras.layers",
          "class_name": "Conv2D",
          "config": {
            "name": "scout_squeezenet_eye_fire7_e1x1",
            "trainable": true,
            "dtype": {
              "module": "keras",
              "class_name": "DTypePolicy",
              "config": {
                "name": "float32"
              },
              "registered_name": null,
              "shared_object_id": 133457544880896
            },
            "filters": 192,
            "kernel_size": [
              1,
              1
            ],
            "strides": [
              1,
              1
            ],
            "padding": "valid",
            "data_format": "channels_last",
            "dilation_rate": [
              1,
              1
            ],
            "groups": 1,
            "activation": "relu",
            "use_bias": true,
            "kernel_initializer": {
              "module": "keras.initializers",
              "class_name": "GlorotUniform",
              "config": {
                "seed": null
              },
              "registered_name": null
            },
            "bias_initializer": {
              "module": "keras.initializers",
              "class_name": "Zeros",
              "config": {},
              "registered_name": null
            },
            "kernel_regularizer": null,
            "bias_regularizer": null,
            "activity_regularizer": null,
            "kernel_constraint": null,
            "bias_constraint": null
          },
          "registered_name": null,
          "build_config": {
            "input_shape": [
              null,
              27,
              27,
              48
            ]
          },
          "name": "scout_squeezenet_eye_fire7_e1x1",
          "inbound_nodes": [
            {
              "args": [
                {
                  "class_name": "__keras_tensor__",
                  "config": {
                    "shape": [
                      null,
                      27,
                      27,
                      48
                    ],
                    "dtype": "float32",
                    "keras_history": [
                      "scout_squeezenet_eye_fire7_squeeze",
                      0,
                      0
                    ]
                  }
                }
              ],
              "kwargs": {}
            }
          ]
        },
        {
          "module": "keras.layers",
          "class_name": "Conv2D",
          "config": {
            "name": "scout_squeezenet_eye_fire7_e3x3",
            "trainable": true,
            "dtype": {
              "module": "keras",
              "class_name": "DTypePolicy",
              "config": {
                "name": "float32"
              },
              "registered_name": null,
              "shared_object_id": 133457544880896
            },
            "filters": 192,
            "kernel_size": [
              3,
              3
            ],
            "strides": [
              1,
              1
            ],
            "padding": "same",
            "data_format": "channels_last",
            "dilation_rate": [
              1,
              1
            ],
            "groups": 1,
            "activation": "relu",
            "use_bias": true,
            "kernel_initializer": {
              "module": "keras.initializers",
              "class_name": "GlorotUniform",
              "config": {
                "seed": null
              },
              "registered_name": null
            },
            "bias_initializer": {
              "module": "keras.initializers",
              "class_name": "Zeros",
              "config": {},
              "registered_name": null
            },
            "kernel_regularizer": null,
            "bias_regularizer": null,
            "activity_regularizer": null,
            "kernel_constraint": null,
            "bias_constraint": null
          },
          "registered_name": null,
          "build_config": {
            "input_shape": [
              null,
              27,
              27,
              48
            ]
          },
          "name": "scout_squeezenet_eye_fire7_e3x3",
          "inbound_nodes": [
            {
              "args": [
                {
                  "class_name": "__keras_tensor__",
                  "config": {
                    "shape": [
                      null,
                      27,
                      27,
                      48
                    ],
                    "dtype": "float32",
                    "keras_history": [
                      "scout_squeezenet_eye_fire7_squeeze",
                      0,
                      0
                    ]
                  }
                }
              ],
              "kwargs": {}
            }
          ]
        },
        {
          "module": "keras.layers",
          "class_name": "Concatenate",
          "config": {
            "name": "scout_squeezenet_eye_fire7_concat",
            "trainable": true,
            "dtype": {
              "module": "keras",
              "class_name": "DTypePolicy",
              "config": {
                "name": "float32"
              },
              "registered_name": null,
              "shared_object_id": 133457544880896
            },
            "axis": -1
          },
          "registered_name": null,
          "build_config": {
            "input_shape": [
              [
                null,
                27,
                27,
                192
              ],
              [
                null,
                27,
                27,
                192
              ]
            ]
          },
          "name": "scout_squeezenet_eye_fire7_concat",
          "inbound_nodes": [
            {
              "args": [
                [
                  {
                    "class_name": "__keras_tensor__",
                    "config": {
                      "shape": [
                        null,
                        27,
                        27,
                        192
                      ],
                      "dtype": "float32",
                      "keras_history": [
                        "scout_squeezenet_eye_fire7_e1x1",
                        0,
                        0
                      ]
                    }
                  },
                  {
                    "class_name": "__keras_tensor__",
                    "config": {
                      "shape": [
                        null,
                        27,
                        27,
                        192
                      ],
                      "dtype": "float32",
                      "keras_history": [
                        "scout_squeezenet_eye_fire7_e3x3",
                        0,
                        0
                      ]
                    }
                  }
                ]
              ],
              "kwargs": {}
            }
          ]
        },
        {
          "module": "keras.layers",
          "class_name": "Conv2D",
          "config": {
            "name": "scout_squeezenet_eye_fire8_squeeze",
            "trainable": true,
            "dtype": {
              "module": "keras",
              "class_name": "DTypePolicy",
              "config": {
                "name": "float32"
              },
              "registered_name": null,
              "shared_object_id": 133457544880896
            },
            "filters": 64,
            "kernel_size": [
              1,
              1
            ],
            "strides": [
              1,
              1
            ],
            "padding": "valid",
            "data_format": "channels_last",
            "dilation_rate": [
              1,
              1
            ],
            "groups": 1,
            "activation": "relu",
            "use_bias": true,
            "kernel_initializer": {
              "module": "keras.initializers",
              "class_name": "GlorotUniform",
              "config": {
                "seed": null
              },
              "registered_name": null
            },
            "bias_initializer": {
              "module": "keras.initializers",
              "class_name": "Zeros",
              "config": {},
              "registered_name": null
            },
            "kernel_regularizer": null,
            "bias_regularizer": null,
            "activity_regularizer": null,
            "kernel_constraint": null,
            "bias_constraint": null
          },
          "registered_name": null,
          "build_config": {
            "input_shape": [
              null,
              27,
              27,
              384
            ]
          },
          "name": "scout_squeezenet_eye_fire8_squeeze",
          "inbound_nodes": [
            {
              "args": [
                {
                  "class_name": "__keras_tensor__",
                  "config": {
                    "shape": [
                      null,
                      27,
                      27,
                      384
                    ],
                    "dtype": "float32",
                    "keras_history": [
                      "scout_squeezenet_eye_fire7_concat",
                      0,
                      0
                    ]
                  }
                }
              ],
              "kwargs": {}
            }
          ]
        },
        {
          "module": "keras.layers",
          "class_name": "Conv2D",
          "config": {
            "name": "scout_squeezenet_eye_fire8_e1x1",
            "trainable": true,
            "dtype": {
              "module": "keras",
              "class_name": "DTypePolicy",
              "config": {
                "name": "float32"
              },
              "registered_name": null,
              "shared_object_id": 133457544880896
            },
            "filters": 256,
            "kernel_size": [
              1,
              1
            ],
            "strides": [
              1,
              1
            ],
            "padding": "valid",
            "data_format": "channels_last",
            "dilation_rate": [
              1,
              1
            ],
            "groups": 1,
            "activation": "relu",
            "use_bias": true,
            "kernel_initializer": {
              "module": "keras.initializers",
              "class_name": "GlorotUniform",
              "config": {
                "seed": null
              },
              "registered_name": null
            },
            "bias_initializer": {
              "module": "keras.initializers",
              "class_name": "Zeros",
              "config": {},
              "registered_name": null
            },
            "kernel_regularizer": null,
            "bias_regularizer": null,
            "activity_regularizer": null,
            "kernel_constraint": null,
            "bias_constraint": null
          },
          "registered_name": null,
          "build_config": {
            "input_shape": [
              null,
              27,
              27,
              64
            ]
          },
          "name": "scout_squeezenet_eye_fire8_e1x1",
          "inbound_nodes": [
            {
              "args": [
                {
                  "class_name": "__keras_tensor__",
                  "config": {
                    "shape": [
                      null,
                      27,
                      27,
                      64
                    ],
                    "dtype": "float32",
                    "keras_history": [
                      "scout_squeezenet_eye_fire8_squeeze",
                      0,
                      0
                    ]
                  }
                }
              ],
              "kwargs": {}
            }
          ]
        },
        {
          "module": "keras.layers",
          "class_name": "Conv2D",
          "config": {
            "name": "scout_squeezenet_eye_fire8_e3x3",
            "trainable": true,
            "dtype": {
              "module": "keras",
              "class_name": "DTypePolicy",
              "config": {
                "name": "float32"
              },
              "registered_name": null,
              "shared_object_id": 133457544880896
            },
            "filters": 256,
            "kernel_size": [
              3,
              3
            ],
            "strides": [
              1,
              1
            ],
            "padding": "same",
            "data_format": "channels_last",
            "dilation_rate": [
              1,
              1
            ],
            "groups": 1,
            "activation": "relu",
            "use_bias": true,
            "kernel_initializer": {
              "module": "keras.initializers",
              "class_name": "GlorotUniform",
              "config": {
                "seed": null
              },
              "registered_name": null
            },
            "bias_initializer": {
              "module": "keras.initializers",
              "class_name": "Zeros",
              "config": {},
              "registered_name": null
            },
            "kernel_regularizer": null,
            "bias_regularizer": null,
            "activity_regularizer": null,
            "kernel_constraint": null,
            "bias_constraint": null
          },
          "registered_name": null,
          "build_config": {
            "input_shape": [
              null,
              27,
              27,
              64
            ]
          },
          "name": "scout_squeezenet_eye_fire8_e3x3",
          "inbound_nodes": [
            {
              "args": [
                {
                  "class_name": "__keras_tensor__",
                  "config": {
                    "shape": [
                      null,
                      27,
                      27,
                      64
                    ],
                    "dtype": "float32",
                    "keras_history": [
                      "scout_squeezenet_eye_fire8_squeeze",
                      0,
                      0
                    ]
                  }
                }
              ],
              "kwargs": {}
            }
          ]
        },
        {
          "module": "keras.layers",
          "class_name": "Concatenate",
          "config": {
            "name": "scout_squeezenet_eye_fire8_concat",
            "trainable": true,
            "dtype": {
              "module": "keras",
              "class_name": "DTypePolicy",
              "config": {
                "name": "float32"
              },
              "registered_name": null,
              "shared_object_id": 133457544880896
            },
            "axis": -1
          },
          "registered_name": null,
          "build_config": {
            "input_shape": [
              [
                null,
                27,
                27,
                256
              ],
              [
                null,
                27,
                27,
                256
              ]
            ]
          },
          "name": "scout_squeezenet_eye_fire8_concat",
          "inbound_nodes": [
            {
              "args": [
                [
                  {
                    "class_name": "__keras_tensor__",
                    "config": {
                      "shape": [
                        null,
                        27,
                        27,
                        256
                      ],
                      "dtype": "float32",
                      "keras_history": [
                        "scout_squeezenet_eye_fire8_e1x1",
                        0,
                        0
                      ]
                    }
                  },
                  {
                    "class_name": "__keras_tensor__",
                    "config": {
                      "shape": [
                        null,
                        27,
                        27,
                        256
                      ],
                      "dtype": "float32",
                      "keras_history": [
                        "scout_squeezenet_eye_fire8_e3x3",
                        0,
                        0
                      ]
                    }
                  }
                ]
              ],
              "kwargs": {}
            }
          ]
        },
        {
          "module": "keras.layers",
          "class_name": "MaxPooling2D",
          "config": {
            "name": "max_pooling2d_2",
            "trainable": true,
            "dtype": {
              "module": "keras",
              "class_name": "DTypePolicy",
              "config": {
                "name": "float32"
              },
              "registered_name": null,
              "shared_object_id": 133457544880896
            },
            "pool_size": [
              3,
              3
            ],
            "padding": "valid",
            "strides": [
              2,
              2
            ],
            "data_format": "channels_last"
          },
          "registered_name": null,
          "name": "max_pooling2d_2",
          "inbound_nodes": [
            {
              "args": [
                {
                  "class_name": "__keras_tensor__",
                  "config": {
                    "shape": [
                      null,
                      27,
                      27,
                      512
                    ],
                    "dtype": "float32",
                    "keras_history": [
                      "scout_squeezenet_eye_fire8_concat",
                      0,
                      0
                    ]
                  }
                }
              ],
              "kwargs": {}
            }
          ]
        },
        {
          "module": "keras.layers",
          "class_name": "Conv2D",
          "config": {
            "name": "scout_squeezenet_eye_fire9_squeeze",
            "trainable": true,
            "dtype": {
              "module": "keras",
              "class_name": "DTypePolicy",
              "config": {
                "name": "float32"
              },
              "registered_name": null,
              "shared_object_id": 133457544880896
            },
            "filters": 64,
            "kernel_size": [
              1,
              1
            ],
            "strides": [
              1,
              1
            ],
            "padding": "valid",
            "data_format": "channels_last",
            "dilation_rate": [
              1,
              1
            ],
            "groups": 1,
            "activation": "relu",
            "use_bias": true,
            "kernel_initializer": {
              "module": "keras.initializers",
              "class_name": "GlorotUniform",
              "config": {
                "seed": null
              },
              "registered_name": null
            },
            "bias_initializer": {
              "module": "keras.initializers",
              "class_name": "Zeros",
              "config": {},
              "registered_name": null
            },
            "kernel_regularizer": null,
            "bias_regularizer": null,
            "activity_regularizer": null,
            "kernel_constraint": null,
            "bias_constraint": null
          },
          "registered_name": null,
          "build_config": {
            "input_shape": [
              null,
              13,
              13,
              512
            ]
          },
          "name": "scout_squeezenet_eye_fire9_squeeze",
          "inbound_nodes": [
            {
              "args": [
                {
                  "class_name": "__keras_tensor__",
                  "config": {
                    "shape": [
                      null,
                      13,
                      13,
                      512
                    ],
                    "dtype": "float32",
                    "keras_history": [
                      "max_pooling2d_2",
                      0,
                      0
                    ]
                  }
                }
              ],
              "kwargs": {}
            }
          ]
        },
        {
          "module": "keras.layers",
          "class_name": "Conv2D",
          "config": {
            "name": "scout_squeezenet_eye_fire9_e1x1",
            "trainable": true,
            "dtype": {
              "module": "keras",
              "class_name": "DTypePolicy",
              "config": {
                "name": "float32"
              },
              "registered_name": null,
              "shared_object_id": 133457544880896
            },
            "filters": 256,
            "kernel_size": [
              1,
              1
            ],
            "strides": [
              1,
              1
            ],
            "padding": "valid",
            "data_format": "channels_last",
            "dilation_rate": [
              1,
              1
            ],
            "groups": 1,
            "activation": "relu",
            "use_bias": true,
            "kernel_initializer": {
              "module": "keras.initializers",
              "class_name": "GlorotUniform",
              "config": {
                "seed": null
              },
              "registered_name": null
            },
            "bias_initializer": {
              "module": "keras.initializers",
              "class_name": "Zeros",
              "config": {},
              "registered_name": null
            },
            "kernel_regularizer": null,
            "bias_regularizer": null,
            "activity_regularizer": null,
            "kernel_constraint": null,
            "bias_constraint": null
          },
          "registered_name": null,
          "build_config": {
            "input_shape": [
              null,
              13,
              13,
              64
            ]
          },
          "name": "scout_squeezenet_eye_fire9_e1x1",
          "inbound_nodes": [
            {
              "args": [
                {
                  "class_name": "__keras_tensor__",
                  "config": {
                    "shape": [
                      null,
                      13,
                      13,
                      64
                    ],
                    "dtype": "float32",
                    "keras_history": [
                      "scout_squeezenet_eye_fire9_squeeze",
                      0,
                      0
                    ]
                  }
                }
              ],
              "kwargs": {}
            }
          ]
        },
        {
          "module": "keras.layers",
          "class_name": "Conv2D",
          "config": {
            "name": "scout_squeezenet_eye_fire9_e3x3",
            "trainable": true,
            "dtype": {
              "module": "keras",
              "class_name": "DTypePolicy",
              "config": {
                "name": "float32"
              },
              "registered_name": null,
              "shared_object_id": 133457544880896
            },
            "filters": 256,
            "kernel_size": [
              3,
              3
            ],
            "strides": [
              1,
              1
            ],
            "padding": "same",
            "data_format": "channels_last",
            "dilation_rate": [
              1,
              1
            ],
            "groups": 1,
            "activation": "relu",
            "use_bias": true,
            "kernel_initializer": {
              "module": "keras.initializers",
              "class_name": "GlorotUniform",
              "config": {
                "seed": null
              },
              "registered_name": null
            },
            "bias_initializer": {
              "module": "keras.initializers",
              "class_name": "Zeros",
              "config": {},
              "registered_name": null
            },
            "kernel_regularizer": null,
            "bias_regularizer": null,
            "activity_regularizer": null,
            "kernel_constraint": null,
            "bias_constraint": null
          },
          "registered_name": null,
          "build_config": {
            "input_shape": [
              null,
              13,
              13,
              64
            ]
          },
          "name": "scout_squeezenet_eye_fire9_e3x3",
          "inbound_nodes": [
            {
              "args": [
                {
                  "class_name": "__keras_tensor__",
                  "config": {
                    "shape": [
                      null,
                      13,
                      13,
                      64
                    ],
                    "dtype": "float32",
                    "keras_history": [
                      "scout_squeezenet_eye_fire9_squeeze",
                      0,
                      0
                    ]
                  }
                }
              ],
              "kwargs": {}
            }
          ]
        },
        {
          "module": "keras.layers",
          "class_name": "Concatenate",
          "config": {
            "name": "scout_squeezenet_eye_fire9_concat",
            "trainable": true,
            "dtype": {
              "module": "keras",
              "class_name": "DTypePolicy",
              "config": {
                "name": "float32"
              },
              "registered_name": null,
              "shared_object_id": 133457544880896
            },
            "axis": -1
          },
          "registered_name": null,
          "build_config": {
            "input_shape": [
              [
                null,
                13,
                13,
                256
              ],
              [
                null,
                13,
                13,
                256
              ]
            ]
          },
          "name": "scout_squeezenet_eye_fire9_concat",
          "inbound_nodes": [
            {
              "args": [
                [
                  {
                    "class_name": "__keras_tensor__",
                    "config": {
                      "shape": [
                        null,
                        13,
                        13,
                        256
                      ],
                      "dtype": "float32",
                      "keras_history": [
                        "scout_squeezenet_eye_fire9_e1x1",
                        0,
                        0
                      ]
                    }
                  },
                  {
                    "class_name": "__keras_tensor__",
                    "config": {
                      "shape": [
                        null,
                        13,
                        13,
                        256
                      ],
                      "dtype": "float32",
                      "keras_history": [
                        "scout_squeezenet_eye_fire9_e3x3",
                        0,
                        0
                      ]
                    }
                  }
                ]
              ],
              "kwargs": {}
            }
          ]
        },
        {
          "module": "keras.layers",
          "class_name": "Dropout",
          "config": {
            "name": "dropout",
            "trainable": true,
            "dtype": {
              "module": "keras",
              "class_name": "DTypePolicy",
              "config": {
                "name": "float32"
              },
              "registered_name": null,
              "shared_object_id": 133457544880896
            },
            "rate": 0.5,
            "seed": null,
            "noise_shape": null
          },
          "registered_name": null,
          "name": "dropout",
          "inbound_nodes": [
            {
              "args": [
                {
                  "class_name": "__keras_tensor__",
                  "config": {
                    "shape": [
                      null,
                      13,
                      13,
                      512
                    ],
                    "dtype": "float32",
                    "keras_history": [
                      "scout_squeezenet_eye_fire9_concat",
                      0,
                      0
                    ]
                  }
                }
              ],
              "kwargs": {
                "training": false
              }
            }
          ]
        },
        {
          "module": "keras.layers",
          "class_name": "Conv2D",
          "config": {
            "name": "scout_squeezenet_eye_conv_final",
            "trainable": true,
            "dtype": {
              "module": "keras",
              "class_name": "DTypePolicy",
              "config": {
                "name": "float32"
              },
              "registered_name": null,
              "shared_object_id": 133457544880896
            },
            "filters": 256,
            "kernel_size": [
              1,
              1
            ],
            "strides": [
              1,
              1
            ],
            "padding": "valid",
            "data_format": "channels_last",
            "dilation_rate": [
              1,
              1
            ],
            "groups": 1,
            "activation": "relu",
            "use_bias": true,
            "kernel_initializer": {
              "module": "keras.initializers",
              "class_name": "GlorotUniform",
              "config": {
                "seed": null
              },
              "registered_name": null
            },
            "bias_initializer": {
              "module": "keras.initializers",
              "class_name": "Zeros",
              "config": {},
              "registered_name": null
            },
            "kernel_regularizer": null,
            "bias_regularizer": null,
            "activity_regularizer": null,
            "kernel_constraint": null,
            "bias_constraint": null
          },
          "registered_name": null,
          "build_config": {
            "input_shape": [
              null,
              13,
              13,
              512
            ]
          },
          "name": "scout_squeezenet_eye_conv_final",
          "inbound_nodes": [
            {
              "args": [
                {
                  "class_name": "__keras_tensor__",
                  "config": {
                    "shape": [
                      null,
                      13,
                      13,
                      512
                    ],
                    "dtype": "float32",
                    "keras_history": [
                      "dropout",
                      0,
                      0
                    ]
                  }
                }
              ],
              "kwargs": {}
            }
          ]
        },
        {
          "module": "keras.layers",
          "class_name": "GlobalAveragePooling2D",
          "config": {
            "name": "global_average_pooling2d",
            "trainable": true,
            "dtype": {
              "module": "keras",
              "class_name": "DTypePolicy",
              "config": {
                "name": "float32"
              },
              "registered_name": null,
              "shared_object_id": 133457544880896
            },
            "data_format": "channels_last",
            "keepdims": false
          },
          "registered_name": null,
          "name": "global_average_pooling2d",
          "inbound_nodes": [
            {
              "args": [
                {
                  "class_name": "__keras_tensor__",
                  "config": {
                    "shape": [
                      null,
                      13,
                      13,
                      256
                    ],
                    "dtype": "float32",
                    "keras_history": [
                      "scout_squeezenet_eye_conv_final",
                      0,
                      0
                    ]
                  }
                }
              ],
              "kwargs": {}
            }
          ]
        },
        {
          "module": "keras.layers",
          "class_name": "Dense",
          "config": {
            "name": "scout_squeezenet_eye_fc1",
            "trainable": true,
            "dtype": {
              "module": "keras",
              "class_name": "DTypePolicy",
              "config": {
                "name": "float32"
              },
              "registered_name": null,
              "shared_object_id": 133457544880896
            },
            "units": 256,
            "activation": "relu",
            "use_bias": true,
            "kernel_initializer": {
              "module": "keras.initializers",
              "class_name": "GlorotUniform",
              "config": {
                "seed": null
              },
              "registered_name": null
            },
            "bias_initializer": {
              "module": "keras.initializers",
              "class_name": "Zeros",
              "config": {},
              "registered_name": null
            },
            "kernel_regularizer": null,
            "bias_regularizer": null,
            "kernel_constraint": null,
            "bias_constraint": null
          },
          "registered_name": null,
          "build_config": {
            "input_shape": [
              null,
              256
            ]
          },
          "name": "scout_squeezenet_eye_fc1",
          "inbound_nodes": [
            {
              "args": [
                {
                  "class_name": "__keras_tensor__",
                  "config": {
                    "shape": [
                      null,
                      256
                    ],
                    "dtype": "float32",
                    "keras_history": [
                      "global_average_pooling2d",
                      0,
                      0
                    ]
                  }
                }
              ],
              "kwargs": {}
            }
          ]
        },
        {
          "module": "keras.layers",
          "class_name": "Dropout",
          "config": {
            "name": "dropout_1",
            "trainable": true,
            "dtype": {
              "module": "keras",
              "class_name": "DTypePolicy",
              "config": {
                "name": "float32"
              },
              "registered_name": null,
              "shared_object_id": 133457544880896
            },
            "rate": 0.3,
            "seed": null,
            "noise_shape": null
          },
          "registered_name": null,
          "name": "dropout_1",
          "inbound_nodes": [
            {
              "args": [
                {
                  "class_name": "__keras_tensor__",
                  "config": {
                    "shape": [
                      null,
                      256
                    ],
                    "dtype": "float32",
                    "keras_history": [
                      "scout_squeezenet_eye_fc1",
                      0,
                      0
                    ]
                  }
                }
              ],
              "kwargs": {
                "training": false
              }
            }
          ]
        },
        {
          "module": "keras.layers",
          "class_name": "Dense",
          "config": {
            "name": "scout_squeezenet_eye_fc2",
            "trainable": true,
            "dtype": {
              "module": "keras",
              "class_name": "DTypePolicy",
              "config": {
                "name": "float32"
              },
              "registered_name": null,
              "shared_object_id": 133457544880896
            },
            "units": 128,
            "activation": "relu",
            "use_bias": true,
            "kernel_initializer": {
              "module": "keras.initializers",
              "class_name": "GlorotUniform",
              "config": {
                "seed": null
              },
              "registered_name": null
            },
            "bias_initializer": {
              "module": "keras.initializers",
              "class_name": "Zeros",
              "config": {},
              "registered_name": null
            },
            "kernel_regularizer": null,
            "bias_regularizer": null,
            "kernel_constraint": null,
            "bias_constraint": null
          },
          "registered_name": null,
          "build_config": {
            "input_shape": [
              null,
              256
            ]
          },
          "name": "scout_squeezenet_eye_fc2",
          "inbound_nodes": [
            {
              "args": [
                {
                  "class_name": "__keras_tensor__",
                  "config": {
                    "shape": [
                      null,
                      256
                    ],
                    "dtype": "float32",
                    "keras_history": [
                      "dropout_1",
                      0,
                      0
                    ]
                  }
                }
              ],
              "kwargs": {}
            }
          ]
        },
        {
          "module": "keras.layers",
          "class_name": "Dropout",
          "config": {
            "name": "dropout_2",
            "trainable": true,
            "dtype": {
              "module": "keras",
              "class_name": "DTypePolicy",
              "config": {
                "name": "float32"
              },
              "registered_name": null,
              "shared_object_id": 133457544880896
            },
            "rate": 0.2,
            "seed": null,
            "noise_shape": null
          },
          "registered_name": null,
          "name": "dropout_2",
          "inbound_nodes": [
            {
              "args": [
                {
                  "class_name": "__keras_tensor__",
                  "config": {
                    "shape": [
                      null,
                      128
                    ],
                    "dtype": "float32",
                    "keras_history": [
                      "scout_squeezenet_eye_fc2",
                      0,
                      0
                    ]
                  }
                }
              ],
              "kwargs": {
                "training": false
              }
            }
          ]
        },
        {
          "module": "keras.layers",
          "class_name": "Dense",
          "config": {
            "name": "scout_squeezenet_eye_output",
            "trainable": true,
            "dtype": {
              "module": "keras",
              "class_name": "DTypePolicy",
              "config": {
                "name": "float32"
              },
              "registered_name": null
            },
            "units": 1,
            "activation": "sigmoid",
            "use_bias": true,
            "kernel_initializer": {
              "module": "keras.initializers",
              "class_name": "GlorotUniform",
              "config": {
                "seed": null
              },
              "registered_name": null
            },
            "bias_initializer": {
              "module": "keras.initializers",
              "class_name": "Zeros",
              "config": {},
              "registered_name": null
            },
            "kernel_regularizer": null,
            "bias_regularizer": null,
            "kernel_constraint": null,
            "bias_constraint": null
          },
          "registered_name": null,
          "build_config": {
            "input_shape": [
              null,
              128
            ]
          },
          "name": "scout_squeezenet_eye_output",
          "inbound_nodes": [
            {
              "args": [
                {
                  "class_name": "__keras_tensor__",
                  "config": {
                    "shape": [
                      null,
                      128
                    ],
                    "dtype": "float32",
                    "keras_history": [
                      "dropout_2",
                      0,
                      0
                    ]
                  }
                }
              ],
              "kwargs": {}
            }
          ]
        }
      ],
      "input_layers": [
        [
          "scout_squeezenet_eye_input",
          0,
          0
        ]
      ],
      "output_layers": [
        [
          "scout_squeezenet_eye_output",
          0,
          0
        ]
      ]
    },
    "registered_name": "Functional",
    "build_config": {
      "input_shape": null
    },
    "compile_config": {
      "optimizer": {
        "module": "keras.optimizers",
        "class_name": "AdamW",
        "config": {
          "name": "adamw",
          "learning_rate": {
            "module": null,
            "class_name": "WarmupCosineDecay",
            "config": {
              "base_lr": 0.0005,
              "warmup_steps": 402,
              "total_steps": 4623
            },
            "registered_name": "WarmupCosineDecay"
          },
          "weight_decay": 0.0001,
          "clipnorm": null,
          "global_clipnorm": null,
          "clipvalue": null,
          "use_ema": false,
          "ema_momentum": 0.99,
          "ema_overwrite_frequency": null,
          "loss_scale_factor": null,
          "gradient_accumulation_steps": null,
          "beta_1": 0.9,
          "beta_2": 0.999,
          "epsilon": 1e-07,
          "amsgrad": false
        },
        "registered_name": null
      },
      "loss": {
        "module": "keras.losses",
        "class_name": "Huber",
        "config": {
          "name": "huber_loss",
          "reduction": "sum_over_batch_size"
        },
        "registered_name": null
      },
      "loss_weights": null,
      "metrics": [
        "mae"
      ],
      "weighted_metrics": null,
      "run_eagerly": false,
      "steps_per_execution": 1,
      "jit_compile": true
    }
  },
  "weightsManifest": [
    {
      "paths": [
        "group1-shard1of1.bin"
      ],
      "weights": [
        {
          "name": "layers.conv2d.vars.0",
          "shape": [
            7,
            7,
            3,
            96
          ],
          "dtype": "float32"
        },
        {
          "name": "layers.conv2d.vars.1",
          "shape": [
            96
          ],
          "dtype": "float32"
        },
        {
          "name": "layers.conv2d_1.vars.0",
          "shape": [
            1,
            1,
            96,
            16
          ],
          "dtype": "float32"
        },
        {
          "name": "layers.conv2d_1.vars.1",
          "shape": [
            16
          ],
          "dtype": "float32"
        },
        {
          "name": "layers.conv2d_10.vars.0",
          "shape": [
            1,
            1,
            256,
            32
          ],
          "dtype": "float32"
        },
        {
          "name": "layers.conv2d_10.vars.1",
          "shape": [
            32
          ],
          "dtype": "float32"
        },
        {
          "name": "layers.conv2d_11.vars.0",
          "shape": [
            1,
            1,
            32,
            128
          ],
          "dtype": "float32"
        },
        {
          "name": "layers.conv2d_11.vars.1",
          "shape": [
            128
          ],
          "dtype": "float32"
        },
        {
          "name": "layers.conv2d_12.vars.0",
          "shape": [
            3,
            3,
            32,
            128
          ],
          "dtype": "float32"
        },
        {
          "name": "layers.conv2d_12.vars.1",
          "shape": [
            128
          ],
          "dtype": "float32"
        },
        {
          "name": "layers.conv2d_13.vars.0",
          "shape": [
            1,
            1,
            256,
            48
          ],
          "dtype": "float32"
        },
        {
          "name": "layers.conv2d_13.vars.1",
          "shape": [
            48
          ],
          "dtype": "float32"
        },
        {
          "name": "layers.conv2d_14.vars.0",
          "shape": [
            1,
            1,
            48,
            192
          ],
          "dtype": "float32"
        },
        {
          "name": "layers.conv2d_14.vars.1",
          "shape": [
            192
          ],
          "dtype": "float32"
        },
        {
          "name": "layers.conv2d_15.vars.0",
          "shape": [
            3,
            3,
            48,
            192
          ],
          "dtype": "float32"
        },
        {
          "name": "layers.conv2d_15.vars.1",
          "shape": [
            192
          ],
          "dtype": "float32"
        },
        {
          "name": "layers.conv2d_16.vars.0",
          "shape": [
            1,
            1,
            384,
            48
          ],
          "dtype": "float32"
        },
        {
          "name": "layers.conv2d_16.vars.1",
          "shape": [
            48
          ],
          "dtype": "float32"
        },
        {
          "name": "layers.conv2d_17.vars.0",
          "shape": [
            1,
            1,
            48,
            192
          ],
          "dtype": "float32"
        },
        {
          "name": "layers.conv2d_17.vars.1",
          "shape": [
            192
          ],
          "dtype": "float32"
        },
        {
          "name": "layers.conv2d_18.vars.0",
          "shape": [
            3,
            3,
            48,
            192
          ],
          "dtype": "float32"
        },
        {
          "name": "layers.conv2d_18.vars.1",
          "shape": [
            192
          ],
          "dtype": "float32"
        },
        {
          "name": "layers.conv2d_19.vars.0",
          "shape": [
            1,
            1,
            384,
            64
          ],
          "dtype": "float32"
        },
        {
          "name": "layers.conv2d_19.vars.1",
          "shape": [
            64
          ],
          "dtype": "float32"
        },
        {
          "name": "layers.conv2d_2.vars.0",
          "shape": [
            1,
            1,
            16,
            64
          ],
          "dtype": "float32"
        },
        {
          "name": "layers.conv2d_2.vars.1",
          "shape": [
            64
          ],
          "dtype": "float32"
        },
        {
          "name": "layers.conv2d_20.vars.0",
          "shape": [
            1,
            1,
            64,
            256
          ],
          "dtype": "float32"
        },
        {
          "name": "layers.conv2d_20.vars.1",
          "shape": [
            256
          ],
          "dtype": "float32"
        },
        {
          "name": "layers.conv2d_21.vars.0",
          "shape": [
            3,
            3,
            64,
            256
          ],
          "dtype": "float32"
        },
        {
          "name": "layers.conv2d_21.vars.1",
          "shape": [
            256
          ],
          "dtype": "float32"
        },
        {
          "name": "layers.conv2d_22.vars.0",
          "shape": [
            1,
            1,
            512,
            64
          ],
          "dtype": "float32"
        },
        {
          "name": "layers.conv2d_22.vars.1",
          "shape": [
            64
          ],
          "dtype": "float32"
        },
        {
          "name": "layers.conv2d_23.vars.0",
          "shape": [
            1,
            1,
            64,
            256
          ],
          "dtype": "float32"
        },
        {
          "name": "layers.conv2d_23.vars.1",
          "shape": [
            256
          ],
          "dtype": "float32"
        },
        {
          "name": "layers.conv2d_24.vars.0",
          "shape": [
            3,
            3,
            64,
            256
          ],
          "dtype": "float32"
        },
        {
          "name": "layers.conv2d_24.vars.1",
          "shape": [
            256
          ],
          "dtype": "float32"
        },
        {
          "name": "layers.conv2d_25.vars.0",
          "shape": [
            1,
            1,
            512,
            256
          ],
          "dtype": "float32"
        },
        {
          "name": "layers.conv2d_25.vars.1",
          "shape": [
            256
          ],
          "dtype": "float32"
        },
        {
          "name": "layers.conv2d_3.vars.0",
          "shape": [
            3,
            3,
            16,
            64
          ],
          "dtype": "float32"
        },
        {
          "name": "layers.conv2d_3.vars.1",
          "shape": [
            64
          ],
          "dtype": "float32"
        },
        {
          "name": "layers.conv2d_4.vars.0",
          "shape": [
            1,
            1,
            128,
            16
          ],
          "dtype": "float32"
        },
        {
          "name": "layers.conv2d_4.vars.1",
          "shape": [
            16
          ],
          "dtype": "float32"
        },
        {
          "name": "layers.conv2d_5.vars.0",
          "shape": [
            1,
            1,
            16,
            64
          ],
          "dtype": "float32"
        },
        {
          "name": "layers.conv2d_5.vars.1",
          "shape": [
            64
          ],
          "dtype": "float32"
        },
        {
          "name": "layers.conv2d_6.vars.0",
          "shape": [
            3,
            3,
            16,
            64
          ],
          "dtype": "float32"
        },
        {
          "name": "layers.conv2d_6.vars.1",
          "shape": [
            64
          ],
          "dtype": "float32"
        },
        {
          "name": "layers.conv2d_7.vars.0",
          "shape": [
            1,
            1,
            128,
            32
          ],
          "dtype": "float32"
        },
        {
          "name": "layers.conv2d_7.vars.1",
          "shape": [
            32
          ],
          "dtype": "float32"
        },
        {
          "name": "layers.conv2d_8.vars.0",
          "shape": [
            1,
            1,
            32,
            128
          ],
          "dtype": "float32"
        },
        {
          "name": "layers.conv2d_8.vars.1",
          "shape": [
            128
          ],
          "dtype": "float32"
        },
        {
          "name": "layers.conv2d_9.vars.0",
          "shape": [
            3,
            3,
            32,
            128
          ],
          "dtype": "float32"
        },
        {
          "name": "layers.conv2d_9.vars.1",
          "shape": [
            128
          ],
          "dtype": "float32"
        },
        {
          "name": "layers.dense.vars.0",
          "shape": [
            256,
            256
          ],
          "dtype": "float32"
        },
        {
          "name": "layers.dense.vars.1",
          "shape": [
            256
          ],
          "dtype": "float32"
        },
        {
          "name": "layers.dense_1.vars.0",
          "shape": [
            256,
            128
          ],
          "dtype": "float32"
        },
        {
          "name": "layers.dense_1.vars.1",
          "shape": [
            128
          ],
          "dtype": "float32"
        },
        {
          "name": "layers.dense_2.vars.0",
          "shape": [
            128,
            1
          ],
          "dtype": "float32"
        },
        {
          "name": "layers.dense_2.vars.1",
          "shape": [
            1
          ],
          "dtype": "float32"
        },
        {
          "name": "optimizer.vars.1",
          "shape": [
            7,
            7,
            3,
            96
          ],
          "dtype": "float32"
        },
        {
          "name": "optimizer.vars.10",
          "shape": [
            1,
            1,
            16,
            64
          ],
          "dtype": "float32"
        },
        {
          "name": "optimizer.vars.100",
          "shape": [
            256
          ],
          "dtype": "float32"
        },
        {
          "name": "optimizer.vars.101",
          "shape": [
            1,
            1,
            512,
            256
          ],
          "dtype": "float32"
        },
        {
          "name": "optimizer.vars.102",
          "shape": [
            1,
            1,
            512,
            256
          ],
          "dtype": "float32"
        },
        {
          "name": "optimizer.vars.103",
          "shape": [
            256
          ],
          "dtype": "float32"
        },
        {
          "name": "optimizer.vars.104",
          "shape": [
            256
          ],
          "dtype": "float32"
        },
        {
          "name": "optimizer.vars.105",
          "shape": [
            256,
            256
          ],
          "dtype": "float32"
        },
        {
          "name": "optimizer.vars.106",
          "shape": [
            256,
            256
          ],
          "dtype": "float32"
        },
        {
          "name": "optimizer.vars.107",
          "shape": [
            256
          ],
          "dtype": "float32"
        },
        {
          "name": "optimizer.vars.108",
          "shape": [
            256
          ],
          "dtype": "float32"
        },
        {
          "name": "optimizer.vars.109",
          "shape": [
            256,
            128
          ],
          "dtype": "float32"
        },
        {
          "name": "optimizer.vars.11",
          "shape": [
            64
          ],
          "dtype": "float32"
        },
        {
          "name": "optimizer.vars.110",
          "shape": [
            256,
            128
          ],
          "dtype": "float32"
        },
        {
          "name": "optimizer.vars.111",
          "shape": [
            128
          ],
          "dtype": "float32"
        },
        {
          "name": "optimizer.vars.112",
          "shape": [
            128
          ],
          "dtype": "float32"
        },
        {
          "name": "optimizer.vars.113",
          "shape": [
            128,
            1
          ],
          "dtype": "float32"
        },
        {
          "name": "optimizer.vars.114",
          "shape": [
            128,
            1
          ],
          "dtype": "float32"
        },
        {
          "name": "optimizer.vars.115",
          "shape": [
            1
          ],
          "dtype": "float32"
        },
        {
          "name": "optimizer.vars.116",
          "shape": [
            1
          ],
          "dtype": "float32"
        },
        {
          "name": "optimizer.vars.12",
          "shape": [
            64
          ],
          "dtype": "float32"
        },
        {
          "name": "optimizer.vars.13",
          "shape": [
            3,
            3,
            16,
            64
          ],
          "dtype": "float32"
        },
        {
          "name": "optimizer.vars.14",
          "shape": [
            3,
            3,
            16,
            64
          ],
          "dtype": "float32"
        },
        {
          "name": "optimizer.vars.15",
          "shape": [
            64
          ],
          "dtype": "float32"
        },
        {
          "name": "optimizer.vars.16",
          "shape": [
            64
          ],
          "dtype": "float32"
        },
        {
          "name": "optimizer.vars.17",
          "shape": [
            1,
            1,
            128,
            16
          ],
          "dtype": "float32"
        },
        {
          "name": "optimizer.vars.18",
          "shape": [
            1,
            1,
            128,
            16
          ],
          "dtype": "float32"
        },
        {
          "name": "optimizer.vars.19",
          "shape": [
            16
          ],
          "dtype": "float32"
        },
        {
          "name": "optimizer.vars.2",
          "shape": [
            7,
            7,
            3,
            96
          ],
          "dtype": "float32"
        },
        {
          "name": "optimizer.vars.20",
          "shape": [
            16
          ],
          "dtype": "float32"
        },
        {
          "name": "optimizer.vars.21",
          "shape": [
            1,
            1,
            16,
            64
          ],
          "dtype": "float32"
        },
        {
          "name": "optimizer.vars.22",
          "shape": [
            1,
            1,
            16,
            64
          ],
          "dtype": "float32"
        },
        {
          "name": "optimizer.vars.23",
          "shape": [
            64
          ],
          "dtype": "float32"
        },
        {
          "name": "optimizer.vars.24",
          "shape": [
            64
          ],
          "dtype": "float32"
        },
        {
          "name": "optimizer.vars.25",
          "shape": [
            3,
            3,
            16,
            64
          ],
          "dtype": "float32"
        },
        {
          "name": "optimizer.vars.26",
          "shape": [
            3,
            3,
            16,
            64
          ],
          "dtype": "float32"
        },
        {
          "name": "optimizer.vars.27",
          "shape": [
            64
          ],
          "dtype": "float32"
        },
        {
          "name": "optimizer.vars.28",
          "shape": [
            64
          ],
          "dtype": "float32"
        },
        {
          "name": "optimizer.vars.29",
          "shape": [
            1,
            1,
            128,
            32
          ],
          "dtype": "float32"
        },
        {
          "name": "optimizer.vars.3",
          "shape": [
            96
          ],
          "dtype": "float32"
        },
        {
          "name": "optimizer.vars.30",
          "shape": [
            1,
            1,
            128,
            32
          ],
          "dtype": "float32"
        },
        {
          "name": "optimizer.vars.31",
          "shape": [
            32
          ],
          "dtype": "float32"
        },
        {
          "name": "optimizer.vars.32",
          "shape": [
            32
          ],
          "dtype": "float32"
        },
        {
          "name": "optimizer.vars.33",
          "shape": [
            1,
            1,
            32,
            128
          ],
          "dtype": "float32"
        },
        {
          "name": "optimizer.vars.34",
          "shape": [
            1,
            1,
            32,
            128
          ],
          "dtype": "float32"
        },
        {
          "name": "optimizer.vars.35",
          "shape": [
            128
          ],
          "dtype": "float32"
        },
        {
          "name": "optimizer.vars.36",
          "shape": [
            128
          ],
          "dtype": "float32"
        },
        {
          "name": "optimizer.vars.37",
          "shape": [
            3,
            3,
            32,
            128
          ],
          "dtype": "float32"
        },
        {
          "name": "optimizer.vars.38",
          "shape": [
            3,
            3,
            32,
            128
          ],
          "dtype": "float32"
        },
        {
          "name": "optimizer.vars.39",
          "shape": [
            128
          ],
          "dtype": "float32"
        },
        {
          "name": "optimizer.vars.4",
          "shape": [
            96
          ],
          "dtype": "float32"
        },
        {
          "name": "optimizer.vars.40",
          "shape": [
            128
          ],
          "dtype": "float32"
        },
        {
          "name": "optimizer.vars.41",
          "shape": [
            1,
            1,
            256,
            32
          ],
          "dtype": "float32"
        },
        {
          "name": "optimizer.vars.42",
          "shape": [
            1,
            1,
            256,
            32
          ],
          "dtype": "float32"
        },
        {
          "name": "optimizer.vars.43",
          "shape": [
            32
          ],
          "dtype": "float32"
        },
        {
          "name": "optimizer.vars.44",
          "shape": [
            32
          ],
          "dtype": "float32"
        },
        {
          "name": "optimizer.vars.45",
          "shape": [
            1,
            1,
            32,
            128
          ],
          "dtype": "float32"
        },
        {
          "name": "optimizer.vars.46",
          "shape": [
            1,
            1,
            32,
            128
          ],
          "dtype": "float32"
        },
        {
          "name": "optimizer.vars.47",
          "shape": [
            128
          ],
          "dtype": "float32"
        },
        {
          "name": "optimizer.vars.48",
          "shape": [
            128
          ],
          "dtype": "float32"
        },
        {
          "name": "optimizer.vars.49",
          "shape": [
            3,
            3,
            32,
            128
          ],
          "dtype": "float32"
        },
        {
          "name": "optimizer.vars.5",
          "shape": [
            1,
            1,
            96,
            16
          ],
          "dtype": "float32"
        },
        {
          "name": "optimizer.vars.50",
          "shape": [
            3,
            3,
            32,
            128
          ],
          "dtype": "float32"
        },
        {
          "name": "optimizer.vars.51",
          "shape": [
            128
          ],
          "dtype": "float32"
        },
        {
          "name": "optimizer.vars.52",
          "shape": [
            128
          ],
          "dtype": "float32"
        },
        {
          "name": "optimizer.vars.53",
          "shape": [
            1,
            1,
            256,
            48
          ],
          "dtype": "float32"
        },
        {
          "name": "optimizer.vars.54",
          "shape": [
            1,
            1,
            256,
            48
          ],
          "dtype": "float32"
        },
        {
          "name": "optimizer.vars.55",
          "shape": [
            48
          ],
          "dtype": "float32"
        },
        {
          "name": "optimizer.vars.56",
          "shape": [
            48
          ],
          "dtype": "float32"
        },
        {
          "name": "optimizer.vars.57",
          "shape": [
            1,
            1,
            48,
            192
          ],
          "dtype": "float32"
        },
        {
          "name": "optimizer.vars.58",
          "shape": [
            1,
            1,
            48,
            192
          ],
          "dtype": "float32"
        },
        {
          "name": "optimizer.vars.59",
          "shape": [
            192
          ],
          "dtype": "float32"
        },
        {
          "name": "optimizer.vars.6",
          "shape": [
            1,
            1,
            96,
            16
          ],
          "dtype": "float32"
        },
        {
          "name": "optimizer.vars.60",
          "shape": [
            192
          ],
          "dtype": "float32"
        },
        {
          "name": "optimizer.vars.61",
          "shape": [
            3,
            3,
            48,
            192
          ],
          "dtype": "float32"
        },
        {
          "name": "optimizer.vars.62",
          "shape": [
            3,
            3,
            48,
            192
          ],
          "dtype": "float32"
        },
        {
          "name": "optimizer.vars.63",
          "shape": [
            192
          ],
          "dtype": "float32"
        },
        {
          "name": "optimizer.vars.64",
          "shape": [
            192
          ],
          "dtype": "float32"
        },
        {
          "name": "optimizer.vars.65",
          "shape": [
            1,
            1,
            384,
            48
          ],
          "dtype": "float32"
        },
        {
          "name": "optimizer.vars.66",
          "shape": [
            1,
            1,
            384,
            48
          ],
          "dtype": "float32"
        },
        {
          "name": "optimizer.vars.67",
          "shape": [
            48
          ],
          "dtype": "float32"
        },
        {
          "name": "optimizer.vars.68",
          "shape": [
            48
          ],
          "dtype": "float32"
        },
        {
          "name": "optimizer.vars.69",
          "shape": [
            1,
            1,
            48,
            192
          ],
          "dtype": "float32"
        },
        {
          "name": "optimizer.vars.7",
          "shape": [
            16
          ],
          "dtype": "float32"
        },
        {
          "name": "optimizer.vars.70",
          "shape": [
            1,
            1,
            48,
            192
          ],
          "dtype": "float32"
        },
        {
          "name": "optimizer.vars.71",
          "shape": [
            192
          ],
          "dtype": "float32"
        },
        {
          "name": "optimizer.vars.72",
          "shape": [
            192
          ],
          "dtype": "float32"
        },
        {
          "name": "optimizer.vars.73",
          "shape": [
            3,
            3,
            48,
            192
          ],
          "dtype": "float32"
        },
        {
          "name": "optimizer.vars.74",
          "shape": [
            3,
            3,
            48,
            192
          ],
          "dtype": "float32"
        },
        {
          "name": "optimizer.vars.75",
          "shape": [
            192
          ],
          "dtype": "float32"
        },
        {
          "name": "optimizer.vars.76",
          "shape": [
            192
          ],
          "dtype": "float32"
        },
        {
          "name": "optimizer.vars.77",
          "shape": [
            1,
            1,
            384,
            64
          ],
          "dtype": "float32"
        },
        {
          "name": "optimizer.vars.78",
          "shape": [
            1,
            1,
            384,
            64
          ],
          "dtype": "float32"
        },
        {
          "name": "optimizer.vars.79",
          "shape": [
            64
          ],
          "dtype": "float32"
        },
        {
          "name": "optimizer.vars.8",
          "shape": [
            16
          ],
          "dtype": "float32"
        },
        {
          "name": "optimizer.vars.80",
          "shape": [
            64
          ],
          "dtype": "float32"
        },
        {
          "name": "optimizer.vars.81",
          "shape": [
            1,
            1,
            64,
            256
          ],
          "dtype": "float32"
        },
        {
          "name": "optimizer.vars.82",
          "shape": [
            1,
            1,
            64,
            256
          ],
          "dtype": "float32"
        },
        {
          "name": "optimizer.vars.83",
          "shape": [
            256
          ],
          "dtype": "float32"
        },
        {
          "name": "optimizer.vars.84",
          "shape": [
            256
          ],
          "dtype": "float32"
        },
        {
          "name": "optimizer.vars.85",
          "shape": [
            3,
            3,
            64,
            256
          ],
          "dtype": "float32"
        },
        {
          "name": "optimizer.vars.86",
          "shape": [
            3,
            3,
            64,
            256
          ],
          "dtype": "float32"
        },
        {
          "name": "optimizer.vars.87",
          "shape": [
            256
          ],
          "dtype": "float32"
        },
        {
          "name": "optimizer.vars.88",
          "shape": [
            256
          ],
          "dtype": "float32"
        },
        {
          "name": "optimizer.vars.89",
          "shape": [
            1,
            1,
            512,
            64
          ],
          "dtype": "float32"
        },
        {
          "name": "optimizer.vars.9",
          "shape": [
            1,
            1,
            16,
            64
          ],
          "dtype": "float32"
        },
        {
          "name": "optimizer.vars.90",
          "shape": [
            1,
            1,
            512,
            64
          ],
          "dtype": "float32"
        },
        {
          "name": "optimizer.vars.91",
          "shape": [
            64
          ],
          "dtype": "float32"
        },
        {
          "name": "optimizer.vars.92",
          "shape": [
            64
          ],
          "dtype": "float32"
        },
        {
          "name": "optimizer.vars.93",
          "shape": [
            1,
            1,
            64,
            256
          ],
          "dtype": "float32"
        },
        {
          "name": "optimizer.vars.94",
          "shape": [
            1,
            1,
            64,
            256
          ],
          "dtype": "float32"
        },
        {
          "name": "optimizer.vars.95",
          "shape": [
            256
          ],
          "dtype": "float32"
        },
        {
          "name": "optimizer.vars.96",
          "shape": [
            256
          ],
          "dtype": "float32"
        },
        {
          "name": "optimizer.vars.97",
          "shape": [
            3,
            3,
            64,
            256
          ],
          "dtype": "float32"
        },
        {
          "name": "optimizer.vars.98",
          "shape": [
            3,
            3,
            64,
            256
          ],
          "dtype": "float32"
        },
        {
          "name": "optimizer.vars.99",
          "shape": [
            256
          ],
          "dtype": "float32"
        }
      ]
    }
  ]
}
