{
  "format": "layers-model",
  "generatedBy": "keras 3.x",
  "convertedBy": "manual",
  "modelTopology": {
    "module": "keras.src.models.functional",
    "class_name": "Model",
    "config": {
      "name": "scout_mobilenet_skin",
      "trainable": true,
      "layers": [
        {
          "module": "keras.layers",
          "class_name": "InputLayer",
          "config": {
            "batch_input_shape": [
              null,
              224,
              224,
              3
            ],
            "dtype": "float32",
            "sparse": false,
            "ragged": false,
            "name": "scout_mobilenet_skin_input"
          },
          "registered_name": null,
          "name": "scout_mobilenet_skin_input",
          "inbound_nodes": []
        },
        {
          "module": "keras.layers",
          "class_name": "Rescaling",
          "config": {
            "name": "rescaling_1",
            "trainable": false,
            "dtype": "float32",
            "scale": 0.00784313725490196,
            "offset": -1
          },
          "registered_name": null,
          "build_config": {
            "input_shape": [
              null,
              224,
              224,
              3
            ]
          },
          "name": "rescaling_1",
          "inbound_nodes": [
            [
              [
                "scout_mobilenet_skin_input",
                0,
                0,
                {}
              ]
            ]
          ]
        },
        {
          "module": "keras.layers",
          "class_name": "Conv2D",
          "config": {
            "name": "conv",
            "trainable": false,
            "dtype": "float32",
            "filters": 16,
            "kernel_size": [
              3,
              3
            ],
            "strides": [
              2,
              2
            ],
            "padding": "same",
            "data_format": "channels_last",
            "dilation_rate": [
              1,
              1
            ],
            "groups": 1,
            "activation": "linear",
            "use_bias": false,
            "kernel_initializer": {
              "module": "keras.initializers",
              "class_name": "GlorotUniform",
              "config": {
                "seed": null
              },
              "registered_name": null
            },
            "bias_initializer": {
              "module": "keras.initializers",
              "class_name": "Zeros",
              "config": {},
              "registered_name": null
            },
            "kernel_regularizer": null,
            "bias_regularizer": null,
            "activity_regularizer": null,
            "kernel_constraint": null,
            "bias_constraint": null
          },
          "registered_name": null,
          "build_config": {
            "input_shape": [
              null,
              224,
              224,
              3
            ]
          },
          "name": "conv",
          "inbound_nodes": [
            [
              [
                "rescaling_1",
                0,
                0,
                {}
              ]
            ]
          ]
        },
        {
          "module": "keras.layers",
          "class_name": "BatchNormalization",
          "config": {
            "name": "conv_bn",
            "trainable": false,
            "dtype": "float32",
            "axis": -1,
            "momentum": 0.999,
            "epsilon": 0.001,
            "center": true,
            "scale": true,
            "beta_initializer": {
              "module": "keras.initializers",
              "class_name": "Zeros",
              "config": {},
              "registered_name": null
            },
            "gamma_initializer": {
              "module": "keras.initializers",
              "class_name": "Ones",
              "config": {},
              "registered_name": null
            },
            "moving_mean_initializer": {
              "module": "keras.initializers",
              "class_name": "Zeros",
              "config": {},
              "registered_name": null
            },
            "moving_variance_initializer": {
              "module": "keras.initializers",
              "class_name": "Ones",
              "config": {},
              "registered_name": null
            },
            "beta_regularizer": null,
            "gamma_regularizer": null,
            "beta_constraint": null,
            "gamma_constraint": null,
            "synchronized": false
          },
          "registered_name": null,
          "build_config": {
            "input_shape": [
              null,
              112,
              112,
              16
            ]
          },
          "name": "conv_bn",
          "inbound_nodes": [
            [
              [
                "conv",
                0,
                0,
                {}
              ]
            ]
          ]
        },
        {
          "module": "keras.layers",
          "class_name": "ReLU",
          "config": {
            "name": "re_lu_23",
            "trainable": false,
            "dtype": "float32",
            "max_value": null,
            "negative_slope": 0,
            "threshold": 0
          },
          "registered_name": null,
          "name": "re_lu_23",
          "inbound_nodes": [
            [
              [
                "conv_bn",
                0,
                0,
                {}
              ]
            ]
          ]
        },
        {
          "module": "keras.layers",
          "class_name": "ZeroPadding2D",
          "config": {
            "name": "expanded_conv_depthwise_pad",
            "trainable": false,
            "dtype": "float32",
            "padding": [
              [
                0,
                1
              ],
              [
                0,
                1
              ]
            ],
            "data_format": "channels_last"
          },
          "registered_name": null,
          "build_config": {
            "input_shape": [
              null,
              112,
              112,
              16
            ]
          },
          "name": "expanded_conv_depthwise_pad",
          "inbound_nodes": [
            [
              [
                "re_lu_23",
                0,
                0,
                {}
              ]
            ]
          ]
        },
        {
          "module": "keras.layers",
          "class_name": "DepthwiseConv2D",
          "config": {
            "name": "expanded_conv_depthwise",
            "trainable": false,
            "dtype": "float32",
            "depth_multiplier": 1,
            "kernel_size": [
              3,
              3
            ],
            "strides": [
              2,
              2
            ],
            "padding": "valid",
            "data_format": "channels_last",
            "dilation_rate": [
              1,
              1
            ],
            "activation": "linear",
            "use_bias": false,
            "depthwise_initializer": {
              "module": "keras.initializers",
              "class_name": "GlorotUniform",
              "config": {
                "seed": null
              },
              "registered_name": null
            },
            "bias_initializer": {
              "module": "keras.initializers",
              "class_name": "Zeros",
              "config": {},
              "registered_name": null
            },
            "depthwise_regularizer": null,
            "bias_regularizer": null,
            "activity_regularizer": null,
            "depthwise_constraint": null,
            "bias_constraint": null
          },
          "registered_name": null,
          "build_config": {
            "input_shape": [
              null,
              113,
              113,
              16
            ]
          },
          "name": "expanded_conv_depthwise",
          "inbound_nodes": [
            [
              [
                "expanded_conv_depthwise_pad",
                0,
                0,
                {}
              ]
            ]
          ]
        },
        {
          "module": "keras.layers",
          "class_name": "BatchNormalization",
          "config": {
            "name": "expanded_conv_depthwise_bn",
            "trainable": false,
            "dtype": "float32",
            "axis": -1,
            "momentum": 0.999,
            "epsilon": 0.001,
            "center": true,
            "scale": true,
            "beta_initializer": {
              "module": "keras.initializers",
              "class_name": "Zeros",
              "config": {},
              "registered_name": null
            },
            "gamma_initializer": {
              "module": "keras.initializers",
              "class_name": "Ones",
              "config": {},
              "registered_name": null
            },
            "moving_mean_initializer": {
              "module": "keras.initializers",
              "class_name": "Zeros",
              "config": {},
              "registered_name": null
            },
            "moving_variance_initializer": {
              "module": "keras.initializers",
              "class_name": "Ones",
              "config": {},
              "registered_name": null
            },
            "beta_regularizer": null,
            "gamma_regularizer": null,
            "beta_constraint": null,
            "gamma_constraint": null,
            "synchronized": false
          },
          "registered_name": null,
          "build_config": {
            "input_shape": [
              null,
              56,
              56,
              16
            ]
          },
          "name": "expanded_conv_depthwise_bn",
          "inbound_nodes": [
            [
              [
                "expanded_conv_depthwise",
                0,
                0,
                {}
              ]
            ]
          ]
        },
        {
          "module": "keras.layers",
          "class_name": "ReLU",
          "config": {
            "name": "re_lu_24",
            "trainable": false,
            "dtype": "float32",
            "max_value": null,
            "negative_slope": 0,
            "threshold": 0
          },
          "registered_name": null,
          "name": "re_lu_24",
          "inbound_nodes": [
            [
              [
                "expanded_conv_depthwise_bn",
                0,
                0,
                {}
              ]
            ]
          ]
        },
        {
          "module": "keras.layers",
          "class_name": "Conv2D",
          "config": {
            "name": "expanded_conv_project",
            "trainable": false,
            "dtype": "float32",
            "filters": 16,
            "kernel_size": [
              1,
              1
            ],
            "strides": [
              1,
              1
            ],
            "padding": "same",
            "data_format": "channels_last",
            "dilation_rate": [
              1,
              1
            ],
            "groups": 1,
            "activation": "linear",
            "use_bias": false,
            "kernel_initializer": {
              "module": "keras.initializers",
              "class_name": "GlorotUniform",
              "config": {
                "seed": null
              },
              "registered_name": null
            },
            "bias_initializer": {
              "module": "keras.initializers",
              "class_name": "Zeros",
              "config": {},
              "registered_name": null
            },
            "kernel_regularizer": null,
            "bias_regularizer": null,
            "activity_regularizer": null,
            "kernel_constraint": null,
            "bias_constraint": null
          },
          "registered_name": null,
          "build_config": {
            "input_shape": [
              null,
              56,
              56,
              16
            ]
          },
          "name": "expanded_conv_project",
          "inbound_nodes": [
            [
              [
                "re_lu_24",
                0,
                0,
                {}
              ]
            ]
          ]
        },
        {
          "module": "keras.layers",
          "class_name": "BatchNormalization",
          "config": {
            "name": "expanded_conv_project_bn",
            "trainable": false,
            "dtype": "float32",
            "axis": -1,
            "momentum": 0.999,
            "epsilon": 0.001,
            "center": true,
            "scale": true,
            "beta_initializer": {
              "module": "keras.initializers",
              "class_name": "Zeros",
              "config": {},
              "registered_name": null
            },
            "gamma_initializer": {
              "module": "keras.initializers",
              "class_name": "Ones",
              "config": {},
              "registered_name": null
            },
            "moving_mean_initializer": {
              "module": "keras.initializers",
              "class_name": "Zeros",
              "config": {},
              "registered_name": null
            },
            "moving_variance_initializer": {
              "module": "keras.initializers",
              "class_name": "Ones",
              "config": {},
              "registered_name": null
            },
            "beta_regularizer": null,
            "gamma_regularizer": null,
            "beta_constraint": null,
            "gamma_constraint": null,
            "synchronized": false
          },
          "registered_name": null,
          "build_config": {
            "input_shape": [
              null,
              56,
              56,
              16
            ]
          },
          "name": "expanded_conv_project_bn",
          "inbound_nodes": [
            [
              [
                "expanded_conv_project",
                0,
                0,
                {}
              ]
            ]
          ]
        },
        {
          "module": "keras.layers",
          "class_name": "Conv2D",
          "config": {
            "name": "expanded_conv_1_expand",
            "trainable": false,
            "dtype": "float32",
            "filters": 72,
            "kernel_size": [
              1,
              1
            ],
            "strides": [
              1,
              1
            ],
            "padding": "same",
            "data_format": "channels_last",
            "dilation_rate": [
              1,
              1
            ],
            "groups": 1,
            "activation": "linear",
            "use_bias": false,
            "kernel_initializer": {
              "module": "keras.initializers",
              "class_name": "GlorotUniform",
              "config": {
                "seed": null
              },
              "registered_name": null
            },
            "bias_initializer": {
              "module": "keras.initializers",
              "class_name": "Zeros",
              "config": {},
              "registered_name": null
            },
            "kernel_regularizer": null,
            "bias_regularizer": null,
            "activity_regularizer": null,
            "kernel_constraint": null,
            "bias_constraint": null
          },
          "registered_name": null,
          "build_config": {
            "input_shape": [
              null,
              56,
              56,
              16
            ]
          },
          "name": "expanded_conv_1_expand",
          "inbound_nodes": [
            [
              [
                "expanded_conv_project_bn",
                0,
                0,
                {}
              ]
            ]
          ]
        },
        {
          "module": "keras.layers",
          "class_name": "BatchNormalization",
          "config": {
            "name": "expanded_conv_1_expand_bn",
            "trainable": false,
            "dtype": "float32",
            "axis": -1,
            "momentum": 0.999,
            "epsilon": 0.001,
            "center": true,
            "scale": true,
            "beta_initializer": {
              "module": "keras.initializers",
              "class_name": "Zeros",
              "config": {},
              "registered_name": null
            },
            "gamma_initializer": {
              "module": "keras.initializers",
              "class_name": "Ones",
              "config": {},
              "registered_name": null
            },
            "moving_mean_initializer": {
              "module": "keras.initializers",
              "class_name": "Zeros",
              "config": {},
              "registered_name": null
            },
            "moving_variance_initializer": {
              "module": "keras.initializers",
              "class_name": "Ones",
              "config": {},
              "registered_name": null
            },
            "beta_regularizer": null,
            "gamma_regularizer": null,
            "beta_constraint": null,
            "gamma_constraint": null,
            "synchronized": false
          },
          "registered_name": null,
          "build_config": {
            "input_shape": [
              null,
              56,
              56,
              72
            ]
          },
          "name": "expanded_conv_1_expand_bn",
          "inbound_nodes": [
            [
              [
                "expanded_conv_1_expand",
                0,
                0,
                {}
              ]
            ]
          ]
        },
        {
          "module": "keras.layers",
          "class_name": "ReLU",
          "config": {
            "name": "re_lu_25",
            "trainable": false,
            "dtype": "float32",
            "max_value": null,
            "negative_slope": 0,
            "threshold": 0
          },
          "registered_name": null,
          "name": "re_lu_25",
          "inbound_nodes": [
            [
              [
                "expanded_conv_1_expand_bn",
                0,
                0,
                {}
              ]
            ]
          ]
        },
        {
          "module": "keras.layers",
          "class_name": "ZeroPadding2D",
          "config": {
            "name": "expanded_conv_1_depthwise_pad",
            "trainable": false,
            "dtype": "float32",
            "padding": [
              [
                0,
                1
              ],
              [
                0,
                1
              ]
            ],
            "data_format": "channels_last"
          },
          "registered_name": null,
          "build_config": {
            "input_shape": [
              null,
              56,
              56,
              72
            ]
          },
          "name": "expanded_conv_1_depthwise_pad",
          "inbound_nodes": [
            [
              [
                "re_lu_25",
                0,
                0,
                {}
              ]
            ]
          ]
        },
        {
          "module": "keras.layers",
          "class_name": "DepthwiseConv2D",
          "config": {
            "name": "expanded_conv_1_depthwise",
            "trainable": false,
            "dtype": "float32",
            "depth_multiplier": 1,
            "kernel_size": [
              3,
              3
            ],
            "strides": [
              2,
              2
            ],
            "padding": "valid",
            "data_format": "channels_last",
            "dilation_rate": [
              1,
              1
            ],
            "activation": "linear",
            "use_bias": false,
            "depthwise_initializer": {
              "module": "keras.initializers",
              "class_name": "GlorotUniform",
              "config": {
                "seed": null
              },
              "registered_name": null
            },
            "bias_initializer": {
              "module": "keras.initializers",
              "class_name": "Zeros",
              "config": {},
              "registered_name": null
            },
            "depthwise_regularizer": null,
            "bias_regularizer": null,
            "activity_regularizer": null,
            "depthwise_constraint": null,
            "bias_constraint": null
          },
          "registered_name": null,
          "build_config": {
            "input_shape": [
              null,
              57,
              57,
              72
            ]
          },
          "name": "expanded_conv_1_depthwise",
          "inbound_nodes": [
            [
              [
                "expanded_conv_1_depthwise_pad",
                0,
                0,
                {}
              ]
            ]
          ]
        },
        {
          "module": "keras.layers",
          "class_name": "BatchNormalization",
          "config": {
            "name": "expanded_conv_1_depthwise_bn",
            "trainable": false,
            "dtype": "float32",
            "axis": -1,
            "momentum": 0.999,
            "epsilon": 0.001,
            "center": true,
            "scale": true,
            "beta_initializer": {
              "module": "keras.initializers",
              "class_name": "Zeros",
              "config": {},
              "registered_name": null
            },
            "gamma_initializer": {
              "module": "keras.initializers",
              "class_name": "Ones",
              "config": {},
              "registered_name": null
            },
            "moving_mean_initializer": {
              "module": "keras.initializers",
              "class_name": "Zeros",
              "config": {},
              "registered_name": null
            },
            "moving_variance_initializer": {
              "module": "keras.initializers",
              "class_name": "Ones",
              "config": {},
              "registered_name": null
            },
            "beta_regularizer": null,
            "gamma_regularizer": null,
            "beta_constraint": null,
            "gamma_constraint": null,
            "synchronized": false
          },
          "registered_name": null,
          "build_config": {
            "input_shape": [
              null,
              28,
              28,
              72
            ]
          },
          "name": "expanded_conv_1_depthwise_bn",
          "inbound_nodes": [
            [
              [
                "expanded_conv_1_depthwise",
                0,
                0,
                {}
              ]
            ]
          ]
        },
        {
          "module": "keras.layers",
          "class_name": "ReLU",
          "config": {
            "name": "re_lu_26",
            "trainable": false,
            "dtype": "float32",
            "max_value": null,
            "negative_slope": 0,
            "threshold": 0
          },
          "registered_name": null,
          "name": "re_lu_26",
          "inbound_nodes": [
            [
              [
                "expanded_conv_1_depthwise_bn",
                0,
                0,
                {}
              ]
            ]
          ]
        },
        {
          "module": "keras.layers",
          "class_name": "Conv2D",
          "config": {
            "name": "expanded_conv_1_project",
            "trainable": false,
            "dtype": "float32",
            "filters": 24,
            "kernel_size": [
              1,
              1
            ],
            "strides": [
              1,
              1
            ],
            "padding": "same",
            "data_format": "channels_last",
            "dilation_rate": [
              1,
              1
            ],
            "groups": 1,
            "activation": "linear",
            "use_bias": false,
            "kernel_initializer": {
              "module": "keras.initializers",
              "class_name": "GlorotUniform",
              "config": {
                "seed": null
              },
              "registered_name": null
            },
            "bias_initializer": {
              "module": "keras.initializers",
              "class_name": "Zeros",
              "config": {},
              "registered_name": null
            },
            "kernel_regularizer": null,
            "bias_regularizer": null,
            "activity_regularizer": null,
            "kernel_constraint": null,
            "bias_constraint": null
          },
          "registered_name": null,
          "build_config": {
            "input_shape": [
              null,
              28,
              28,
              72
            ]
          },
          "name": "expanded_conv_1_project",
          "inbound_nodes": [
            [
              [
                "re_lu_26",
                0,
                0,
                {}
              ]
            ]
          ]
        },
        {
          "module": "keras.layers",
          "class_name": "BatchNormalization",
          "config": {
            "name": "expanded_conv_1_project_bn",
            "trainable": false,
            "dtype": "float32",
            "axis": -1,
            "momentum": 0.999,
            "epsilon": 0.001,
            "center": true,
            "scale": true,
            "beta_initializer": {
              "module": "keras.initializers",
              "class_name": "Zeros",
              "config": {},
              "registered_name": null
            },
            "gamma_initializer": {
              "module": "keras.initializers",
              "class_name": "Ones",
              "config": {},
              "registered_name": null
            },
            "moving_mean_initializer": {
              "module": "keras.initializers",
              "class_name": "Zeros",
              "config": {},
              "registered_name": null
            },
            "moving_variance_initializer": {
              "module": "keras.initializers",
              "class_name": "Ones",
              "config": {},
              "registered_name": null
            },
            "beta_regularizer": null,
            "gamma_regularizer": null,
            "beta_constraint": null,
            "gamma_constraint": null,
            "synchronized": false
          },
          "registered_name": null,
          "build_config": {
            "input_shape": [
              null,
              28,
              28,
              24
            ]
          },
          "name": "expanded_conv_1_project_bn",
          "inbound_nodes": [
            [
              [
                "expanded_conv_1_project",
                0,
                0,
                {}
              ]
            ]
          ]
        },
        {
          "module": "keras.layers",
          "class_name": "Conv2D",
          "config": {
            "name": "expanded_conv_2_expand",
            "trainable": false,
            "dtype": "float32",
            "filters": 88,
            "kernel_size": [
              1,
              1
            ],
            "strides": [
              1,
              1
            ],
            "padding": "same",
            "data_format": "channels_last",
            "dilation_rate": [
              1,
              1
            ],
            "groups": 1,
            "activation": "linear",
            "use_bias": false,
            "kernel_initializer": {
              "module": "keras.initializers",
              "class_name": "GlorotUniform",
              "config": {
                "seed": null
              },
              "registered_name": null
            },
            "bias_initializer": {
              "module": "keras.initializers",
              "class_name": "Zeros",
              "config": {},
              "registered_name": null
            },
            "kernel_regularizer": null,
            "bias_regularizer": null,
            "activity_regularizer": null,
            "kernel_constraint": null,
            "bias_constraint": null
          },
          "registered_name": null,
          "build_config": {
            "input_shape": [
              null,
              28,
              28,
              24
            ]
          },
          "name": "expanded_conv_2_expand",
          "inbound_nodes": [
            [
              [
                "expanded_conv_1_project_bn",
                0,
                0,
                {}
              ]
            ]
          ]
        },
        {
          "module": "keras.layers",
          "class_name": "BatchNormalization",
          "config": {
            "name": "expanded_conv_2_expand_bn",
            "trainable": false,
            "dtype": "float32",
            "axis": -1,
            "momentum": 0.999,
            "epsilon": 0.001,
            "center": true,
            "scale": true,
            "beta_initializer": {
              "module": "keras.initializers",
              "class_name": "Zeros",
              "config": {},
              "registered_name": null
            },
            "gamma_initializer": {
              "module": "keras.initializers",
              "class_name": "Ones",
              "config": {},
              "registered_name": null
            },
            "moving_mean_initializer": {
              "module": "keras.initializers",
              "class_name": "Zeros",
              "config": {},
              "registered_name": null
            },
            "moving_variance_initializer": {
              "module": "keras.initializers",
              "class_name": "Ones",
              "config": {},
              "registered_name": null
            },
            "beta_regularizer": null,
            "gamma_regularizer": null,
            "beta_constraint": null,
            "gamma_constraint": null,
            "synchronized": false
          },
          "registered_name": null,
          "build_config": {
            "input_shape": [
              null,
              28,
              28,
              88
            ]
          },
          "name": "expanded_conv_2_expand_bn",
          "inbound_nodes": [
            [
              [
                "expanded_conv_2_expand",
                0,
                0,
                {}
              ]
            ]
          ]
        },
        {
          "module": "keras.layers",
          "class_name": "ReLU",
          "config": {
            "name": "re_lu_27",
            "trainable": false,
            "dtype": "float32",
            "max_value": null,
            "negative_slope": 0,
            "threshold": 0
          },
          "registered_name": null,
          "name": "re_lu_27",
          "inbound_nodes": [
            [
              [
                "expanded_conv_2_expand_bn",
                0,
                0,
                {}
              ]
            ]
          ]
        },
        {
          "module": "keras.layers",
          "class_name": "DepthwiseConv2D",
          "config": {
            "name": "expanded_conv_2_depthwise",
            "trainable": false,
            "dtype": "float32",
            "depth_multiplier": 1,
            "kernel_size": [
              3,
              3
            ],
            "strides": [
              1,
              1
            ],
            "padding": "same",
            "data_format": "channels_last",
            "dilation_rate": [
              1,
              1
            ],
            "activation": "linear",
            "use_bias": false,
            "depthwise_initializer": {
              "module": "keras.initializers",
              "class_name": "GlorotUniform",
              "config": {
                "seed": null
              },
              "registered_name": null
            },
            "bias_initializer": {
              "module": "keras.initializers",
              "class_name": "Zeros",
              "config": {},
              "registered_name": null
            },
            "depthwise_regularizer": null,
            "bias_regularizer": null,
            "activity_regularizer": null,
            "depthwise_constraint": null,
            "bias_constraint": null
          },
          "registered_name": null,
          "build_config": {
            "input_shape": [
              null,
              28,
              28,
              88
            ]
          },
          "name": "expanded_conv_2_depthwise",
          "inbound_nodes": [
            [
              [
                "re_lu_27",
                0,
                0,
                {}
              ]
            ]
          ]
        },
        {
          "module": "keras.layers",
          "class_name": "BatchNormalization",
          "config": {
            "name": "expanded_conv_2_depthwise_bn",
            "trainable": false,
            "dtype": "float32",
            "axis": -1,
            "momentum": 0.999,
            "epsilon": 0.001,
            "center": true,
            "scale": true,
            "beta_initializer": {
              "module": "keras.initializers",
              "class_name": "Zeros",
              "config": {},
              "registered_name": null
            },
            "gamma_initializer": {
              "module": "keras.initializers",
              "class_name": "Ones",
              "config": {},
              "registered_name": null
            },
            "moving_mean_initializer": {
              "module": "keras.initializers",
              "class_name": "Zeros",
              "config": {},
              "registered_name": null
            },
            "moving_variance_initializer": {
              "module": "keras.initializers",
              "class_name": "Ones",
              "config": {},
              "registered_name": null
            },
            "beta_regularizer": null,
            "gamma_regularizer": null,
            "beta_constraint": null,
            "gamma_constraint": null,
            "synchronized": false
          },
          "registered_name": null,
          "build_config": {
            "input_shape": [
              null,
              28,
              28,
              88
            ]
          },
          "name": "expanded_conv_2_depthwise_bn",
          "inbound_nodes": [
            [
              [
                "expanded_conv_2_depthwise",
                0,
                0,
                {}
              ]
            ]
          ]
        },
        {
          "module": "keras.layers",
          "class_name": "ReLU",
          "config": {
            "name": "re_lu_28",
            "trainable": false,
            "dtype": "float32",
            "max_value": null,
            "negative_slope": 0,
            "threshold": 0
          },
          "registered_name": null,
          "name": "re_lu_28",
          "inbound_nodes": [
            [
              [
                "expanded_conv_2_depthwise_bn",
                0,
                0,
                {}
              ]
            ]
          ]
        },
        {
          "module": "keras.layers",
          "class_name": "Conv2D",
          "config": {
            "name": "expanded_conv_2_project",
            "trainable": false,
            "dtype": "float32",
            "filters": 24,
            "kernel_size": [
              1,
              1
            ],
            "strides": [
              1,
              1
            ],
            "padding": "same",
            "data_format": "channels_last",
            "dilation_rate": [
              1,
              1
            ],
            "groups": 1,
            "activation": "linear",
            "use_bias": false,
            "kernel_initializer": {
              "module": "keras.initializers",
              "class_name": "GlorotUniform",
              "config": {
                "seed": null
              },
              "registered_name": null
            },
            "bias_initializer": {
              "module": "keras.initializers",
              "class_name": "Zeros",
              "config": {},
              "registered_name": null
            },
            "kernel_regularizer": null,
            "bias_regularizer": null,
            "activity_regularizer": null,
            "kernel_constraint": null,
            "bias_constraint": null
          },
          "registered_name": null,
          "build_config": {
            "input_shape": [
              null,
              28,
              28,
              88
            ]
          },
          "name": "expanded_conv_2_project",
          "inbound_nodes": [
            [
              [
                "re_lu_28",
                0,
                0,
                {}
              ]
            ]
          ]
        },
        {
          "module": "keras.layers",
          "class_name": "BatchNormalization",
          "config": {
            "name": "expanded_conv_2_project_bn",
            "trainable": false,
            "dtype": "float32",
            "axis": -1,
            "momentum": 0.999,
            "epsilon": 0.001,
            "center": true,
            "scale": true,
            "beta_initializer": {
              "module": "keras.initializers",
              "class_name": "Zeros",
              "config": {},
              "registered_name": null
            },
            "gamma_initializer": {
              "module": "keras.initializers",
              "class_name": "Ones",
              "config": {},
              "registered_name": null
            },
            "moving_mean_initializer": {
              "module": "keras.initializers",
              "class_name": "Zeros",
              "config": {},
              "registered_name": null
            },
            "moving_variance_initializer": {
              "module": "keras.initializers",
              "class_name": "Ones",
              "config": {},
              "registered_name": null
            },
            "beta_regularizer": null,
            "gamma_regularizer": null,
            "beta_constraint": null,
            "gamma_constraint": null,
            "synchronized": false
          },
          "registered_name": null,
          "build_config": {
            "input_shape": [
              null,
              28,
              28,
              24
            ]
          },
          "name": "expanded_conv_2_project_bn",
          "inbound_nodes": [
            [
              [
                "expanded_conv_2_project",
                0,
                0,
                {}
              ]
            ]
          ]
        },
        {
          "module": "keras.layers",
          "class_name": "Add",
          "config": {
            "name": "expanded_conv_2_add",
            "trainable": false,
            "dtype": "float32"
          },
          "registered_name": null,
          "build_config": {
            "input_shape": [
              [
                null,
                28,
                28,
                24
              ],
              [
                null,
                28,
                28,
                24
              ]
            ]
          },
          "name": "expanded_conv_2_add",
          "inbound_nodes": [
            [
              [
                "expanded_conv_1_project_bn",
                0,
                0,
                {}
              ],
              [
                "expanded_conv_2_project_bn",
                0,
                0,
                {}
              ]
            ]
          ]
        },
        {
          "module": "keras.layers",
          "class_name": "Conv2D",
          "config": {
            "name": "expanded_conv_3_expand",
            "trainable": false,
            "dtype": "float32",
            "filters": 96,
            "kernel_size": [
              1,
              1
            ],
            "strides": [
              1,
              1
            ],
            "padding": "same",
            "data_format": "channels_last",
            "dilation_rate": [
              1,
              1
            ],
            "groups": 1,
            "activation": "linear",
            "use_bias": false,
            "kernel_initializer": {
              "module": "keras.initializers",
              "class_name": "GlorotUniform",
              "config": {
                "seed": null
              },
              "registered_name": null
            },
            "bias_initializer": {
              "module": "keras.initializers",
              "class_name": "Zeros",
              "config": {},
              "registered_name": null
            },
            "kernel_regularizer": null,
            "bias_regularizer": null,
            "activity_regularizer": null,
            "kernel_constraint": null,
            "bias_constraint": null
          },
          "registered_name": null,
          "build_config": {
            "input_shape": [
              null,
              28,
              28,
              24
            ]
          },
          "name": "expanded_conv_3_expand",
          "inbound_nodes": [
            [
              [
                "expanded_conv_2_add",
                0,
                0,
                {}
              ]
            ]
          ]
        },
        {
          "module": "keras.layers",
          "class_name": "BatchNormalization",
          "config": {
            "name": "expanded_conv_3_expand_bn",
            "trainable": false,
            "dtype": "float32",
            "axis": -1,
            "momentum": 0.999,
            "epsilon": 0.001,
            "center": true,
            "scale": true,
            "beta_initializer": {
              "module": "keras.initializers",
              "class_name": "Zeros",
              "config": {},
              "registered_name": null
            },
            "gamma_initializer": {
              "module": "keras.initializers",
              "class_name": "Ones",
              "config": {},
              "registered_name": null
            },
            "moving_mean_initializer": {
              "module": "keras.initializers",
              "class_name": "Zeros",
              "config": {},
              "registered_name": null
            },
            "moving_variance_initializer": {
              "module": "keras.initializers",
              "class_name": "Ones",
              "config": {},
              "registered_name": null
            },
            "beta_regularizer": null,
            "gamma_regularizer": null,
            "beta_constraint": null,
            "gamma_constraint": null,
            "synchronized": false
          },
          "registered_name": null,
          "build_config": {
            "input_shape": [
              null,
              28,
              28,
              96
            ]
          },
          "name": "expanded_conv_3_expand_bn",
          "inbound_nodes": [
            [
              [
                "expanded_conv_3_expand",
                0,
                0,
                {}
              ]
            ]
          ]
        },
        {
          "module": "keras.layers",
          "class_name": "ReLU",
          "config": {
            "name": "re_lu_29",
            "trainable": false,
            "dtype": "float32",
            "max_value": null,
            "negative_slope": 0,
            "threshold": 0
          },
          "registered_name": null,
          "name": "re_lu_29",
          "inbound_nodes": [
            [
              [
                "expanded_conv_3_expand_bn",
                0,
                0,
                {}
              ]
            ]
          ]
        },
        {
          "module": "keras.layers",
          "class_name": "ZeroPadding2D",
          "config": {
            "name": "expanded_conv_3_depthwise_pad",
            "trainable": false,
            "dtype": "float32",
            "padding": [
              [
                0,
                1
              ],
              [
                0,
                1
              ]
            ],
            "data_format": "channels_last"
          },
          "registered_name": null,
          "build_config": {
            "input_shape": [
              null,
              28,
              28,
              96
            ]
          },
          "name": "expanded_conv_3_depthwise_pad",
          "inbound_nodes": [
            [
              [
                "re_lu_29",
                0,
                0,
                {}
              ]
            ]
          ]
        },
        {
          "module": "keras.layers",
          "class_name": "DepthwiseConv2D",
          "config": {
            "name": "expanded_conv_3_depthwise",
            "trainable": false,
            "dtype": "float32",
            "depth_multiplier": 1,
            "kernel_size": [
              3,
              3
            ],
            "strides": [
              2,
              2
            ],
            "padding": "valid",
            "data_format": "channels_last",
            "dilation_rate": [
              1,
              1
            ],
            "activation": "linear",
            "use_bias": false,
            "depthwise_initializer": {
              "module": "keras.initializers",
              "class_name": "GlorotUniform",
              "config": {
                "seed": null
              },
              "registered_name": null
            },
            "bias_initializer": {
              "module": "keras.initializers",
              "class_name": "Zeros",
              "config": {},
              "registered_name": null
            },
            "depthwise_regularizer": null,
            "bias_regularizer": null,
            "activity_regularizer": null,
            "depthwise_constraint": null,
            "bias_constraint": null
          },
          "registered_name": null,
          "build_config": {
            "input_shape": [
              null,
              29,
              29,
              96
            ]
          },
          "name": "expanded_conv_3_depthwise",
          "inbound_nodes": [
            [
              [
                "expanded_conv_3_depthwise_pad",
                0,
                0,
                {}
              ]
            ]
          ]
        },
        {
          "module": "keras.layers",
          "class_name": "BatchNormalization",
          "config": {
            "name": "expanded_conv_3_depthwise_bn",
            "trainable": false,
            "dtype": "float32",
            "axis": -1,
            "momentum": 0.999,
            "epsilon": 0.001,
            "center": true,
            "scale": true,
            "beta_initializer": {
              "module": "keras.initializers",
              "class_name": "Zeros",
              "config": {},
              "registered_name": null
            },
            "gamma_initializer": {
              "module": "keras.initializers",
              "class_name": "Ones",
              "config": {},
              "registered_name": null
            },
            "moving_mean_initializer": {
              "module": "keras.initializers",
              "class_name": "Zeros",
              "config": {},
              "registered_name": null
            },
            "moving_variance_initializer": {
              "module": "keras.initializers",
              "class_name": "Ones",
              "config": {},
              "registered_name": null
            },
            "beta_regularizer": null,
            "gamma_regularizer": null,
            "beta_constraint": null,
            "gamma_constraint": null,
            "synchronized": false
          },
          "registered_name": null,
          "build_config": {
            "input_shape": [
              null,
              14,
              14,
              96
            ]
          },
          "name": "expanded_conv_3_depthwise_bn",
          "inbound_nodes": [
            [
              [
                "expanded_conv_3_depthwise",
                0,
                0,
                {}
              ]
            ]
          ]
        },
        {
          "module": "keras.layers",
          "class_name": "ReLU",
          "config": {
            "name": "re_lu_30",
            "trainable": false,
            "dtype": "float32",
            "max_value": null,
            "negative_slope": 0,
            "threshold": 0
          },
          "registered_name": null,
          "name": "re_lu_30",
          "inbound_nodes": [
            [
              [
                "expanded_conv_3_depthwise_bn",
                0,
                0,
                {}
              ]
            ]
          ]
        },
        {
          "module": "keras.layers",
          "class_name": "Conv2D",
          "config": {
            "name": "expanded_conv_3_project",
            "trainable": false,
            "dtype": "float32",
            "filters": 40,
            "kernel_size": [
              1,
              1
            ],
            "strides": [
              1,
              1
            ],
            "padding": "same",
            "data_format": "channels_last",
            "dilation_rate": [
              1,
              1
            ],
            "groups": 1,
            "activation": "linear",
            "use_bias": false,
            "kernel_initializer": {
              "module": "keras.initializers",
              "class_name": "GlorotUniform",
              "config": {
                "seed": null
              },
              "registered_name": null
            },
            "bias_initializer": {
              "module": "keras.initializers",
              "class_name": "Zeros",
              "config": {},
              "registered_name": null
            },
            "kernel_regularizer": null,
            "bias_regularizer": null,
            "activity_regularizer": null,
            "kernel_constraint": null,
            "bias_constraint": null
          },
          "registered_name": null,
          "build_config": {
            "input_shape": [
              null,
              14,
              14,
              96
            ]
          },
          "name": "expanded_conv_3_project",
          "inbound_nodes": [
            [
              [
                "re_lu_30",
                0,
                0,
                {}
              ]
            ]
          ]
        },
        {
          "module": "keras.layers",
          "class_name": "BatchNormalization",
          "config": {
            "name": "expanded_conv_3_project_bn",
            "trainable": false,
            "dtype": "float32",
            "axis": -1,
            "momentum": 0.999,
            "epsilon": 0.001,
            "center": true,
            "scale": true,
            "beta_initializer": {
              "module": "keras.initializers",
              "class_name": "Zeros",
              "config": {},
              "registered_name": null
            },
            "gamma_initializer": {
              "module": "keras.initializers",
              "class_name": "Ones",
              "config": {},
              "registered_name": null
            },
            "moving_mean_initializer": {
              "module": "keras.initializers",
              "class_name": "Zeros",
              "config": {},
              "registered_name": null
            },
            "moving_variance_initializer": {
              "module": "keras.initializers",
              "class_name": "Ones",
              "config": {},
              "registered_name": null
            },
            "beta_regularizer": null,
            "gamma_regularizer": null,
            "beta_constraint": null,
            "gamma_constraint": null,
            "synchronized": false
          },
          "registered_name": null,
          "build_config": {
            "input_shape": [
              null,
              14,
              14,
              40
            ]
          },
          "name": "expanded_conv_3_project_bn",
          "inbound_nodes": [
            [
              [
                "expanded_conv_3_project",
                0,
                0,
                {}
              ]
            ]
          ]
        },
        {
          "module": "keras.layers",
          "class_name": "Conv2D",
          "config": {
            "name": "expanded_conv_4_expand",
            "trainable": false,
            "dtype": "float32",
            "filters": 240,
            "kernel_size": [
              1,
              1
            ],
            "strides": [
              1,
              1
            ],
            "padding": "same",
            "data_format": "channels_last",
            "dilation_rate": [
              1,
              1
            ],
            "groups": 1,
            "activation": "linear",
            "use_bias": false,
            "kernel_initializer": {
              "module": "keras.initializers",
              "class_name": "GlorotUniform",
              "config": {
                "seed": null
              },
              "registered_name": null
            },
            "bias_initializer": {
              "module": "keras.initializers",
              "class_name": "Zeros",
              "config": {},
              "registered_name": null
            },
            "kernel_regularizer": null,
            "bias_regularizer": null,
            "activity_regularizer": null,
            "kernel_constraint": null,
            "bias_constraint": null
          },
          "registered_name": null,
          "build_config": {
            "input_shape": [
              null,
              14,
              14,
              40
            ]
          },
          "name": "expanded_conv_4_expand",
          "inbound_nodes": [
            [
              [
                "expanded_conv_3_project_bn",
                0,
                0,
                {}
              ]
            ]
          ]
        },
        {
          "module": "keras.layers",
          "class_name": "BatchNormalization",
          "config": {
            "name": "expanded_conv_4_expand_bn",
            "trainable": false,
            "dtype": "float32",
            "axis": -1,
            "momentum": 0.999,
            "epsilon": 0.001,
            "center": true,
            "scale": true,
            "beta_initializer": {
              "module": "keras.initializers",
              "class_name": "Zeros",
              "config": {},
              "registered_name": null
            },
            "gamma_initializer": {
              "module": "keras.initializers",
              "class_name": "Ones",
              "config": {},
              "registered_name": null
            },
            "moving_mean_initializer": {
              "module": "keras.initializers",
              "class_name": "Zeros",
              "config": {},
              "registered_name": null
            },
            "moving_variance_initializer": {
              "module": "keras.initializers",
              "class_name": "Ones",
              "config": {},
              "registered_name": null
            },
            "beta_regularizer": null,
            "gamma_regularizer": null,
            "beta_constraint": null,
            "gamma_constraint": null,
            "synchronized": false
          },
          "registered_name": null,
          "build_config": {
            "input_shape": [
              null,
              14,
              14,
              240
            ]
          },
          "name": "expanded_conv_4_expand_bn",
          "inbound_nodes": [
            [
              [
                "expanded_conv_4_expand",
                0,
                0,
                {}
              ]
            ]
          ]
        },
        {
          "module": "keras.layers",
          "class_name": "ReLU",
          "config": {
            "name": "re_lu_31",
            "trainable": false,
            "dtype": "float32",
            "max_value": null,
            "negative_slope": 0,
            "threshold": 0
          },
          "registered_name": null,
          "name": "re_lu_31",
          "inbound_nodes": [
            [
              [
                "expanded_conv_4_expand_bn",
                0,
                0,
                {}
              ]
            ]
          ]
        },
        {
          "module": "keras.layers",
          "class_name": "DepthwiseConv2D",
          "config": {
            "name": "expanded_conv_4_depthwise",
            "trainable": false,
            "dtype": "float32",
            "depth_multiplier": 1,
            "kernel_size": [
              3,
              3
            ],
            "strides": [
              1,
              1
            ],
            "padding": "same",
            "data_format": "channels_last",
            "dilation_rate": [
              1,
              1
            ],
            "activation": "linear",
            "use_bias": false,
            "depthwise_initializer": {
              "module": "keras.initializers",
              "class_name": "GlorotUniform",
              "config": {
                "seed": null
              },
              "registered_name": null
            },
            "bias_initializer": {
              "module": "keras.initializers",
              "class_name": "Zeros",
              "config": {},
              "registered_name": null
            },
            "depthwise_regularizer": null,
            "bias_regularizer": null,
            "activity_regularizer": null,
            "depthwise_constraint": null,
            "bias_constraint": null
          },
          "registered_name": null,
          "build_config": {
            "input_shape": [
              null,
              14,
              14,
              240
            ]
          },
          "name": "expanded_conv_4_depthwise",
          "inbound_nodes": [
            [
              [
                "re_lu_31",
                0,
                0,
                {}
              ]
            ]
          ]
        },
        {
          "module": "keras.layers",
          "class_name": "BatchNormalization",
          "config": {
            "name": "expanded_conv_4_depthwise_bn",
            "trainable": false,
            "dtype": "float32",
            "axis": -1,
            "momentum": 0.999,
            "epsilon": 0.001,
            "center": true,
            "scale": true,
            "beta_initializer": {
              "module": "keras.initializers",
              "class_name": "Zeros",
              "config": {},
              "registered_name": null
            },
            "gamma_initializer": {
              "module": "keras.initializers",
              "class_name": "Ones",
              "config": {},
              "registered_name": null
            },
            "moving_mean_initializer": {
              "module": "keras.initializers",
              "class_name": "Zeros",
              "config": {},
              "registered_name": null
            },
            "moving_variance_initializer": {
              "module": "keras.initializers",
              "class_name": "Ones",
              "config": {},
              "registered_name": null
            },
            "beta_regularizer": null,
            "gamma_regularizer": null,
            "beta_constraint": null,
            "gamma_constraint": null,
            "synchronized": false
          },
          "registered_name": null,
          "build_config": {
            "input_shape": [
              null,
              14,
              14,
              240
            ]
          },
          "name": "expanded_conv_4_depthwise_bn",
          "inbound_nodes": [
            [
              [
                "expanded_conv_4_depthwise",
                0,
                0,
                {}
              ]
            ]
          ]
        },
        {
          "module": "keras.layers",
          "class_name": "ReLU",
          "config": {
            "name": "re_lu_32",
            "trainable": false,
            "dtype": "float32",
            "max_value": null,
            "negative_slope": 0,
            "threshold": 0
          },
          "registered_name": null,
          "name": "re_lu_32",
          "inbound_nodes": [
            [
              [
                "expanded_conv_4_depthwise_bn",
                0,
                0,
                {}
              ]
            ]
          ]
        },
        {
          "module": "keras.layers",
          "class_name": "Conv2D",
          "config": {
            "name": "expanded_conv_4_project",
            "trainable": false,
            "dtype": "float32",
            "filters": 40,
            "kernel_size": [
              1,
              1
            ],
            "strides": [
              1,
              1
            ],
            "padding": "same",
            "data_format": "channels_last",
            "dilation_rate": [
              1,
              1
            ],
            "groups": 1,
            "activation": "linear",
            "use_bias": false,
            "kernel_initializer": {
              "module": "keras.initializers",
              "class_name": "GlorotUniform",
              "config": {
                "seed": null
              },
              "registered_name": null
            },
            "bias_initializer": {
              "module": "keras.initializers",
              "class_name": "Zeros",
              "config": {},
              "registered_name": null
            },
            "kernel_regularizer": null,
            "bias_regularizer": null,
            "activity_regularizer": null,
            "kernel_constraint": null,
            "bias_constraint": null
          },
          "registered_name": null,
          "build_config": {
            "input_shape": [
              null,
              14,
              14,
              240
            ]
          },
          "name": "expanded_conv_4_project",
          "inbound_nodes": [
            [
              [
                "re_lu_32",
                0,
                0,
                {}
              ]
            ]
          ]
        },
        {
          "module": "keras.layers",
          "class_name": "BatchNormalization",
          "config": {
            "name": "expanded_conv_4_project_bn",
            "trainable": false,
            "dtype": "float32",
            "axis": -1,
            "momentum": 0.999,
            "epsilon": 0.001,
            "center": true,
            "scale": true,
            "beta_initializer": {
              "module": "keras.initializers",
              "class_name": "Zeros",
              "config": {},
              "registered_name": null
            },
            "gamma_initializer": {
              "module": "keras.initializers",
              "class_name": "Ones",
              "config": {},
              "registered_name": null
            },
            "moving_mean_initializer": {
              "module": "keras.initializers",
              "class_name": "Zeros",
              "config": {},
              "registered_name": null
            },
            "moving_variance_initializer": {
              "module": "keras.initializers",
              "class_name": "Ones",
              "config": {},
              "registered_name": null
            },
            "beta_regularizer": null,
            "gamma_regularizer": null,
            "beta_constraint": null,
            "gamma_constraint": null,
            "synchronized": false
          },
          "registered_name": null,
          "build_config": {
            "input_shape": [
              null,
              14,
              14,
              40
            ]
          },
          "name": "expanded_conv_4_project_bn",
          "inbound_nodes": [
            [
              [
                "expanded_conv_4_project",
                0,
                0,
                {}
              ]
            ]
          ]
        },
        {
          "module": "keras.layers",
          "class_name": "Add",
          "config": {
            "name": "expanded_conv_4_add",
            "trainable": false,
            "dtype": "float32"
          },
          "registered_name": null,
          "build_config": {
            "input_shape": [
              [
                null,
                14,
                14,
                40
              ],
              [
                null,
                14,
                14,
                40
              ]
            ]
          },
          "name": "expanded_conv_4_add",
          "inbound_nodes": [
            [
              [
                "expanded_conv_3_project_bn",
                0,
                0,
                {}
              ],
              [
                "expanded_conv_4_project_bn",
                0,
                0,
                {}
              ]
            ]
          ]
        },
        {
          "module": "keras.layers",
          "class_name": "Conv2D",
          "config": {
            "name": "expanded_conv_5_expand",
            "trainable": false,
            "dtype": "float32",
            "filters": 240,
            "kernel_size": [
              1,
              1
            ],
            "strides": [
              1,
              1
            ],
            "padding": "same",
            "data_format": "channels_last",
            "dilation_rate": [
              1,
              1
            ],
            "groups": 1,
            "activation": "linear",
            "use_bias": false,
            "kernel_initializer": {
              "module": "keras.initializers",
              "class_name": "GlorotUniform",
              "config": {
                "seed": null
              },
              "registered_name": null
            },
            "bias_initializer": {
              "module": "keras.initializers",
              "class_name": "Zeros",
              "config": {},
              "registered_name": null
            },
            "kernel_regularizer": null,
            "bias_regularizer": null,
            "activity_regularizer": null,
            "kernel_constraint": null,
            "bias_constraint": null
          },
          "registered_name": null,
          "build_config": {
            "input_shape": [
              null,
              14,
              14,
              40
            ]
          },
          "name": "expanded_conv_5_expand",
          "inbound_nodes": [
            [
              [
                "expanded_conv_4_add",
                0,
                0,
                {}
              ]
            ]
          ]
        },
        {
          "module": "keras.layers",
          "class_name": "BatchNormalization",
          "config": {
            "name": "expanded_conv_5_expand_bn",
            "trainable": false,
            "dtype": "float32",
            "axis": -1,
            "momentum": 0.999,
            "epsilon": 0.001,
            "center": true,
            "scale": true,
            "beta_initializer": {
              "module": "keras.initializers",
              "class_name": "Zeros",
              "config": {},
              "registered_name": null
            },
            "gamma_initializer": {
              "module": "keras.initializers",
              "class_name": "Ones",
              "config": {},
              "registered_name": null
            },
            "moving_mean_initializer": {
              "module": "keras.initializers",
              "class_name": "Zeros",
              "config": {},
              "registered_name": null
            },
            "moving_variance_initializer": {
              "module": "keras.initializers",
              "class_name": "Ones",
              "config": {},
              "registered_name": null
            },
            "beta_regularizer": null,
            "gamma_regularizer": null,
            "beta_constraint": null,
            "gamma_constraint": null,
            "synchronized": false
          },
          "registered_name": null,
          "build_config": {
            "input_shape": [
              null,
              14,
              14,
              240
            ]
          },
          "name": "expanded_conv_5_expand_bn",
          "inbound_nodes": [
            [
              [
                "expanded_conv_5_expand",
                0,
                0,
                {}
              ]
            ]
          ]
        },
        {
          "module": "keras.layers",
          "class_name": "ReLU",
          "config": {
            "name": "re_lu_33",
            "trainable": false,
            "dtype": "float32",
            "max_value": null,
            "negative_slope": 0,
            "threshold": 0
          },
          "registered_name": null,
          "name": "re_lu_33",
          "inbound_nodes": [
            [
              [
                "expanded_conv_5_expand_bn",
                0,
                0,
                {}
              ]
            ]
          ]
        },
        {
          "module": "keras.layers",
          "class_name": "DepthwiseConv2D",
          "config": {
            "name": "expanded_conv_5_depthwise",
            "trainable": false,
            "dtype": "float32",
            "depth_multiplier": 1,
            "kernel_size": [
              3,
              3
            ],
            "strides": [
              1,
              1
            ],
            "padding": "same",
            "data_format": "channels_last",
            "dilation_rate": [
              1,
              1
            ],
            "activation": "linear",
            "use_bias": false,
            "depthwise_initializer": {
              "module": "keras.initializers",
              "class_name": "GlorotUniform",
              "config": {
                "seed": null
              },
              "registered_name": null
            },
            "bias_initializer": {
              "module": "keras.initializers",
              "class_name": "Zeros",
              "config": {},
              "registered_name": null
            },
            "depthwise_regularizer": null,
            "bias_regularizer": null,
            "activity_regularizer": null,
            "depthwise_constraint": null,
            "bias_constraint": null
          },
          "registered_name": null,
          "build_config": {
            "input_shape": [
              null,
              14,
              14,
              240
            ]
          },
          "name": "expanded_conv_5_depthwise",
          "inbound_nodes": [
            [
              [
                "re_lu_33",
                0,
                0,
                {}
              ]
            ]
          ]
        },
        {
          "module": "keras.layers",
          "class_name": "BatchNormalization",
          "config": {
            "name": "expanded_conv_5_depthwise_bn",
            "trainable": false,
            "dtype": "float32",
            "axis": -1,
            "momentum": 0.999,
            "epsilon": 0.001,
            "center": true,
            "scale": true,
            "beta_initializer": {
              "module": "keras.initializers",
              "class_name": "Zeros",
              "config": {},
              "registered_name": null
            },
            "gamma_initializer": {
              "module": "keras.initializers",
              "class_name": "Ones",
              "config": {},
              "registered_name": null
            },
            "moving_mean_initializer": {
              "module": "keras.initializers",
              "class_name": "Zeros",
              "config": {},
              "registered_name": null
            },
            "moving_variance_initializer": {
              "module": "keras.initializers",
              "class_name": "Ones",
              "config": {},
              "registered_name": null
            },
            "beta_regularizer": null,
            "gamma_regularizer": null,
            "beta_constraint": null,
            "gamma_constraint": null,
            "synchronized": false
          },
          "registered_name": null,
          "build_config": {
            "input_shape": [
              null,
              14,
              14,
              240
            ]
          },
          "name": "expanded_conv_5_depthwise_bn",
          "inbound_nodes": [
            [
              [
                "expanded_conv_5_depthwise",
                0,
                0,
                {}
              ]
            ]
          ]
        },
        {
          "module": "keras.layers",
          "class_name": "ReLU",
          "config": {
            "name": "re_lu_34",
            "trainable": false,
            "dtype": "float32",
            "max_value": null,
            "negative_slope": 0,
            "threshold": 0
          },
          "registered_name": null,
          "name": "re_lu_34",
          "inbound_nodes": [
            [
              [
                "expanded_conv_5_depthwise_bn",
                0,
                0,
                {}
              ]
            ]
          ]
        },
        {
          "module": "keras.layers",
          "class_name": "Conv2D",
          "config": {
            "name": "expanded_conv_5_project",
            "trainable": false,
            "dtype": "float32",
            "filters": 40,
            "kernel_size": [
              1,
              1
            ],
            "strides": [
              1,
              1
            ],
            "padding": "same",
            "data_format": "channels_last",
            "dilation_rate": [
              1,
              1
            ],
            "groups": 1,
            "activation": "linear",
            "use_bias": false,
            "kernel_initializer": {
              "module": "keras.initializers",
              "class_name": "GlorotUniform",
              "config": {
                "seed": null
              },
              "registered_name": null
            },
            "bias_initializer": {
              "module": "keras.initializers",
              "class_name": "Zeros",
              "config": {},
              "registered_name": null
            },
            "kernel_regularizer": null,
            "bias_regularizer": null,
            "activity_regularizer": null,
            "kernel_constraint": null,
            "bias_constraint": null
          },
          "registered_name": null,
          "build_config": {
            "input_shape": [
              null,
              14,
              14,
              240
            ]
          },
          "name": "expanded_conv_5_project",
          "inbound_nodes": [
            [
              [
                "re_lu_34",
                0,
                0,
                {}
              ]
            ]
          ]
        },
        {
          "module": "keras.layers",
          "class_name": "BatchNormalization",
          "config": {
            "name": "expanded_conv_5_project_bn",
            "trainable": false,
            "dtype": "float32",
            "axis": -1,
            "momentum": 0.999,
            "epsilon": 0.001,
            "center": true,
            "scale": true,
            "beta_initializer": {
              "module": "keras.initializers",
              "class_name": "Zeros",
              "config": {},
              "registered_name": null
            },
            "gamma_initializer": {
              "module": "keras.initializers",
              "class_name": "Ones",
              "config": {},
              "registered_name": null
            },
            "moving_mean_initializer": {
              "module": "keras.initializers",
              "class_name": "Zeros",
              "config": {},
              "registered_name": null
            },
            "moving_variance_initializer": {
              "module": "keras.initializers",
              "class_name": "Ones",
              "config": {},
              "registered_name": null
            },
            "beta_regularizer": null,
            "gamma_regularizer": null,
            "beta_constraint": null,
            "gamma_constraint": null,
            "synchronized": false
          },
          "registered_name": null,
          "build_config": {
            "input_shape": [
              null,
              14,
              14,
              40
            ]
          },
          "name": "expanded_conv_5_project_bn",
          "inbound_nodes": [
            [
              [
                "expanded_conv_5_project",
                0,
                0,
                {}
              ]
            ]
          ]
        },
        {
          "module": "keras.layers",
          "class_name": "Add",
          "config": {
            "name": "expanded_conv_5_add",
            "trainable": false,
            "dtype": "float32"
          },
          "registered_name": null,
          "build_config": {
            "input_shape": [
              [
                null,
                14,
                14,
                40
              ],
              [
                null,
                14,
                14,
                40
              ]
            ]
          },
          "name": "expanded_conv_5_add",
          "inbound_nodes": [
            [
              [
                "expanded_conv_4_add",
                0,
                0,
                {}
              ],
              [
                "expanded_conv_5_project_bn",
                0,
                0,
                {}
              ]
            ]
          ]
        },
        {
          "module": "keras.layers",
          "class_name": "Conv2D",
          "config": {
            "name": "expanded_conv_6_expand",
            "trainable": false,
            "dtype": "float32",
            "filters": 120,
            "kernel_size": [
              1,
              1
            ],
            "strides": [
              1,
              1
            ],
            "padding": "same",
            "data_format": "channels_last",
            "dilation_rate": [
              1,
              1
            ],
            "groups": 1,
            "activation": "linear",
            "use_bias": false,
            "kernel_initializer": {
              "module": "keras.initializers",
              "class_name": "GlorotUniform",
              "config": {
                "seed": null
              },
              "registered_name": null
            },
            "bias_initializer": {
              "module": "keras.initializers",
              "class_name": "Zeros",
              "config": {},
              "registered_name": null
            },
            "kernel_regularizer": null,
            "bias_regularizer": null,
            "activity_regularizer": null,
            "kernel_constraint": null,
            "bias_constraint": null
          },
          "registered_name": null,
          "build_config": {
            "input_shape": [
              null,
              14,
              14,
              40
            ]
          },
          "name": "expanded_conv_6_expand",
          "inbound_nodes": [
            [
              [
                "expanded_conv_5_add",
                0,
                0,
                {}
              ]
            ]
          ]
        },
        {
          "module": "keras.layers",
          "class_name": "BatchNormalization",
          "config": {
            "name": "expanded_conv_6_expand_bn",
            "trainable": false,
            "dtype": "float32",
            "axis": -1,
            "momentum": 0.999,
            "epsilon": 0.001,
            "center": true,
            "scale": true,
            "beta_initializer": {
              "module": "keras.initializers",
              "class_name": "Zeros",
              "config": {},
              "registered_name": null
            },
            "gamma_initializer": {
              "module": "keras.initializers",
              "class_name": "Ones",
              "config": {},
              "registered_name": null
            },
            "moving_mean_initializer": {
              "module": "keras.initializers",
              "class_name": "Zeros",
              "config": {},
              "registered_name": null
            },
            "moving_variance_initializer": {
              "module": "keras.initializers",
              "class_name": "Ones",
              "config": {},
              "registered_name": null
            },
            "beta_regularizer": null,
            "gamma_regularizer": null,
            "beta_constraint": null,
            "gamma_constraint": null,
            "synchronized": false
          },
          "registered_name": null,
          "build_config": {
            "input_shape": [
              null,
              14,
              14,
              120
            ]
          },
          "name": "expanded_conv_6_expand_bn",
          "inbound_nodes": [
            [
              [
                "expanded_conv_6_expand",
                0,
                0,
                {}
              ]
            ]
          ]
        },
        {
          "module": "keras.layers",
          "class_name": "ReLU",
          "config": {
            "name": "re_lu_35",
            "trainable": false,
            "dtype": "float32",
            "max_value": null,
            "negative_slope": 0,
            "threshold": 0
          },
          "registered_name": null,
          "name": "re_lu_35",
          "inbound_nodes": [
            [
              [
                "expanded_conv_6_expand_bn",
                0,
                0,
                {}
              ]
            ]
          ]
        },
        {
          "module": "keras.layers",
          "class_name": "DepthwiseConv2D",
          "config": {
            "name": "expanded_conv_6_depthwise",
            "trainable": false,
            "dtype": "float32",
            "depth_multiplier": 1,
            "kernel_size": [
              3,
              3
            ],
            "strides": [
              1,
              1
            ],
            "padding": "same",
            "data_format": "channels_last",
            "dilation_rate": [
              1,
              1
            ],
            "activation": "linear",
            "use_bias": false,
            "depthwise_initializer": {
              "module": "keras.initializers",
              "class_name": "GlorotUniform",
              "config": {
                "seed": null
              },
              "registered_name": null
            },
            "bias_initializer": {
              "module": "keras.initializers",
              "class_name": "Zeros",
              "config": {},
              "registered_name": null
            },
            "depthwise_regularizer": null,
            "bias_regularizer": null,
            "activity_regularizer": null,
            "depthwise_constraint": null,
            "bias_constraint": null
          },
          "registered_name": null,
          "build_config": {
            "input_shape": [
              null,
              14,
              14,
              120
            ]
          },
          "name": "expanded_conv_6_depthwise",
          "inbound_nodes": [
            [
              [
                "re_lu_35",
                0,
                0,
                {}
              ]
            ]
          ]
        },
        {
          "module": "keras.layers",
          "class_name": "BatchNormalization",
          "config": {
            "name": "expanded_conv_6_depthwise_bn",
            "trainable": false,
            "dtype": "float32",
            "axis": -1,
            "momentum": 0.999,
            "epsilon": 0.001,
            "center": true,
            "scale": true,
            "beta_initializer": {
              "module": "keras.initializers",
              "class_name": "Zeros",
              "config": {},
              "registered_name": null
            },
            "gamma_initializer": {
              "module": "keras.initializers",
              "class_name": "Ones",
              "config": {},
              "registered_name": null
            },
            "moving_mean_initializer": {
              "module": "keras.initializers",
              "class_name": "Zeros",
              "config": {},
              "registered_name": null
            },
            "moving_variance_initializer": {
              "module": "keras.initializers",
              "class_name": "Ones",
              "config": {},
              "registered_name": null
            },
            "beta_regularizer": null,
            "gamma_regularizer": null,
            "beta_constraint": null,
            "gamma_constraint": null,
            "synchronized": false
          },
          "registered_name": null,
          "build_config": {
            "input_shape": [
              null,
              14,
              14,
              120
            ]
          },
          "name": "expanded_conv_6_depthwise_bn",
          "inbound_nodes": [
            [
              [
                "expanded_conv_6_depthwise",
                0,
                0,
                {}
              ]
            ]
          ]
        },
        {
          "module": "keras.layers",
          "class_name": "ReLU",
          "config": {
            "name": "re_lu_36",
            "trainable": false,
            "dtype": "float32",
            "max_value": null,
            "negative_slope": 0,
            "threshold": 0
          },
          "registered_name": null,
          "name": "re_lu_36",
          "inbound_nodes": [
            [
              [
                "expanded_conv_6_depthwise_bn",
                0,
                0,
                {}
              ]
            ]
          ]
        },
        {
          "module": "keras.layers",
          "class_name": "Conv2D",
          "config": {
            "name": "expanded_conv_6_project",
            "trainable": false,
            "dtype": "float32",
            "filters": 48,
            "kernel_size": [
              1,
              1
            ],
            "strides": [
              1,
              1
            ],
            "padding": "same",
            "data_format": "channels_last",
            "dilation_rate": [
              1,
              1
            ],
            "groups": 1,
            "activation": "linear",
            "use_bias": false,
            "kernel_initializer": {
              "module": "keras.initializers",
              "class_name": "GlorotUniform",
              "config": {
                "seed": null
              },
              "registered_name": null
            },
            "bias_initializer": {
              "module": "keras.initializers",
              "class_name": "Zeros",
              "config": {},
              "registered_name": null
            },
            "kernel_regularizer": null,
            "bias_regularizer": null,
            "activity_regularizer": null,
            "kernel_constraint": null,
            "bias_constraint": null
          },
          "registered_name": null,
          "build_config": {
            "input_shape": [
              null,
              14,
              14,
              120
            ]
          },
          "name": "expanded_conv_6_project",
          "inbound_nodes": [
            [
              [
                "re_lu_36",
                0,
                0,
                {}
              ]
            ]
          ]
        },
        {
          "module": "keras.layers",
          "class_name": "BatchNormalization",
          "config": {
            "name": "expanded_conv_6_project_bn",
            "trainable": false,
            "dtype": "float32",
            "axis": -1,
            "momentum": 0.999,
            "epsilon": 0.001,
            "center": true,
            "scale": true,
            "beta_initializer": {
              "module": "keras.initializers",
              "class_name": "Zeros",
              "config": {},
              "registered_name": null
            },
            "gamma_initializer": {
              "module": "keras.initializers",
              "class_name": "Ones",
              "config": {},
              "registered_name": null
            },
            "moving_mean_initializer": {
              "module": "keras.initializers",
              "class_name": "Zeros",
              "config": {},
              "registered_name": null
            },
            "moving_variance_initializer": {
              "module": "keras.initializers",
              "class_name": "Ones",
              "config": {},
              "registered_name": null
            },
            "beta_regularizer": null,
            "gamma_regularizer": null,
            "beta_constraint": null,
            "gamma_constraint": null,
            "synchronized": false
          },
          "registered_name": null,
          "build_config": {
            "input_shape": [
              null,
              14,
              14,
              48
            ]
          },
          "name": "expanded_conv_6_project_bn",
          "inbound_nodes": [
            [
              [
                "expanded_conv_6_project",
                0,
                0,
                {}
              ]
            ]
          ]
        },
        {
          "module": "keras.layers",
          "class_name": "Conv2D",
          "config": {
            "name": "expanded_conv_7_expand",
            "trainable": false,
            "dtype": "float32",
            "filters": 144,
            "kernel_size": [
              1,
              1
            ],
            "strides": [
              1,
              1
            ],
            "padding": "same",
            "data_format": "channels_last",
            "dilation_rate": [
              1,
              1
            ],
            "groups": 1,
            "activation": "linear",
            "use_bias": false,
            "kernel_initializer": {
              "module": "keras.initializers",
              "class_name": "GlorotUniform",
              "config": {
                "seed": null
              },
              "registered_name": null
            },
            "bias_initializer": {
              "module": "keras.initializers",
              "class_name": "Zeros",
              "config": {},
              "registered_name": null
            },
            "kernel_regularizer": null,
            "bias_regularizer": null,
            "activity_regularizer": null,
            "kernel_constraint": null,
            "bias_constraint": null
          },
          "registered_name": null,
          "build_config": {
            "input_shape": [
              null,
              14,
              14,
              48
            ]
          },
          "name": "expanded_conv_7_expand",
          "inbound_nodes": [
            [
              [
                "expanded_conv_6_project_bn",
                0,
                0,
                {}
              ]
            ]
          ]
        },
        {
          "module": "keras.layers",
          "class_name": "BatchNormalization",
          "config": {
            "name": "expanded_conv_7_expand_bn",
            "trainable": false,
            "dtype": "float32",
            "axis": -1,
            "momentum": 0.999,
            "epsilon": 0.001,
            "center": true,
            "scale": true,
            "beta_initializer": {
              "module": "keras.initializers",
              "class_name": "Zeros",
              "config": {},
              "registered_name": null
            },
            "gamma_initializer": {
              "module": "keras.initializers",
              "class_name": "Ones",
              "config": {},
              "registered_name": null
            },
            "moving_mean_initializer": {
              "module": "keras.initializers",
              "class_name": "Zeros",
              "config": {},
              "registered_name": null
            },
            "moving_variance_initializer": {
              "module": "keras.initializers",
              "class_name": "Ones",
              "config": {},
              "registered_name": null
            },
            "beta_regularizer": null,
            "gamma_regularizer": null,
            "beta_constraint": null,
            "gamma_constraint": null,
            "synchronized": false
          },
          "registered_name": null,
          "build_config": {
            "input_shape": [
              null,
              14,
              14,
              144
            ]
          },
          "name": "expanded_conv_7_expand_bn",
          "inbound_nodes": [
            [
              [
                "expanded_conv_7_expand",
                0,
                0,
                {}
              ]
            ]
          ]
        },
        {
          "module": "keras.layers",
          "class_name": "ReLU",
          "config": {
            "name": "re_lu_37",
            "trainable": false,
            "dtype": "float32",
            "max_value": null,
            "negative_slope": 0,
            "threshold": 0
          },
          "registered_name": null,
          "name": "re_lu_37",
          "inbound_nodes": [
            [
              [
                "expanded_conv_7_expand_bn",
                0,
                0,
                {}
              ]
            ]
          ]
        },
        {
          "module": "keras.layers",
          "class_name": "DepthwiseConv2D",
          "config": {
            "name": "expanded_conv_7_depthwise",
            "trainable": false,
            "dtype": "float32",
            "depth_multiplier": 1,
            "kernel_size": [
              3,
              3
            ],
            "strides": [
              1,
              1
            ],
            "padding": "same",
            "data_format": "channels_last",
            "dilation_rate": [
              1,
              1
            ],
            "activation": "linear",
            "use_bias": false,
            "depthwise_initializer": {
              "module": "keras.initializers",
              "class_name": "GlorotUniform",
              "config": {
                "seed": null
              },
              "registered_name": null
            },
            "bias_initializer": {
              "module": "keras.initializers",
              "class_name": "Zeros",
              "config": {},
              "registered_name": null
            },
            "depthwise_regularizer": null,
            "bias_regularizer": null,
            "activity_regularizer": null,
            "depthwise_constraint": null,
            "bias_constraint": null
          },
          "registered_name": null,
          "build_config": {
            "input_shape": [
              null,
              14,
              14,
              144
            ]
          },
          "name": "expanded_conv_7_depthwise",
          "inbound_nodes": [
            [
              [
                "re_lu_37",
                0,
                0,
                {}
              ]
            ]
          ]
        },
        {
          "module": "keras.layers",
          "class_name": "BatchNormalization",
          "config": {
            "name": "expanded_conv_7_depthwise_bn",
            "trainable": false,
            "dtype": "float32",
            "axis": -1,
            "momentum": 0.999,
            "epsilon": 0.001,
            "center": true,
            "scale": true,
            "beta_initializer": {
              "module": "keras.initializers",
              "class_name": "Zeros",
              "config": {},
              "registered_name": null
            },
            "gamma_initializer": {
              "module": "keras.initializers",
              "class_name": "Ones",
              "config": {},
              "registered_name": null
            },
            "moving_mean_initializer": {
              "module": "keras.initializers",
              "class_name": "Zeros",
              "config": {},
              "registered_name": null
            },
            "moving_variance_initializer": {
              "module": "keras.initializers",
              "class_name": "Ones",
              "config": {},
              "registered_name": null
            },
            "beta_regularizer": null,
            "gamma_regularizer": null,
            "beta_constraint": null,
            "gamma_constraint": null,
            "synchronized": false
          },
          "registered_name": null,
          "build_config": {
            "input_shape": [
              null,
              14,
              14,
              144
            ]
          },
          "name": "expanded_conv_7_depthwise_bn",
          "inbound_nodes": [
            [
              [
                "expanded_conv_7_depthwise",
                0,
                0,
                {}
              ]
            ]
          ]
        },
        {
          "module": "keras.layers",
          "class_name": "ReLU",
          "config": {
            "name": "re_lu_38",
            "trainable": false,
            "dtype": "float32",
            "max_value": null,
            "negative_slope": 0,
            "threshold": 0
          },
          "registered_name": null,
          "name": "re_lu_38",
          "inbound_nodes": [
            [
              [
                "expanded_conv_7_depthwise_bn",
                0,
                0,
                {}
              ]
            ]
          ]
        },
        {
          "module": "keras.layers",
          "class_name": "Conv2D",
          "config": {
            "name": "expanded_conv_7_project",
            "trainable": false,
            "dtype": "float32",
            "filters": 48,
            "kernel_size": [
              1,
              1
            ],
            "strides": [
              1,
              1
            ],
            "padding": "same",
            "data_format": "channels_last",
            "dilation_rate": [
              1,
              1
            ],
            "groups": 1,
            "activation": "linear",
            "use_bias": false,
            "kernel_initializer": {
              "module": "keras.initializers",
              "class_name": "GlorotUniform",
              "config": {
                "seed": null
              },
              "registered_name": null
            },
            "bias_initializer": {
              "module": "keras.initializers",
              "class_name": "Zeros",
              "config": {},
              "registered_name": null
            },
            "kernel_regularizer": null,
            "bias_regularizer": null,
            "activity_regularizer": null,
            "kernel_constraint": null,
            "bias_constraint": null
          },
          "registered_name": null,
          "build_config": {
            "input_shape": [
              null,
              14,
              14,
              144
            ]
          },
          "name": "expanded_conv_7_project",
          "inbound_nodes": [
            [
              [
                "re_lu_38",
                0,
                0,
                {}
              ]
            ]
          ]
        },
        {
          "module": "keras.layers",
          "class_name": "BatchNormalization",
          "config": {
            "name": "expanded_conv_7_project_bn",
            "trainable": false,
            "dtype": "float32",
            "axis": -1,
            "momentum": 0.999,
            "epsilon": 0.001,
            "center": true,
            "scale": true,
            "beta_initializer": {
              "module": "keras.initializers",
              "class_name": "Zeros",
              "config": {},
              "registered_name": null
            },
            "gamma_initializer": {
              "module": "keras.initializers",
              "class_name": "Ones",
              "config": {},
              "registered_name": null
            },
            "moving_mean_initializer": {
              "module": "keras.initializers",
              "class_name": "Zeros",
              "config": {},
              "registered_name": null
            },
            "moving_variance_initializer": {
              "module": "keras.initializers",
              "class_name": "Ones",
              "config": {},
              "registered_name": null
            },
            "beta_regularizer": null,
            "gamma_regularizer": null,
            "beta_constraint": null,
            "gamma_constraint": null,
            "synchronized": false
          },
          "registered_name": null,
          "build_config": {
            "input_shape": [
              null,
              14,
              14,
              48
            ]
          },
          "name": "expanded_conv_7_project_bn",
          "inbound_nodes": [
            [
              [
                "expanded_conv_7_project",
                0,
                0,
                {}
              ]
            ]
          ]
        },
        {
          "module": "keras.layers",
          "class_name": "Add",
          "config": {
            "name": "expanded_conv_7_add",
            "trainable": true,
            "dtype": "float32"
          },
          "registered_name": null,
          "build_config": {
            "input_shape": [
              [
                null,
                14,
                14,
                48
              ],
              [
                null,
                14,
                14,
                48
              ]
            ]
          },
          "name": "expanded_conv_7_add",
          "inbound_nodes": [
            [
              [
                "expanded_conv_6_project_bn",
                0,
                0,
                {}
              ],
              [
                "expanded_conv_7_project_bn",
                0,
                0,
                {}
              ]
            ]
          ]
        },
        {
          "module": "keras.layers",
          "class_name": "Conv2D",
          "config": {
            "name": "expanded_conv_8_expand",
            "trainable": true,
            "dtype": "float32",
            "filters": 288,
            "kernel_size": [
              1,
              1
            ],
            "strides": [
              1,
              1
            ],
            "padding": "same",
            "data_format": "channels_last",
            "dilation_rate": [
              1,
              1
            ],
            "groups": 1,
            "activation": "linear",
            "use_bias": false,
            "kernel_initializer": {
              "module": "keras.initializers",
              "class_name": "GlorotUniform",
              "config": {
                "seed": null
              },
              "registered_name": null
            },
            "bias_initializer": {
              "module": "keras.initializers",
              "class_name": "Zeros",
              "config": {},
              "registered_name": null
            },
            "kernel_regularizer": null,
            "bias_regularizer": null,
            "activity_regularizer": null,
            "kernel_constraint": null,
            "bias_constraint": null
          },
          "registered_name": null,
          "build_config": {
            "input_shape": [
              null,
              14,
              14,
              48
            ]
          },
          "name": "expanded_conv_8_expand",
          "inbound_nodes": [
            [
              [
                "expanded_conv_7_add",
                0,
                0,
                {}
              ]
            ]
          ]
        },
        {
          "module": "keras.layers",
          "class_name": "BatchNormalization",
          "config": {
            "name": "expanded_conv_8_expand_bn",
            "trainable": true,
            "dtype": "float32",
            "axis": -1,
            "momentum": 0.999,
            "epsilon": 0.001,
            "center": true,
            "scale": true,
            "beta_initializer": {
              "module": "keras.initializers",
              "class_name": "Zeros",
              "config": {},
              "registered_name": null
            },
            "gamma_initializer": {
              "module": "keras.initializers",
              "class_name": "Ones",
              "config": {},
              "registered_name": null
            },
            "moving_mean_initializer": {
              "module": "keras.initializers",
              "class_name": "Zeros",
              "config": {},
              "registered_name": null
            },
            "moving_variance_initializer": {
              "module": "keras.initializers",
              "class_name": "Ones",
              "config": {},
              "registered_name": null
            },
            "beta_regularizer": null,
            "gamma_regularizer": null,
            "beta_constraint": null,
            "gamma_constraint": null,
            "synchronized": false
          },
          "registered_name": null,
          "build_config": {
            "input_shape": [
              null,
              14,
              14,
              288
            ]
          },
          "name": "expanded_conv_8_expand_bn",
          "inbound_nodes": [
            [
              [
                "expanded_conv_8_expand",
                0,
                0,
                {}
              ]
            ]
          ]
        },
        {
          "module": "keras.layers",
          "class_name": "ReLU",
          "config": {
            "name": "re_lu_39",
            "trainable": true,
            "dtype": "float32",
            "max_value": null,
            "negative_slope": 0,
            "threshold": 0
          },
          "registered_name": null,
          "name": "re_lu_39",
          "inbound_nodes": [
            [
              [
                "expanded_conv_8_expand_bn",
                0,
                0,
                {}
              ]
            ]
          ]
        },
        {
          "module": "keras.layers",
          "class_name": "ZeroPadding2D",
          "config": {
            "name": "expanded_conv_8_depthwise_pad",
            "trainable": true,
            "dtype": "float32",
            "padding": [
              [
                0,
                1
              ],
              [
                0,
                1
              ]
            ],
            "data_format": "channels_last"
          },
          "registered_name": null,
          "build_config": {
            "input_shape": [
              null,
              14,
              14,
              288
            ]
          },
          "name": "expanded_conv_8_depthwise_pad",
          "inbound_nodes": [
            [
              [
                "re_lu_39",
                0,
                0,
                {}
              ]
            ]
          ]
        },
        {
          "module": "keras.layers",
          "class_name": "DepthwiseConv2D",
          "config": {
            "name": "expanded_conv_8_depthwise",
            "trainable": true,
            "dtype": "float32",
            "depth_multiplier": 1,
            "kernel_size": [
              3,
              3
            ],
            "strides": [
              2,
              2
            ],
            "padding": "valid",
            "data_format": "channels_last",
            "dilation_rate": [
              1,
              1
            ],
            "activation": "linear",
            "use_bias": false,
            "depthwise_initializer": {
              "module": "keras.initializers",
              "class_name": "GlorotUniform",
              "config": {
                "seed": null
              },
              "registered_name": null
            },
            "bias_initializer": {
              "module": "keras.initializers",
              "class_name": "Zeros",
              "config": {},
              "registered_name": null
            },
            "depthwise_regularizer": null,
            "bias_regularizer": null,
            "activity_regularizer": null,
            "depthwise_constraint": null,
            "bias_constraint": null
          },
          "registered_name": null,
          "build_config": {
            "input_shape": [
              null,
              15,
              15,
              288
            ]
          },
          "name": "expanded_conv_8_depthwise",
          "inbound_nodes": [
            [
              [
                "expanded_conv_8_depthwise_pad",
                0,
                0,
                {}
              ]
            ]
          ]
        },
        {
          "module": "keras.layers",
          "class_name": "BatchNormalization",
          "config": {
            "name": "expanded_conv_8_depthwise_bn",
            "trainable": true,
            "dtype": "float32",
            "axis": -1,
            "momentum": 0.999,
            "epsilon": 0.001,
            "center": true,
            "scale": true,
            "beta_initializer": {
              "module": "keras.initializers",
              "class_name": "Zeros",
              "config": {},
              "registered_name": null
            },
            "gamma_initializer": {
              "module": "keras.initializers",
              "class_name": "Ones",
              "config": {},
              "registered_name": null
            },
            "moving_mean_initializer": {
              "module": "keras.initializers",
              "class_name": "Zeros",
              "config": {},
              "registered_name": null
            },
            "moving_variance_initializer": {
              "module": "keras.initializers",
              "class_name": "Ones",
              "config": {},
              "registered_name": null
            },
            "beta_regularizer": null,
            "gamma_regularizer": null,
            "beta_constraint": null,
            "gamma_constraint": null,
            "synchronized": false
          },
          "registered_name": null,
          "build_config": {
            "input_shape": [
              null,
              7,
              7,
              288
            ]
          },
          "name": "expanded_conv_8_depthwise_bn",
          "inbound_nodes": [
            [
              [
                "expanded_conv_8_depthwise",
                0,
                0,
                {}
              ]
            ]
          ]
        },
        {
          "module": "keras.layers",
          "class_name": "ReLU",
          "config": {
            "name": "re_lu_40",
            "trainable": true,
            "dtype": "float32",
            "max_value": null,
            "negative_slope": 0,
            "threshold": 0
          },
          "registered_name": null,
          "name": "re_lu_40",
          "inbound_nodes": [
            [
              [
                "expanded_conv_8_depthwise_bn",
                0,
                0,
                {}
              ]
            ]
          ]
        },
        {
          "module": "keras.layers",
          "class_name": "Conv2D",
          "config": {
            "name": "expanded_conv_8_project",
            "trainable": true,
            "dtype": "float32",
            "filters": 96,
            "kernel_size": [
              1,
              1
            ],
            "strides": [
              1,
              1
            ],
            "padding": "same",
            "data_format": "channels_last",
            "dilation_rate": [
              1,
              1
            ],
            "groups": 1,
            "activation": "linear",
            "use_bias": false,
            "kernel_initializer": {
              "module": "keras.initializers",
              "class_name": "GlorotUniform",
              "config": {
                "seed": null
              },
              "registered_name": null
            },
            "bias_initializer": {
              "module": "keras.initializers",
              "class_name": "Zeros",
              "config": {},
              "registered_name": null
            },
            "kernel_regularizer": null,
            "bias_regularizer": null,
            "activity_regularizer": null,
            "kernel_constraint": null,
            "bias_constraint": null
          },
          "registered_name": null,
          "build_config": {
            "input_shape": [
              null,
              7,
              7,
              288
            ]
          },
          "name": "expanded_conv_8_project",
          "inbound_nodes": [
            [
              [
                "re_lu_40",
                0,
                0,
                {}
              ]
            ]
          ]
        },
        {
          "module": "keras.layers",
          "class_name": "BatchNormalization",
          "config": {
            "name": "expanded_conv_8_project_bn",
            "trainable": true,
            "dtype": "float32",
            "axis": -1,
            "momentum": 0.999,
            "epsilon": 0.001,
            "center": true,
            "scale": true,
            "beta_initializer": {
              "module": "keras.initializers",
              "class_name": "Zeros",
              "config": {},
              "registered_name": null
            },
            "gamma_initializer": {
              "module": "keras.initializers",
              "class_name": "Ones",
              "config": {},
              "registered_name": null
            },
            "moving_mean_initializer": {
              "module": "keras.initializers",
              "class_name": "Zeros",
              "config": {},
              "registered_name": null
            },
            "moving_variance_initializer": {
              "module": "keras.initializers",
              "class_name": "Ones",
              "config": {},
              "registered_name": null
            },
            "beta_regularizer": null,
            "gamma_regularizer": null,
            "beta_constraint": null,
            "gamma_constraint": null,
            "synchronized": false
          },
          "registered_name": null,
          "build_config": {
            "input_shape": [
              null,
              7,
              7,
              96
            ]
          },
          "name": "expanded_conv_8_project_bn",
          "inbound_nodes": [
            [
              [
                "expanded_conv_8_project",
                0,
                0,
                {}
              ]
            ]
          ]
        },
        {
          "module": "keras.layers",
          "class_name": "Conv2D",
          "config": {
            "name": "expanded_conv_9_expand",
            "trainable": true,
            "dtype": "float32",
            "filters": 576,
            "kernel_size": [
              1,
              1
            ],
            "strides": [
              1,
              1
            ],
            "padding": "same",
            "data_format": "channels_last",
            "dilation_rate": [
              1,
              1
            ],
            "groups": 1,
            "activation": "linear",
            "use_bias": false,
            "kernel_initializer": {
              "module": "keras.initializers",
              "class_name": "GlorotUniform",
              "config": {
                "seed": null
              },
              "registered_name": null
            },
            "bias_initializer": {
              "module": "keras.initializers",
              "class_name": "Zeros",
              "config": {},
              "registered_name": null
            },
            "kernel_regularizer": null,
            "bias_regularizer": null,
            "activity_regularizer": null,
            "kernel_constraint": null,
            "bias_constraint": null
          },
          "registered_name": null,
          "build_config": {
            "input_shape": [
              null,
              7,
              7,
              96
            ]
          },
          "name": "expanded_conv_9_expand",
          "inbound_nodes": [
            [
              [
                "expanded_conv_8_project_bn",
                0,
                0,
                {}
              ]
            ]
          ]
        },
        {
          "module": "keras.layers",
          "class_name": "BatchNormalization",
          "config": {
            "name": "expanded_conv_9_expand_bn",
            "trainable": true,
            "dtype": "float32",
            "axis": -1,
            "momentum": 0.999,
            "epsilon": 0.001,
            "center": true,
            "scale": true,
            "beta_initializer": {
              "module": "keras.initializers",
              "class_name": "Zeros",
              "config": {},
              "registered_name": null
            },
            "gamma_initializer": {
              "module": "keras.initializers",
              "class_name": "Ones",
              "config": {},
              "registered_name": null
            },
            "moving_mean_initializer": {
              "module": "keras.initializers",
              "class_name": "Zeros",
              "config": {},
              "registered_name": null
            },
            "moving_variance_initializer": {
              "module": "keras.initializers",
              "class_name": "Ones",
              "config": {},
              "registered_name": null
            },
            "beta_regularizer": null,
            "gamma_regularizer": null,
            "beta_constraint": null,
            "gamma_constraint": null,
            "synchronized": false
          },
          "registered_name": null,
          "build_config": {
            "input_shape": [
              null,
              7,
              7,
              576
            ]
          },
          "name": "expanded_conv_9_expand_bn",
          "inbound_nodes": [
            [
              [
                "expanded_conv_9_expand",
                0,
                0,
                {}
              ]
            ]
          ]
        },
        {
          "module": "keras.layers",
          "class_name": "ReLU",
          "config": {
            "name": "re_lu_41",
            "trainable": true,
            "dtype": "float32",
            "max_value": null,
            "negative_slope": 0,
            "threshold": 0
          },
          "registered_name": null,
          "name": "re_lu_41",
          "inbound_nodes": [
            [
              [
                "expanded_conv_9_expand_bn",
                0,
                0,
                {}
              ]
            ]
          ]
        },
        {
          "module": "keras.layers",
          "class_name": "DepthwiseConv2D",
          "config": {
            "name": "expanded_conv_9_depthwise",
            "trainable": true,
            "dtype": "float32",
            "depth_multiplier": 1,
            "kernel_size": [
              3,
              3
            ],
            "strides": [
              1,
              1
            ],
            "padding": "same",
            "data_format": "channels_last",
            "dilation_rate": [
              1,
              1
            ],
            "activation": "linear",
            "use_bias": false,
            "depthwise_initializer": {
              "module": "keras.initializers",
              "class_name": "GlorotUniform",
              "config": {
                "seed": null
              },
              "registered_name": null
            },
            "bias_initializer": {
              "module": "keras.initializers",
              "class_name": "Zeros",
              "config": {},
              "registered_name": null
            },
            "depthwise_regularizer": null,
            "bias_regularizer": null,
            "activity_regularizer": null,
            "depthwise_constraint": null,
            "bias_constraint": null
          },
          "registered_name": null,
          "build_config": {
            "input_shape": [
              null,
              7,
              7,
              576
            ]
          },
          "name": "expanded_conv_9_depthwise",
          "inbound_nodes": [
            [
              [
                "re_lu_41",
                0,
                0,
                {}
              ]
            ]
          ]
        },
        {
          "module": "keras.layers",
          "class_name": "BatchNormalization",
          "config": {
            "name": "expanded_conv_9_depthwise_bn",
            "trainable": true,
            "dtype": "float32",
            "axis": -1,
            "momentum": 0.999,
            "epsilon": 0.001,
            "center": true,
            "scale": true,
            "beta_initializer": {
              "module": "keras.initializers",
              "class_name": "Zeros",
              "config": {},
              "registered_name": null
            },
            "gamma_initializer": {
              "module": "keras.initializers",
              "class_name": "Ones",
              "config": {},
              "registered_name": null
            },
            "moving_mean_initializer": {
              "module": "keras.initializers",
              "class_name": "Zeros",
              "config": {},
              "registered_name": null
            },
            "moving_variance_initializer": {
              "module": "keras.initializers",
              "class_name": "Ones",
              "config": {},
              "registered_name": null
            },
            "beta_regularizer": null,
            "gamma_regularizer": null,
            "beta_constraint": null,
            "gamma_constraint": null,
            "synchronized": false
          },
          "registered_name": null,
          "build_config": {
            "input_shape": [
              null,
              7,
              7,
              576
            ]
          },
          "name": "expanded_conv_9_depthwise_bn",
          "inbound_nodes": [
            [
              [
                "expanded_conv_9_depthwise",
                0,
                0,
                {}
              ]
            ]
          ]
        },
        {
          "module": "keras.layers",
          "class_name": "ReLU",
          "config": {
            "name": "re_lu_42",
            "trainable": true,
            "dtype": "float32",
            "max_value": null,
            "negative_slope": 0,
            "threshold": 0
          },
          "registered_name": null,
          "name": "re_lu_42",
          "inbound_nodes": [
            [
              [
                "expanded_conv_9_depthwise_bn",
                0,
                0,
                {}
              ]
            ]
          ]
        },
        {
          "module": "keras.layers",
          "class_name": "Conv2D",
          "config": {
            "name": "expanded_conv_9_project",
            "trainable": true,
            "dtype": "float32",
            "filters": 96,
            "kernel_size": [
              1,
              1
            ],
            "strides": [
              1,
              1
            ],
            "padding": "same",
            "data_format": "channels_last",
            "dilation_rate": [
              1,
              1
            ],
            "groups": 1,
            "activation": "linear",
            "use_bias": false,
            "kernel_initializer": {
              "module": "keras.initializers",
              "class_name": "GlorotUniform",
              "config": {
                "seed": null
              },
              "registered_name": null
            },
            "bias_initializer": {
              "module": "keras.initializers",
              "class_name": "Zeros",
              "config": {},
              "registered_name": null
            },
            "kernel_regularizer": null,
            "bias_regularizer": null,
            "activity_regularizer": null,
            "kernel_constraint": null,
            "bias_constraint": null
          },
          "registered_name": null,
          "build_config": {
            "input_shape": [
              null,
              7,
              7,
              576
            ]
          },
          "name": "expanded_conv_9_project",
          "inbound_nodes": [
            [
              [
                "re_lu_42",
                0,
                0,
                {}
              ]
            ]
          ]
        },
        {
          "module": "keras.layers",
          "class_name": "BatchNormalization",
          "config": {
            "name": "expanded_conv_9_project_bn",
            "trainable": true,
            "dtype": "float32",
            "axis": -1,
            "momentum": 0.999,
            "epsilon": 0.001,
            "center": true,
            "scale": true,
            "beta_initializer": {
              "module": "keras.initializers",
              "class_name": "Zeros",
              "config": {},
              "registered_name": null
            },
            "gamma_initializer": {
              "module": "keras.initializers",
              "class_name": "Ones",
              "config": {},
              "registered_name": null
            },
            "moving_mean_initializer": {
              "module": "keras.initializers",
              "class_name": "Zeros",
              "config": {},
              "registered_name": null
            },
            "moving_variance_initializer": {
              "module": "keras.initializers",
              "class_name": "Ones",
              "config": {},
              "registered_name": null
            },
            "beta_regularizer": null,
            "gamma_regularizer": null,
            "beta_constraint": null,
            "gamma_constraint": null,
            "synchronized": false
          },
          "registered_name": null,
          "build_config": {
            "input_shape": [
              null,
              7,
              7,
              96
            ]
          },
          "name": "expanded_conv_9_project_bn",
          "inbound_nodes": [
            [
              [
                "expanded_conv_9_project",
                0,
                0,
                {}
              ]
            ]
          ]
        },
        {
          "module": "keras.layers",
          "class_name": "Add",
          "config": {
            "name": "expanded_conv_9_add",
            "trainable": true,
            "dtype": "float32"
          },
          "registered_name": null,
          "build_config": {
            "input_shape": [
              [
                null,
                7,
                7,
                96
              ],
              [
                null,
                7,
                7,
                96
              ]
            ]
          },
          "name": "expanded_conv_9_add",
          "inbound_nodes": [
            [
              [
                "expanded_conv_8_project_bn",
                0,
                0,
                {}
              ],
              [
                "expanded_conv_9_project_bn",
                0,
                0,
                {}
              ]
            ]
          ]
        },
        {
          "module": "keras.layers",
          "class_name": "Conv2D",
          "config": {
            "name": "expanded_conv_10_expand",
            "trainable": true,
            "dtype": "float32",
            "filters": 576,
            "kernel_size": [
              1,
              1
            ],
            "strides": [
              1,
              1
            ],
            "padding": "same",
            "data_format": "channels_last",
            "dilation_rate": [
              1,
              1
            ],
            "groups": 1,
            "activation": "linear",
            "use_bias": false,
            "kernel_initializer": {
              "module": "keras.initializers",
              "class_name": "GlorotUniform",
              "config": {
                "seed": null
              },
              "registered_name": null
            },
            "bias_initializer": {
              "module": "keras.initializers",
              "class_name": "Zeros",
              "config": {},
              "registered_name": null
            },
            "kernel_regularizer": null,
            "bias_regularizer": null,
            "activity_regularizer": null,
            "kernel_constraint": null,
            "bias_constraint": null
          },
          "registered_name": null,
          "build_config": {
            "input_shape": [
              null,
              7,
              7,
              96
            ]
          },
          "name": "expanded_conv_10_expand",
          "inbound_nodes": [
            [
              [
                "expanded_conv_9_add",
                0,
                0,
                {}
              ]
            ]
          ]
        },
        {
          "module": "keras.layers",
          "class_name": "BatchNormalization",
          "config": {
            "name": "expanded_conv_10_expand_bn",
            "trainable": true,
            "dtype": "float32",
            "axis": -1,
            "momentum": 0.999,
            "epsilon": 0.001,
            "center": true,
            "scale": true,
            "beta_initializer": {
              "module": "keras.initializers",
              "class_name": "Zeros",
              "config": {},
              "registered_name": null
            },
            "gamma_initializer": {
              "module": "keras.initializers",
              "class_name": "Ones",
              "config": {},
              "registered_name": null
            },
            "moving_mean_initializer": {
              "module": "keras.initializers",
              "class_name": "Zeros",
              "config": {},
              "registered_name": null
            },
            "moving_variance_initializer": {
              "module": "keras.initializers",
              "class_name": "Ones",
              "config": {},
              "registered_name": null
            },
            "beta_regularizer": null,
            "gamma_regularizer": null,
            "beta_constraint": null,
            "gamma_constraint": null,
            "synchronized": false
          },
          "registered_name": null,
          "build_config": {
            "input_shape": [
              null,
              7,
              7,
              576
            ]
          },
          "name": "expanded_conv_10_expand_bn",
          "inbound_nodes": [
            [
              [
                "expanded_conv_10_expand",
                0,
                0,
                {}
              ]
            ]
          ]
        },
        {
          "module": "keras.layers",
          "class_name": "ReLU",
          "config": {
            "name": "re_lu_43",
            "trainable": true,
            "dtype": "float32",
            "max_value": null,
            "negative_slope": 0,
            "threshold": 0
          },
          "registered_name": null,
          "name": "re_lu_43",
          "inbound_nodes": [
            [
              [
                "expanded_conv_10_expand_bn",
                0,
                0,
                {}
              ]
            ]
          ]
        },
        {
          "module": "keras.layers",
          "class_name": "DepthwiseConv2D",
          "config": {
            "name": "expanded_conv_10_depthwise",
            "trainable": true,
            "dtype": "float32",
            "depth_multiplier": 1,
            "kernel_size": [
              3,
              3
            ],
            "strides": [
              1,
              1
            ],
            "padding": "same",
            "data_format": "channels_last",
            "dilation_rate": [
              1,
              1
            ],
            "activation": "linear",
            "use_bias": false,
            "depthwise_initializer": {
              "module": "keras.initializers",
              "class_name": "GlorotUniform",
              "config": {
                "seed": null
              },
              "registered_name": null
            },
            "bias_initializer": {
              "module": "keras.initializers",
              "class_name": "Zeros",
              "config": {},
              "registered_name": null
            },
            "depthwise_regularizer": null,
            "bias_regularizer": null,
            "activity_regularizer": null,
            "depthwise_constraint": null,
            "bias_constraint": null
          },
          "registered_name": null,
          "build_config": {
            "input_shape": [
              null,
              7,
              7,
              576
            ]
          },
          "name": "expanded_conv_10_depthwise",
          "inbound_nodes": [
            [
              [
                "re_lu_43",
                0,
                0,
                {}
              ]
            ]
          ]
        },
        {
          "module": "keras.layers",
          "class_name": "BatchNormalization",
          "config": {
            "name": "expanded_conv_10_depthwise_bn",
            "trainable": true,
            "dtype": "float32",
            "axis": -1,
            "momentum": 0.999,
            "epsilon": 0.001,
            "center": true,
            "scale": true,
            "beta_initializer": {
              "module": "keras.initializers",
              "class_name": "Zeros",
              "config": {},
              "registered_name": null
            },
            "gamma_initializer": {
              "module": "keras.initializers",
              "class_name": "Ones",
              "config": {},
              "registered_name": null
            },
            "moving_mean_initializer": {
              "module": "keras.initializers",
              "class_name": "Zeros",
              "config": {},
              "registered_name": null
            },
            "moving_variance_initializer": {
              "module": "keras.initializers",
              "class_name": "Ones",
              "config": {},
              "registered_name": null
            },
            "beta_regularizer": null,
            "gamma_regularizer": null,
            "beta_constraint": null,
            "gamma_constraint": null,
            "synchronized": false
          },
          "registered_name": null,
          "build_config": {
            "input_shape": [
              null,
              7,
              7,
              576
            ]
          },
          "name": "expanded_conv_10_depthwise_bn",
          "inbound_nodes": [
            [
              [
                "expanded_conv_10_depthwise",
                0,
                0,
                {}
              ]
            ]
          ]
        },
        {
          "module": "keras.layers",
          "class_name": "ReLU",
          "config": {
            "name": "re_lu_44",
            "trainable": true,
            "dtype": "float32",
            "max_value": null,
            "negative_slope": 0,
            "threshold": 0
          },
          "registered_name": null,
          "name": "re_lu_44",
          "inbound_nodes": [
            [
              [
                "expanded_conv_10_depthwise_bn",
                0,
                0,
                {}
              ]
            ]
          ]
        },
        {
          "module": "keras.layers",
          "class_name": "Conv2D",
          "config": {
            "name": "expanded_conv_10_project",
            "trainable": true,
            "dtype": "float32",
            "filters": 96,
            "kernel_size": [
              1,
              1
            ],
            "strides": [
              1,
              1
            ],
            "padding": "same",
            "data_format": "channels_last",
            "dilation_rate": [
              1,
              1
            ],
            "groups": 1,
            "activation": "linear",
            "use_bias": false,
            "kernel_initializer": {
              "module": "keras.initializers",
              "class_name": "GlorotUniform",
              "config": {
                "seed": null
              },
              "registered_name": null
            },
            "bias_initializer": {
              "module": "keras.initializers",
              "class_name": "Zeros",
              "config": {},
              "registered_name": null
            },
            "kernel_regularizer": null,
            "bias_regularizer": null,
            "activity_regularizer": null,
            "kernel_constraint": null,
            "bias_constraint": null
          },
          "registered_name": null,
          "build_config": {
            "input_shape": [
              null,
              7,
              7,
              576
            ]
          },
          "name": "expanded_conv_10_project",
          "inbound_nodes": [
            [
              [
                "re_lu_44",
                0,
                0,
                {}
              ]
            ]
          ]
        },
        {
          "module": "keras.layers",
          "class_name": "BatchNormalization",
          "config": {
            "name": "expanded_conv_10_project_bn",
            "trainable": true,
            "dtype": "float32",
            "axis": -1,
            "momentum": 0.999,
            "epsilon": 0.001,
            "center": true,
            "scale": true,
            "beta_initializer": {
              "module": "keras.initializers",
              "class_name": "Zeros",
              "config": {},
              "registered_name": null
            },
            "gamma_initializer": {
              "module": "keras.initializers",
              "class_name": "Ones",
              "config": {},
              "registered_name": null
            },
            "moving_mean_initializer": {
              "module": "keras.initializers",
              "class_name": "Zeros",
              "config": {},
              "registered_name": null
            },
            "moving_variance_initializer": {
              "module": "keras.initializers",
              "class_name": "Ones",
              "config": {},
              "registered_name": null
            },
            "beta_regularizer": null,
            "gamma_regularizer": null,
            "beta_constraint": null,
            "gamma_constraint": null,
            "synchronized": false
          },
          "registered_name": null,
          "build_config": {
            "input_shape": [
              null,
              7,
              7,
              96
            ]
          },
          "name": "expanded_conv_10_project_bn",
          "inbound_nodes": [
            [
              [
                "expanded_conv_10_project",
                0,
                0,
                {}
              ]
            ]
          ]
        },
        {
          "module": "keras.layers",
          "class_name": "Add",
          "config": {
            "name": "expanded_conv_10_add",
            "trainable": true,
            "dtype": "float32"
          },
          "registered_name": null,
          "build_config": {
            "input_shape": [
              [
                null,
                7,
                7,
                96
              ],
              [
                null,
                7,
                7,
                96
              ]
            ]
          },
          "name": "expanded_conv_10_add",
          "inbound_nodes": [
            [
              [
                "expanded_conv_9_add",
                0,
                0,
                {}
              ],
              [
                "expanded_conv_10_project_bn",
                0,
                0,
                {}
              ]
            ]
          ]
        },
        {
          "module": "keras.layers",
          "class_name": "Conv2D",
          "config": {
            "name": "conv_1",
            "trainable": true,
            "dtype": "float32",
            "filters": 576,
            "kernel_size": [
              1,
              1
            ],
            "strides": [
              1,
              1
            ],
            "padding": "same",
            "data_format": "channels_last",
            "dilation_rate": [
              1,
              1
            ],
            "groups": 1,
            "activation": "linear",
            "use_bias": false,
            "kernel_initializer": {
              "module": "keras.initializers",
              "class_name": "GlorotUniform",
              "config": {
                "seed": null
              },
              "registered_name": null
            },
            "bias_initializer": {
              "module": "keras.initializers",
              "class_name": "Zeros",
              "config": {},
              "registered_name": null
            },
            "kernel_regularizer": null,
            "bias_regularizer": null,
            "activity_regularizer": null,
            "kernel_constraint": null,
            "bias_constraint": null
          },
          "registered_name": null,
          "build_config": {
            "input_shape": [
              null,
              7,
              7,
              96
            ]
          },
          "name": "conv_1",
          "inbound_nodes": [
            [
              [
                "expanded_conv_10_add",
                0,
                0,
                {}
              ]
            ]
          ]
        },
        {
          "module": "keras.layers",
          "class_name": "BatchNormalization",
          "config": {
            "name": "conv_1_bn",
            "trainable": true,
            "dtype": "float32",
            "axis": -1,
            "momentum": 0.999,
            "epsilon": 0.001,
            "center": true,
            "scale": true,
            "beta_initializer": {
              "module": "keras.initializers",
              "class_name": "Zeros",
              "config": {},
              "registered_name": null
            },
            "gamma_initializer": {
              "module": "keras.initializers",
              "class_name": "Ones",
              "config": {},
              "registered_name": null
            },
            "moving_mean_initializer": {
              "module": "keras.initializers",
              "class_name": "Zeros",
              "config": {},
              "registered_name": null
            },
            "moving_variance_initializer": {
              "module": "keras.initializers",
              "class_name": "Ones",
              "config": {},
              "registered_name": null
            },
            "beta_regularizer": null,
            "gamma_regularizer": null,
            "beta_constraint": null,
            "gamma_constraint": null,
            "synchronized": false
          },
          "registered_name": null,
          "build_config": {
            "input_shape": [
              null,
              7,
              7,
              576
            ]
          },
          "name": "conv_1_bn",
          "inbound_nodes": [
            [
              [
                "conv_1",
                0,
                0,
                {}
              ]
            ]
          ]
        },
        {
          "module": "keras.layers",
          "class_name": "ReLU",
          "config": {
            "name": "re_lu_45",
            "trainable": true,
            "dtype": "float32",
            "max_value": null,
            "negative_slope": 0,
            "threshold": 0
          },
          "registered_name": null,
          "name": "re_lu_45",
          "inbound_nodes": [
            [
              [
                "conv_1_bn",
                0,
                0,
                {}
              ]
            ]
          ]
        },
        {
          "module": "keras.layers",
          "class_name": "GlobalAveragePooling2D",
          "config": {
            "name": "global_average_pooling2d_2",
            "trainable": true,
            "dtype": "float32",
            "data_format": "channels_last",
            "keepdims": false
          },
          "registered_name": null,
          "name": "global_average_pooling2d_2",
          "inbound_nodes": [
            [
              [
                "re_lu_45",
                0,
                0,
                {}
              ]
            ]
          ]
        },
        {
          "module": "keras.layers",
          "class_name": "Dense",
          "config": {
            "name": "scout_mobilenet_skin_fc1",
            "trainable": true,
            "dtype": "float32",
            "units": 256,
            "activation": "relu",
            "use_bias": true,
            "kernel_initializer": {
              "module": "keras.initializers",
              "class_name": "GlorotUniform",
              "config": {
                "seed": null
              },
              "registered_name": null
            },
            "bias_initializer": {
              "module": "keras.initializers",
              "class_name": "Zeros",
              "config": {},
              "registered_name": null
            },
            "kernel_regularizer": null,
            "bias_regularizer": null,
            "kernel_constraint": null,
            "bias_constraint": null
          },
          "registered_name": null,
          "build_config": {
            "input_shape": [
              null,
              576
            ]
          },
          "name": "scout_mobilenet_skin_fc1",
          "inbound_nodes": [
            [
              [
                "global_average_pooling2d_2",
                0,
                0,
                {}
              ]
            ]
          ]
        },
        {
          "module": "keras.layers",
          "class_name": "Dropout",
          "config": {
            "name": "dropout_17",
            "trainable": true,
            "dtype": "float32",
            "rate": 0.3,
            "seed": null,
            "noise_shape": null
          },
          "registered_name": null,
          "name": "dropout_17",
          "inbound_nodes": [
            [
              [
                "scout_mobilenet_skin_fc1",
                0,
                0,
                {}
              ]
            ]
          ]
        },
        {
          "module": "keras.layers",
          "class_name": "Dense",
          "config": {
            "name": "scout_mobilenet_skin_fc2",
            "trainable": true,
            "dtype": "float32",
            "units": 128,
            "activation": "relu",
            "use_bias": true,
            "kernel_initializer": {
              "module": "keras.initializers",
              "class_name": "GlorotUniform",
              "config": {
                "seed": null
              },
              "registered_name": null
            },
            "bias_initializer": {
              "module": "keras.initializers",
              "class_name": "Zeros",
              "config": {},
              "registered_name": null
            },
            "kernel_regularizer": null,
            "bias_regularizer": null,
            "kernel_constraint": null,
            "bias_constraint": null
          },
          "registered_name": null,
          "build_config": {
            "input_shape": [
              null,
              256
            ]
          },
          "name": "scout_mobilenet_skin_fc2",
          "inbound_nodes": [
            [
              [
                "dropout_17",
                0,
                0,
                {}
              ]
            ]
          ]
        },
        {
          "module": "keras.layers",
          "class_name": "Dropout",
          "config": {
            "name": "dropout_18",
            "trainable": true,
            "dtype": "float32",
            "rate": 0.2,
            "seed": null,
            "noise_shape": null
          },
          "registered_name": null,
          "name": "dropout_18",
          "inbound_nodes": [
            [
              [
                "scout_mobilenet_skin_fc2",
                0,
                0,
                {}
              ]
            ]
          ]
        },
        {
          "module": "keras.layers",
          "class_name": "Dense",
          "config": {
            "name": "scout_mobilenet_skin_output",
            "trainable": true,
            "dtype": "float32",
            "units": 1,
            "activation": "sigmoid",
            "use_bias": true,
            "kernel_initializer": {
              "module": "keras.initializers",
              "class_name": "GlorotUniform",
…
          "dtype": "float32"
        },
        {
          "name": "layers.batch_normalization_11.vars.1",
          "shape": [
            40
          ],
          "dtype": "float32"
        },
        {
          "name": "layers.batch_normalization_11.vars.2",
          "shape": [
            40
          ],
          "dtype": "float32"
        },
        {
          "name": "layers.batch_normalization_11.vars.3",
          "shape": [
            40
          ],
          "dtype": "float32"
        },
        {
          "name": "layers.batch_normalization_12.vars.0",
          "shape": [
            240
          ],
          "dtype": "float32"
        },
        {
          "name": "layers.batch_normalization_12.vars.1",
          "shape": [
            240
          ],
          "dtype": "float32"
        },
        {
          "name": "layers.batch_normalization_12.vars.2",
          "shape": [
            240
          ],
          "dtype": "float32"
        },
        {
          "name": "layers.batch_normalization_12.vars.3",
          "shape": [
            240
          ],
          "dtype": "float32"
        },
        {
          "name": "layers.batch_normalization_13.vars.0",
          "shape": [
            240
          ],
          "dtype": "float32"
        },
        {
          "name": "layers.batch_normalization_13.vars.1",
          "shape": [
            240
          ],
          "dtype": "float32"
        },
        {
          "name": "layers.batch_normalization_13.vars.2",
          "shape": [
            240
          ],
          "dtype": "float32"
        },
        {
          "name": "layers.batch_normalization_13.vars.3",
          "shape": [
            240
          ],
          "dtype": "float32"
        },
        {
          "name": "layers.batch_normalization_14.vars.0",
          "shape": [
            40
          ],
          "dtype": "float32"
        },
        {
          "name": "layers.batch_normalization_14.vars.1",
          "shape": [
            40
          ],
          "dtype": "float32"
        },
        {
          "name": "layers.batch_normalization_14.vars.2",
          "shape": [
            40
          ],
          "dtype": "float32"
        },
        {
          "name": "layers.batch_normalization_14.vars.3",
          "shape": [
            40
          ],
          "dtype": "float32"
        },
        {
          "name": "layers.batch_normalization_15.vars.0",
          "shape": [
            240
          ],
          "dtype": "float32"
        },
        {
          "name": "layers.batch_normalization_15.vars.1",
          "shape": [
            240
          ],
          "dtype": "float32"
        },
        {
          "name": "layers.batch_normalization_15.vars.2",
          "shape": [
            240
          ],
          "dtype": "float32"
        },
        {
          "name": "layers.batch_normalization_15.vars.3",
          "shape": [
            240
          ],
          "dtype": "float32"
        },
        {
          "name": "layers.batch_normalization_16.vars.0",
          "shape": [
            240
          ],
          "dtype": "float32"
        },
        {
          "name": "layers.batch_normalization_16.vars.1",
          "shape": [
            240
          ],
          "dtype": "float32"
        },
        {
          "name": "layers.batch_normalization_16.vars.2",
          "shape": [
            240
          ],
          "dtype": "float32"
        },
        {
          "name": "layers.batch_normalization_16.vars.3",
          "shape": [
            240
          ],
          "dtype": "float32"
        },
        {
          "name": "layers.batch_normalization_17.vars.0",
          "shape": [
            40
          ],
          "dtype": "float32"
        },
        {
          "name": "layers.batch_normalization_17.vars.1",
          "shape": [
            40
          ],
          "dtype": "float32"
        },
        {
          "name": "layers.batch_normalization_17.vars.2",
          "shape": [
            40
          ],
          "dtype": "float32"
        },
        {
          "name": "layers.batch_normalization_17.vars.3",
          "shape": [
            40
          ],
          "dtype": "float32"
        },
        {
          "name": "layers.batch_normalization_18.vars.0",
          "shape": [
            120
          ],
          "dtype": "float32"
        },
        {
          "name": "layers.batch_normalization_18.vars.1",
          "shape": [
            120
          ],
          "dtype": "float32"
        },
        {
          "name": "layers.batch_normalization_18.vars.2",
          "shape": [
            120
          ],
          "dtype": "float32"
        },
        {
          "name": "layers.batch_normalization_18.vars.3",
          "shape": [
            120
          ],
          "dtype": "float32"
        },
        {
          "name": "layers.batch_normalization_19.vars.0",
          "shape": [
            120
          ],
          "dtype": "float32"
        },
        {
          "name": "layers.batch_normalization_19.vars.1",
          "shape": [
            120
          ],
          "dtype": "float32"
        },
        {
          "name": "layers.batch_normalization_19.vars.2",
          "shape": [
            120
          ],
          "dtype": "float32"
        },
        {
          "name": "layers.batch_normalization_19.vars.3",
          "shape": [
            120
          ],
          "dtype": "float32"
        },
        {
          "name": "layers.batch_normalization_2.vars.0",
          "shape": [
            16
          ],
          "dtype": "float32"
        },
        {
          "name": "layers.batch_normalization_2.vars.1",
          "shape": [
            16
          ],
          "dtype": "float32"
        },
        {
          "name": "layers.batch_normalization_2.vars.2",
          "shape": [
            16
          ],
          "dtype": "float32"
        },
        {
          "name": "layers.batch_normalization_2.vars.3",
          "shape": [
            16
          ],
          "dtype": "float32"
        },
        {
          "name": "layers.batch_normalization_20.vars.0",
          "shape": [
            48
          ],
          "dtype": "float32"
        },
        {
          "name": "layers.batch_normalization_20.vars.1",
          "shape": [
            48
          ],
          "dtype": "float32"
        },
        {
          "name": "layers.batch_normalization_20.vars.2",
          "shape": [
            48
          ],
          "dtype": "float32"
        },
        {
          "name": "layers.batch_normalization_20.vars.3",
          "shape": [
            48
          ],
          "dtype": "float32"
        },
        {
          "name": "layers.batch_normalization_21.vars.0",
          "shape": [
            144
          ],
          "dtype": "float32"
        },
        {
          "name": "layers.batch_normalization_21.vars.1",
          "shape": [
            144
          ],
          "dtype": "float32"
        },
        {
          "name": "layers.batch_normalization_21.vars.2",
          "shape": [
            144
          ],
          "dtype": "float32"
        },
        {
          "name": "layers.batch_normalization_21.vars.3",
          "shape": [
            144
          ],
          "dtype": "float32"
        },
        {
          "name": "layers.batch_normalization_22.vars.0",
          "shape": [
            144
          ],
          "dtype": "float32"
        },
        {
          "name": "layers.batch_normalization_22.vars.1",
          "shape": [
            144
          ],
          "dtype": "float32"
        },
        {
          "name": "layers.batch_normalization_22.vars.2",
          "shape": [
            144
          ],
          "dtype": "float32"
        },
        {
          "name": "layers.batch_normalization_22.vars.3",
          "shape": [
            144
          ],
          "dtype": "float32"
        },
        {
          "name": "layers.batch_normalization_23.vars.0",
          "shape": [
            48
          ],
          "dtype": "float32"
        },
        {
          "name": "layers.batch_normalization_23.vars.1",
          "shape": [
            48
          ],
          "dtype": "float32"
        },
        {
          "name": "layers.batch_normalization_23.vars.2",
          "shape": [
            48
          ],
          "dtype": "float32"
        },
        {
          "name": "layers.batch_normalization_23.vars.3",
          "shape": [
            48
          ],
          "dtype": "float32"
        },
        {
          "name": "layers.batch_normalization_24.vars.0",
          "shape": [
            288
          ],
          "dtype": "float32"
        },
        {
          "name": "layers.batch_normalization_24.vars.1",
          "shape": [
            288
          ],
          "dtype": "float32"
        },
        {
          "name": "layers.batch_normalization_24.vars.2",
          "shape": [
            288
          ],
          "dtype": "float32"
        },
        {
          "name": "layers.batch_normalization_24.vars.3",
          "shape": [
            288
          ],
          "dtype": "float32"
        },
        {
          "name": "layers.batch_normalization_25.vars.0",
          "shape": [
            288
          ],
          "dtype": "float32"
        },
        {
          "name": "layers.batch_normalization_25.vars.1",
          "shape": [
            288
          ],
          "dtype": "float32"
        },
        {
          "name": "layers.batch_normalization_25.vars.2",
          "shape": [
            288
          ],
          "dtype": "float32"
        },
        {
          "name": "layers.batch_normalization_25.vars.3",
          "shape": [
            288
          ],
          "dtype": "float32"
        },
        {
          "name": "layers.batch_normalization_26.vars.0",
          "shape": [
            96
          ],
          "dtype": "float32"
        },
        {
          "name": "layers.batch_normalization_26.vars.1",
          "shape": [
            96
          ],
          "dtype": "float32"
        },
        {
          "name": "layers.batch_normalization_26.vars.2",
          "shape": [
            96
          ],
          "dtype": "float32"
        },
        {
          "name": "layers.batch_normalization_26.vars.3",
          "shape": [
            96
          ],
          "dtype": "float32"
        },
        {
          "name": "layers.batch_normalization_27.vars.0",
          "shape": [
            576
          ],
          "dtype": "float32"
        },
        {
          "name": "layers.batch_normalization_27.vars.1",
          "shape": [
            576
          ],
          "dtype": "float32"
        },
        {
          "name": "layers.batch_normalization_27.vars.2",
          "shape": [
            576
          ],
          "dtype": "float32"
        },
        {
          "name": "layers.batch_normalization_27.vars.3",
          "shape": [
            576
          ],
          "dtype": "float32"
        },
        {
          "name": "layers.batch_normalization_28.vars.0",
          "shape": [
            576
          ],
          "dtype": "float32"
        },
        {
          "name": "layers.batch_normalization_28.vars.1",
          "shape": [
            576
          ],
          "dtype": "float32"
        },
        {
          "name": "layers.batch_normalization_28.vars.2",
          "shape": [
            576
          ],
          "dtype": "float32"
        },
        {
          "name": "layers.batch_normalization_28.vars.3",
          "shape": [
            576
          ],
          "dtype": "float32"
        },
        {
          "name": "layers.batch_normalization_29.vars.0",
          "shape": [
            96
          ],
          "dtype": "float32"
        },
        {
          "name": "layers.batch_normalization_29.vars.1",
          "shape": [
            96
          ],
          "dtype": "float32"
        },
        {
          "name": "layers.batch_normalization_29.vars.2",
          "shape": [
            96
          ],
          "dtype": "float32"
        },
        {
          "name": "layers.batch_normalization_29.vars.3",
          "shape": [
            96
          ],
          "dtype": "float32"
        },
        {
          "name": "layers.batch_normalization_3.vars.0",
          "shape": [
            72
          ],
          "dtype": "float32"
        },
        {
          "name": "layers.batch_normalization_3.vars.1",
          "shape": [
            72
          ],
          "dtype": "float32"
        },
        {
          "name": "layers.batch_normalization_3.vars.2",
          "shape": [
            72
          ],
          "dtype": "float32"
        },
        {
          "name": "layers.batch_normalization_3.vars.3",
          "shape": [
            72
          ],
          "dtype": "float32"
        },
        {
          "name": "layers.batch_normalization_30.vars.0",
          "shape": [
            576
          ],
          "dtype": "float32"
        },
        {
          "name": "layers.batch_normalization_30.vars.1",
          "shape": [
            576
          ],
          "dtype": "float32"
        },
        {
          "name": "layers.batch_normalization_30.vars.2",
          "shape": [
            576
          ],
          "dtype": "float32"
        },
        {
          "name": "layers.batch_normalization_30.vars.3",
          "shape": [
            576
          ],
          "dtype": "float32"
        },
        {
          "name": "layers.batch_normalization_31.vars.0",
          "shape": [
            576
          ],
          "dtype": "float32"
        },
        {
          "name": "layers.batch_normalization_31.vars.1",
          "shape": [
            576
          ],
          "dtype": "float32"
        },
        {
          "name": "layers.batch_normalization_31.vars.2",
          "shape": [
            576
          ],
          "dtype": "float32"
        },
        {
          "name": "layers.batch_normalization_31.vars.3",
          "shape": [
            576
          ],
          "dtype": "float32"
        },
        {
          "name": "layers.batch_normalization_32.vars.0",
          "shape": [
            96
          ],
          "dtype": "float32"
        },
        {
          "name": "layers.batch_normalization_32.vars.1",
          "shape": [
            96
          ],
          "dtype": "float32"
        },
        {
          "name": "layers.batch_normalization_32.vars.2",
          "shape": [
            96
          ],
          "dtype": "float32"
        },
        {
          "name": "layers.batch_normalization_32.vars.3",
          "shape": [
            96
          ],
          "dtype": "float32"
        },
        {
          "name": "layers.batch_normalization_33.vars.0",
          "shape": [
            576
          ],
          "dtype": "float32"
        },
        {
          "name": "layers.batch_normalization_33.vars.1",
          "shape": [
            576
          ],
          "dtype": "float32"
        },
        {
          "name": "layers.batch_normalization_33.vars.2",
          "shape": [
            576
          ],
          "dtype": "float32"
        },
        {
          "name": "layers.batch_normalization_33.vars.3",
          "shape": [
            576
          ],
          "dtype": "float32"
        },
        {
          "name": "layers.batch_normalization_4.vars.0",
          "shape": [
            72
          ],
          "dtype": "float32"
        },
        {
          "name": "layers.batch_normalization_4.vars.1",
          "shape": [
            72
          ],
          "dtype": "float32"
        },
        {
          "name": "layers.batch_normalization_4.vars.2",
          "shape": [
            72
          ],
          "dtype": "float32"
        },
        {
          "name": "layers.batch_normalization_4.vars.3",
          "shape": [
            72
          ],
          "dtype": "float32"
        },
        {
          "name": "layers.batch_normalization_5.vars.0",
          "shape": [
            24
          ],
          "dtype": "float32"
        },
        {
          "name": "layers.batch_normalization_5.vars.1",
          "shape": [
            24
          ],
          "dtype": "float32"
        },
        {
          "name": "layers.batch_normalization_5.vars.2",
          "shape": [
            24
          ],
          "dtype": "float32"
        },
        {
          "name": "layers.batch_normalization_5.vars.3",
          "shape": [
            24
          ],
          "dtype": "float32"
        },
        {
          "name": "layers.batch_normalization_6.vars.0",
          "shape": [
            88
          ],
          "dtype": "float32"
        },
        {
          "name": "layers.batch_normalization_6.vars.1",
          "shape": [
            88
          ],
          "dtype": "float32"
        },
        {
          "name": "layers.batch_normalization_6.vars.2",
          "shape": [
            88
          ],
          "dtype": "float32"
        },
        {
          "name": "layers.batch_normalization_6.vars.3",
          "shape": [
            88
          ],
          "dtype": "float32"
        },
        {
          "name": "layers.batch_normalization_7.vars.0",
          "shape": [
            88
          ],
          "dtype": "float32"
        },
        {
          "name": "layers.batch_normalization_7.vars.1",
          "shape": [
            88
          ],
          "dtype": "float32"
        },
        {
          "name": "layers.batch_normalization_7.vars.2",
          "shape": [
            88
          ],
          "dtype": "float32"
        },
        {
          "name": "layers.batch_normalization_7.vars.3",
          "shape": [
            88
          ],
          "dtype": "float32"
        },
        {
          "name": "layers.batch_normalization_8.vars.0",
          "shape": [
            24
          ],
          "dtype": "float32"
        },
        {
          "name": "layers.batch_normalization_8.vars.1",
          "shape": [
            24
          ],
          "dtype": "float32"
        },
        {
          "name": "layers.batch_normalization_8.vars.2",
          "shape": [
            24
          ],
          "dtype": "float32"
        },
        {
          "name": "layers.batch_normalization_8.vars.3",
          "shape": [
            24
          ],
          "dtype": "float32"
        },
        {
          "name": "layers.batch_normalization_9.vars.0",
          "shape": [
            96
          ],
          "dtype": "float32"
        },
        {
          "name": "layers.batch_normalization_9.vars.1",
          "shape": [
            96
          ],
          "dtype": "float32"
        },
        {
          "name": "layers.batch_normalization_9.vars.2",
          "shape": [
            96
          ],
          "dtype": "float32"
        },
        {
          "name": "layers.batch_normalization_9.vars.3",
          "shape": [
            96
          ],
          "dtype": "float32"
        },
        {
          "name": "layers.conv2d.vars.0",
          "shape": [
            3,
            3,
            3,
            16
          ],
          "dtype": "float32"
        },
        {
          "name": "layers.conv2d_1.vars.0",
          "shape": [
            1,
            1,
            16,
            16
          ],
          "dtype": "float32"
        },
        {
          "name": "layers.conv2d_10.vars.0",
          "shape": [
            1,
            1,
            40,
            240
          ],
          "dtype": "float32"
        },
        {
          "name": "layers.conv2d_11.vars.0",
          "shape": [
            1,
            1,
            240,
            40
          ],
          "dtype": "float32"
        },
        {
          "name": "layers.conv2d_12.vars.0",
          "shape": [
            1,
            1,
            40,
            120
          ],
          "dtype": "float32"
        },
        {
          "name": "layers.conv2d_13.vars.0",
          "shape": [
            1,
            1,
            120,
            48
          ],
          "dtype": "float32"
        },
        {
          "name": "layers.conv2d_14.vars.0",
          "shape": [
            1,
            1,
            48,
            144
          ],
          "dtype": "float32"
        },
        {
          "name": "layers.conv2d_15.vars.0",
          "shape": [
            1,
            1,
            144,
            48
          ],
          "dtype": "float32"
        },
        {
          "name": "layers.conv2d_16.vars.0",
          "shape": [
            1,
            1,
            48,
            288
          ],
          "dtype": "float32"
        },
        {
          "name": "layers.conv2d_17.vars.0",
          "shape": [
            1,
            1,
            288,
            96
          ],
          "dtype": "float32"
        },
        {
          "name": "layers.conv2d_18.vars.0",
          "shape": [
            1,
            1,
            96,
            576
          ],
          "dtype": "float32"
        },
        {
          "name": "layers.conv2d_19.vars.0",
          "shape": [
            1,
            1,
            576,
            96
          ],
          "dtype": "float32"
        },
        {
          "name": "layers.conv2d_2.vars.0",
          "shape": [
            1,
            1,
            16,
            72
          ],
          "dtype": "float32"
        },
        {
          "name": "layers.conv2d_20.vars.0",
          "shape": [
            1,
            1,
            96,
            576
          ],
          "dtype": "float32"
        },
        {
          "name": "layers.conv2d_21.vars.0",
          "shape": [
            1,
            1,
            576,
            96
          ],
          "dtype": "float32"
        },
        {
          "name": "layers.conv2d_22.vars.0",
          "shape": [
            1,
            1,
            96,
            576
          ],
          "dtype": "float32"
        },
        {
          "name": "layers.conv2d_3.vars.0",
          "shape": [
            1,
            1,
            72,
            24
          ],
          "dtype": "float32"
        },
        {
          "name": "layers.conv2d_4.vars.0",
          "shape": [
            1,
            1,
            24,
            88
          ],
          "dtype": "float32"
        },
        {
          "name": "layers.conv2d_5.vars.0",
          "shape": [
            1,
            1,
            88,
            24
          ],
          "dtype": "float32"
        },
        {
          "name": "layers.conv2d_6.vars.0",
          "shape": [
            1,
            1,
            24,
            96
          ],
          "dtype": "float32"
        },
        {
          "name": "layers.conv2d_7.vars.0",
          "shape": [
            1,
            1,
            96,
            40
          ],
          "dtype": "float32"
        },
        {
          "name": "layers.conv2d_8.vars.0",
          "shape": [
            1,
            1,
            40,
            240
          ],
          "dtype": "float32"
        },
        {
          "name": "layers.conv2d_9.vars.0",
          "shape": [
            1,
            1,
            240,
            40
          ],
          "dtype": "float32"
        },
        {
          "name": "layers.dense.vars.0",
          "shape": [
            576,
            256
          ],
          "dtype": "float32"
        },
        {
          "name": "layers.dense.vars.1",
          "shape": [
            256
          ],
          "dtype": "float32"
        },
        {
          "name": "layers.dense_1.vars.0",
          "shape": [
            256,
            128
          ],
          "dtype": "float32"
        },
        {
          "name": "layers.dense_1.vars.1",
          "shape": [
            128
          ],
          "dtype": "float32"
        },
        {
          "name": "layers.dense_2.vars.0",
          "shape": [
            128,
            1
          ],
          "dtype": "float32"
        },
        {
          "name": "layers.dense_2.vars.1",
          "shape": [
            1
          ],
          "dtype": "float32"
        },
        {
          "name": "layers.depthwise_conv2d.vars.0",
          "shape": [
            3,
            3,
            16,
            1
          ],
          "dtype": "float32"
        },
        {
          "name": "layers.depthwise_conv2d_1.vars.0",
          "shape": [
            3,
            3,
            72,
            1
          ],
          "dtype": "float32"
        },
        {
          "name": "layers.depthwise_conv2d_10.vars.0",
          "shape": [
            3,
            3,
            576,
            1
          ],
          "dtype": "float32"
        },
        {
          "name": "layers.depthwise_conv2d_2.vars.0",
          "shape": [
            3,
            3,
            88,
            1
          ],
          "dtype": "float32"
        },
        {
          "name": "layers.depthwise_conv2d_3.vars.0",
          "shape": [
            3,
            3,
            96,
            1
          ],
          "dtype": "float32"
        },
        {
          "name": "layers.depthwise_conv2d_4.vars.0",
          "shape": [
            3,
            3,
            240,
            1
          ],
          "dtype": "float32"
        },
        {
          "name": "layers.depthwise_conv2d_5.vars.0",
          "shape": [
            3,
            3,
            240,
            1
          ],
          "dtype": "float32"
        },
        {
          "name": "layers.depthwise_conv2d_6.vars.0",
          "shape": [
            3,
            3,
            120,
            1
          ],
          "dtype": "float32"
        },
        {
          "name": "layers.depthwise_conv2d_7.vars.0",
          "shape": [
            3,
            3,
            144,
            1
          ],
          "dtype": "float32"
        },
        {
          "name": "layers.depthwise_conv2d_8.vars.0",
          "shape": [
            3,
            3,
            288,
            1
          ],
          "dtype": "float32"
        },
        {
          "name": "layers.depthwise_conv2d_9.vars.0",
          "shape": [
            3,
            3,
            576,
            1
          ],
          "dtype": "float32"
        },
        {
          "name": "optimizer.inner_optimizer.vars.1",
          "shape": [
            1,
            1,
            48,
            288
          ],
          "dtype": "float32"
        },
        {
          "name": "optimizer.inner_optimizer.vars.10",
          "shape": [
            288
          ],
          "dtype": "float32"
        },
        {
          "name": "optimizer.inner_optimizer.vars.11",
          "shape": [
            288
          ],
          "dtype": "float32"
        },
        {
          "name": "optimizer.inner_optimizer.vars.12",
          "shape": [
            288
          ],
          "dtype": "float32"
        },
        {
          "name": "optimizer.inner_optimizer.vars.13",
          "shape": [
            1,
            1,
            288,
            96
          ],
          "dtype": "float32"
        },
        {
          "name": "optimizer.inner_optimizer.vars.14",
          "shape": [
            1,
            1,
            288,
            96
          ],
          "dtype": "float32"
        },
        {
          "name": "optimizer.inner_optimizer.vars.15",
          "shape": [
            96
          ],
          "dtype": "float32"
        },
        {
          "name": "optimizer.inner_optimizer.vars.16",
          "shape": [
            96
          ],
          "dtype": "float32"
        },
        {
          "name": "optimizer.inner_optimizer.vars.17",
          "shape": [
            96
          ],
          "dtype": "float32"
        },
        {
          "name": "optimizer.inner_optimizer.vars.18",
          "shape": [
            96
          ],
          "dtype": "float32"
        },
        {
          "name": "optimizer.inner_optimizer.vars.19",
          "shape": [
            1,
            1,
            96,
            576
          ],
          "dtype": "float32"
        },
        {
          "name": "optimizer.inner_optimizer.vars.2",
          "shape": [
            1,
            1,
            48,
            288
          ],
          "dtype": "float32"
        },
        {
          "name": "optimizer.inner_optimizer.vars.20",
          "shape": [
            1,
            1,
            96,
            576
          ],
          "dtype": "float32"
        },
        {
          "name": "optimizer.inner_optimizer.vars.21",
          "shape": [
            576
          ],
          "dtype": "float32"
        },
        {
          "name": "optimizer.inner_optimizer.vars.22",
          "shape": [
            576
          ],
          "dtype": "float32"
        },
        {
          "name": "optimizer.inner_optimizer.vars.23",
          "shape": [
            576
          ],
          "dtype": "float32"
        },
        {
          "name": "optimizer.inner_optimizer.vars.24",
          "shape": [
            576
          ],
          "dtype": "float32"
        },
        {
          "name": "optimizer.inner_optimizer.vars.25",
          "shape": [
            3,
            3,
            576,
            1
          ],
          "dtype": "float32"
        },
        {
          "name": "optimizer.inner_optimizer.vars.26",
          "shape": [
            3,
            3,
            576,
            1
          ],
          "dtype": "float32"
        },
        {
          "name": "optimizer.inner_optimizer.vars.27",
          "shape": [
            576
          ],
          "dtype": "float32"
        },
        {
          "name": "optimizer.inner_optimizer.vars.28",
          "shape": [
            576
          ],
          "dtype": "float32"
        },
        {
          "name": "optimizer.inner_optimizer.vars.29",
          "shape": [
            576
          ],
          "dtype": "float32"
        },
        {
          "name": "optimizer.inner_optimizer.vars.3",
          "shape": [
            288
          ],
          "dtype": "float32"
        },
        {
          "name": "optimizer.inner_optimizer.vars.30",
          "shape": [
            576
          ],
          "dtype": "float32"
        },
        {
          "name": "optimizer.inner_optimizer.vars.31",
          "shape": [
            1,
            1,
            576,
            96
          ],
          "dtype": "float32"
        },
        {
          "name": "optimizer.inner_optimizer.vars.32",
          "shape": [
            1,
            1,
            576,
            96
          ],
          "dtype": "float32"
        },
        {
          "name": "optimizer.inner_optimizer.vars.33",
          "shape": [
            96
          ],
          "dtype": "float32"
        },
        {
          "name": "optimizer.inner_optimizer.vars.34",
          "shape": [
            96
          ],
          "dtype": "float32"
        },
        {
          "name": "optimizer.inner_optimizer.vars.35",
          "shape": [
            96
          ],
          "dtype": "float32"
        },
        {
          "name": "optimizer.inner_optimizer.vars.36",
          "shape": [
            96
          ],
          "dtype": "float32"
        },
        {
          "name": "optimizer.inner_optimizer.vars.37",
          "shape": [
            1,
            1,
            96,
            576
          ],
          "dtype": "float32"
        },
        {
          "name": "optimizer.inner_optimizer.vars.38",
          "shape": [
            1,
            1,
            96,
            576
          ],
          "dtype": "float32"
        },
        {
          "name": "optimizer.inner_optimizer.vars.39",
          "shape": [
            576
          ],
          "dtype": "float32"
        },
        {
          "name": "optimizer.inner_optimizer.vars.4",
          "shape": [
            288
          ],
          "dtype": "float32"
        },
        {
          "name": "optimizer.inner_optimizer.vars.40",
          "shape": [
            576
          ],
          "dtype": "float32"
        },
        {
          "name": "optimizer.inner_optimizer.vars.41",
          "shape": [
            576
          ],
          "dtype": "float32"
        },
        {
          "name": "optimizer.inner_optimizer.vars.42",
          "shape": [
            576
          ],
          "dtype": "float32"
        },
        {
          "name": "optimizer.inner_optimizer.vars.43",
          "shape": [
            3,
            3,
            576,
            1
          ],
          "dtype": "float32"
        },
        {
          "name": "optimizer.inner_optimizer.vars.44",
          "shape": [
            3,
            3,
            576,
            1
          ],
          "dtype": "float32"
        },
        {
          "name": "optimizer.inner_optimizer.vars.45",
          "shape": [
            576
          ],
          "dtype": "float32"
        },
        {
          "name": "optimizer.inner_optimizer.vars.46",
          "shape": [
            576
          ],
          "dtype": "float32"
        },
        {
          "name": "optimizer.inner_optimizer.vars.47",
          "shape": [
            576
          ],
          "dtype": "float32"
        },
        {
          "name": "optimizer.inner_optimizer.vars.48",
          "shape": [
            576
          ],
          "dtype": "float32"
        },
        {
          "name": "optimizer.inner_optimizer.vars.49",
          "shape": [
            1,
            1,
            576,
            96
          ],
          "dtype": "float32"
        },
        {
          "name": "optimizer.inner_optimizer.vars.5",
          "shape": [
            288
          ],
          "dtype": "float32"
        },
        {
          "name": "optimizer.inner_optimizer.vars.50",
          "shape": [
            1,
            1,
            576,
            96
          ],
          "dtype": "float32"
        },
        {
          "name": "optimizer.inner_optimizer.vars.51",
          "shape": [
            96
          ],
          "dtype": "float32"
        },
        {
          "name": "optimizer.inner_optimizer.vars.52",
          "shape": [
            96
          ],
          "dtype": "float32"
        },
        {
          "name": "optimizer.inner_optimizer.vars.53",
          "shape": [
            96
          ],
          "dtype": "float32"
        },
        {
          "name": "optimizer.inner_optimizer.vars.54",
          "shape": [
            96
          ],
          "dtype": "float32"
        },
        {
          "name": "optimizer.inner_optimizer.vars.55",
          "shape": [
            1,
            1,
            96,
            576
          ],
          "dtype": "float32"
        },
        {
          "name": "optimizer.inner_optimizer.vars.56",
          "shape": [
            1,
            1,
            96,
            576
          ],
          "dtype": "float32"
        },
        {
          "name": "optimizer.inner_optimizer.vars.57",
          "shape": [
            576
          ],
          "dtype": "float32"
        },
        {
          "name": "optimizer.inner_optimizer.vars.58",
          "shape": [
            576
          ],
          "dtype": "float32"
        },
        {
          "name": "optimizer.inner_optimizer.vars.59",
          "shape": [
            576
          ],
          "dtype": "float32"
        },
        {
          "name": "optimizer.inner_optimizer.vars.6",
          "shape": [
            288
          ],
          "dtype": "float32"
        },
        {
          "name": "optimizer.inner_optimizer.vars.60",
          "shape": [
            576
          ],
          "dtype": "float32"
        },
        {
          "name": "optimizer.inner_optimizer.vars.61",
          "shape": [
            576,
            256
          ],
          "dtype": "float32"
        },
        {
          "name": "optimizer.inner_optimizer.vars.62",
          "shape": [
            576,
            256
          ],
          "dtype": "float32"
        },
        {
          "name": "optimizer.inner_optimizer.vars.63",
          "shape": [
            256
          ],
          "dtype": "float32"
        },
        {
          "name": "optimizer.inner_optimizer.vars.64",
          "shape": [
            256
          ],
          "dtype": "float32"
        },
        {
          "name": "optimizer.inner_optimizer.vars.65",
          "shape": [
            256,
            128
          ],
          "dtype": "float32"
        },
        {
          "name": "optimizer.inner_optimizer.vars.66",
          "shape": [
            256,
            128
          ],
          "dtype": "float32"
        },
        {
          "name": "optimizer.inner_optimizer.vars.67",
          "shape": [
            128
          ],
          "dtype": "float32"
        },
        {
          "name": "optimizer.inner_optimizer.vars.68",
          "shape": [
            128
          ],
          "dtype": "float32"
        },
        {
          "name": "optimizer.inner_optimizer.vars.69",
          "shape": [
            128,
            1
          ],
          "dtype": "float32"
        },
        {
          "name": "optimizer.inner_optimizer.vars.7",
          "shape": [
            3,
            3,
            288,
            1
          ],
          "dtype": "float32"
        },
        {
          "name": "optimizer.inner_optimizer.vars.70",
          "shape": [
            128,
            1
          ],
          "dtype": "float32"
        },
        {
          "name": "optimizer.inner_optimizer.vars.71",
          "shape": [
            1
          ],
          "dtype": "float32"
        },
        {
          "name": "optimizer.inner_optimizer.vars.72",
          "shape": [
            1
          ],
          "dtype": "float32"
        },
        {
          "name": "optimizer.inner_optimizer.vars.8",
          "shape": [
            3,
            3,
            288,
            1
          ],
          "dtype": "float32"
        },
        {
          "name": "optimizer.inner_optimizer.vars.9",
          "shape": [
            288
          ],
          "dtype": "float32"
        },
        {
          "name": "optimizer.vars.10",
          "shape": [
            288
          ],
          "dtype": "float32"
        },
        {
          "name": "optimizer.vars.11",
          "shape": [
            3,
            3,
            288,
            1
          ],
          "dtype": "float32"
        },
        {
          "name": "optimizer.vars.12",
          "shape": [
            3,
            3,
            288,
            1
          ],
          "dtype": "float32"
        },
        {
          "name": "optimizer.vars.13",
          "shape": [
            288
          ],
          "dtype": "float32"
        },
        {
          "name": "optimizer.vars.14",
          "shape": [
            288
          ],
          "dtype": "float32"
        },
        {
          "name": "optimizer.vars.15",
          "shape": [
            288
          ],
          "dtype": "float32"
        },
        {
          "name": "optimizer.vars.16",
          "shape": [
            288
          ],
          "dtype": "float32"
        },
        {
          "name": "optimizer.vars.17",
          "shape": [
            1,
            1,
            288,
            96
          ],
          "dtype": "float32"
        },
        {
          "name": "optimizer.vars.18",
          "shape": [
            1,
            1,
            288,
            96
          ],
          "dtype": "float32"
        },
        {
          "name": "optimizer.vars.19",
          "shape": [
            96
          ],
          "dtype": "float32"
        },
        {
          "name": "optimizer.vars.20",
          "shape": [
            96
          ],
          "dtype": "float32"
        },
        {
          "name": "optimizer.vars.21",
          "shape": [
            96
          ],
          "dtype": "float32"
        },
        {
          "name": "optimizer.vars.22",
          "shape": [
            96
          ],
          "dtype": "float32"
        },
        {
          "name": "optimizer.vars.23",
          "shape": [
            1,
            1,
            96,
            576
          ],
          "dtype": "float32"
        },
        {
          "name": "optimizer.vars.24",
          "shape": [
            1,
            1,
            96,
            576
          ],
          "dtype": "float32"
        },
        {
          "name": "optimizer.vars.25",
          "shape": [
            576
          ],
          "dtype": "float32"
        },
        {
          "name": "optimizer.vars.26",
          "shape": [
            576
          ],
          "dtype": "float32"
        },
        {
          "name": "optimizer.vars.27",
          "shape": [
            576
          ],
          "dtype": "float32"
        },
        {
          "name": "optimizer.vars.28",
          "shape": [
            576
          ],
          "dtype": "float32"
        },
        {
          "name": "optimizer.vars.29",
          "shape": [
            3,
            3,
            576,
            1
          ],
          "dtype": "float32"
        },
        {
          "name": "optimizer.vars.30",
          "shape": [
            3,
            3,
            576,
            1
          ],
          "dtype": "float32"
        },
        {
          "name": "optimizer.vars.31",
          "shape": [
            576
          ],
          "dtype": "float32"
        },
        {
          "name": "optimizer.vars.32",
          "shape": [
            576
          ],
          "dtype": "float32"
        },
        {
          "name": "optimizer.vars.33",
          "shape": [
            576
          ],
          "dtype": "float32"
        },
        {
          "name": "optimizer.vars.34",
          "shape": [
            576
          ],
          "dtype": "float32"
        },
        {
          "name": "optimizer.vars.35",
          "shape": [
            1,
            1,
            576,
            96
          ],
          "dtype": "float32"
        },
        {
          "name": "optimizer.vars.36",
          "shape": [
            1,
            1,
            576,
            96
          ],
          "dtype": "float32"
        },
        {
          "name": "optimizer.vars.37",
          "shape": [
            96
          ],
          "dtype": "float32"
        },
        {
          "name": "optimizer.vars.38",
          "shape": [
            96
          ],
          "dtype": "float32"
        },
        {
          "name": "optimizer.vars.39",
          "shape": [
            96
          ],
          "dtype": "float32"
        },
        {
          "name": "optimizer.vars.40",
          "shape": [
            96
          ],
          "dtype": "float32"
        },
        {
          "name": "optimizer.vars.41",
          "shape": [
            1,
            1,
            96,
            576
          ],
          "dtype": "float32"
        },
        {
          "name": "optimizer.vars.42",
          "shape": [
            1,
            1,
            96,
            576
          ],
          "dtype": "float32"
        },
        {
          "name": "optimizer.vars.43",
          "shape": [
            576
          ],
          "dtype": "float32"
        },
        {
          "name": "optimizer.vars.44",
          "shape": [
            576
          ],
          "dtype": "float32"
        },
        {
          "name": "optimizer.vars.45",
          "shape": [
            576
          ],
          "dtype": "float32"
        },
        {
          "name": "optimizer.vars.46",
          "shape": [
            576
          ],
          "dtype": "float32"
        },
        {
          "name": "optimizer.vars.47",
          "shape": [
            3,
            3,
            576,
            1
          ],
          "dtype": "float32"
        },
        {
          "name": "optimizer.vars.48",
          "shape": [
            3,
            3,
            576,
            1
          ],
          "dtype": "float32"
        },
        {
          "name": "optimizer.vars.49",
          "shape": [
            576
          ],
          "dtype": "float32"
        },
        {
          "name": "optimizer.vars.5",
          "shape": [
            1,
            1,
            48,
            288
          ],
          "dtype": "float32"
        },
        {
          "name": "optimizer.vars.50",
          "shape": [
            576
          ],
          "dtype": "float32"
        },
        {
          "name": "optimizer.vars.51",
          "shape": [
            576
          ],
          "dtype": "float32"
        },
        {
          "name": "optimizer.vars.52",
          "shape": [
            576
          ],
          "dtype": "float32"
        },
        {
          "name": "optimizer.vars.53",
          "shape": [
            1,
            1,
            576,
            96
          ],
          "dtype": "float32"
        },
        {
          "name": "optimizer.vars.54",
          "shape": [
            1,
            1,
            576,
            96
          ],
          "dtype": "float32"
        },
        {
          "name": "optimizer.vars.55",
          "shape": [
            96
          ],
          "dtype": "float32"
        },
        {
          "name": "optimizer.vars.56",
          "shape": [
            96
          ],
          "dtype": "float32"
        },
        {
          "name": "optimizer.vars.57",
          "shape": [
            96
          ],
          "dtype": "float32"
        },
        {
          "name": "optimizer.vars.58",
          "shape": [
            96
          ],
          "dtype": "float32"
        },
        {
          "name": "optimizer.vars.59",
          "shape": [
            1,
            1,
            96,
            576
          ],
          "dtype": "float32"
        },
        {
          "name": "optimizer.vars.6",
          "shape": [
            1,
            1,
            48,
            288
          ],
          "dtype": "float32"
        },
        {
          "name": "optimizer.vars.60",
          "shape": [
            1,
            1,
            96,
            576
          ],
          "dtype": "float32"
        },
        {
          "name": "optimizer.vars.61",
          "shape": [
            576
          ],
          "dtype": "float32"
        },
        {
          "name": "optimizer.vars.62",
          "shape": [
            576
          ],
          "dtype": "float32"
        },
        {
          "name": "optimizer.vars.63",
          "shape": [
            576
          ],
          "dtype": "float32"
        },
        {
          "name": "optimizer.vars.64",
          "shape": [
            576
          ],
          "dtype": "float32"
        },
        {
          "name": "optimizer.vars.65",
          "shape": [
            576,
            256
          ],
          "dtype": "float32"
        },
        {
          "name": "optimizer.vars.66",
          "shape": [
            576,
            256
          ],
          "dtype": "float32"
        },
        {
          "name": "optimizer.vars.67",
          "shape": [
            256
          ],
          "dtype": "float32"
        },
        {
          "name": "optimizer.vars.68",
          "shape": [
            256
          ],
          "dtype": "float32"
        },
        {
          "name": "optimizer.vars.69",
          "shape": [
            256,
            128
          ],
          "dtype": "float32"
        },
        {
          "name": "optimizer.vars.7",
          "shape": [
            288
          ],
          "dtype": "float32"
        },
        {
          "name": "optimizer.vars.70",
          "shape": [
            256,
            128
          ],
          "dtype": "float32"
        },
        {
          "name": "optimizer.vars.71",
          "shape": [
            128
          ],
          "dtype": "float32"
        },
        {
          "name": "optimizer.vars.72",
          "shape": [
            128
          ],
          "dtype": "float32"
        },
        {
          "name": "optimizer.vars.73",
          "shape": [
            128,
            1
          ],
          "dtype": "float32"
        },
        {
          "name": "optimizer.vars.74",
          "shape": [
            128,
            1
          ],
          "dtype": "float32"
        },
        {
          "name": "optimizer.vars.75",
          "shape": [
            1
          ],
          "dtype": "float32"
        },
        {
          "name": "optimizer.vars.76",
          "shape": [
            1
          ],
          "dtype": "float32"
        },
        {
          "name": "optimizer.vars.8",
          "shape": [
            288
          ],
          "dtype": "float32"
        },
        {
          "name": "optimizer.vars.9",
          "shape": [
            288
          ],
          "dtype": "float32"
        }
      ]
    }
  ]
}