{
  "format": "layers-model",
  "generatedBy": "keras 3.x",
  "convertedBy": "manual",
  "modelTopology": {
    "module": "keras.src.models.functional",
    "class_name": "Model",
    "config": {
      "name": "specialist_resnet50v2",
      "trainable": true,
      "layers": [
        {
          "module": "keras.layers",
          "class_name": "InputLayer",
          "config": {
            "batch_input_shape": [
              null,
              224,
              224,
              3
            ],
            "dtype": "float32",
            "sparse": false,
            "ragged": false,
            "name": "specialist_resnet50v2_input"
          },
          "registered_name": null,
          "name": "specialist_resnet50v2_input",
          "inbound_nodes": []
        },
        {
          "module": "keras.layers",
          "class_name": "ZeroPadding2D",
          "config": {
            "name": "conv1_pad",
            "trainable": false,
            "dtype": "float32",
            "padding": [
              [
                3,
                3
              ],
              [
                3,
                3
              ]
            ],
            "data_format": "channels_last"
          },
          "registered_name": null,
          "build_config": {
            "input_shape": [
              null,
              224,
              224,
              3
            ]
          },
          "name": "conv1_pad",
          "inbound_nodes": [
            [
              [
                "specialist_resnet50v2_input",
                0,
                0,
                {}
              ]
            ]
          ]
        },
        {
          "module": "keras.layers",
          "class_name": "Conv2D",
          "config": {
            "name": "conv1_conv",
            "trainable": false,
            "dtype": "float32",
            "filters": 64,
            "kernel_size": [
              7,
              7
            ],
            "strides": [
              2,
              2
            ],
            "padding": "valid",
            "data_format": "channels_last",
            "dilation_rate": [
              1,
              1
            ],
            "groups": 1,
            "activation": "linear",
            "use_bias": true,
            "kernel_initializer": {
              "module": "keras.initializers",
              "class_name": "GlorotUniform",
              "config": {
                "seed": null
              },
              "registered_name": null
            },
            "bias_initializer": {
              "module": "keras.initializers",
              "class_name": "Zeros",
              "config": {},
              "registered_name": null
            },
            "kernel_regularizer": null,
            "bias_regularizer": null,
            "activity_regularizer": null,
            "kernel_constraint": null,
            "bias_constraint": null
          },
          "registered_name": null,
          "build_config": {
            "input_shape": [
              null,
              230,
              230,
              3
            ]
          },
          "name": "conv1_conv",
          "inbound_nodes": [
            [
              [
                "conv1_pad",
                0,
                0,
                {}
              ]
            ]
          ]
        },
        {
          "module": "keras.layers",
          "class_name": "ZeroPadding2D",
          "config": {
            "name": "pool1_pad",
            "trainable": false,
            "dtype": "float32",
            "padding": [
              [
                1,
                1
              ],
              [
                1,
                1
              ]
            ],
            "data_format": "channels_last"
          },
          "registered_name": null,
          "build_config": {
            "input_shape": [
              null,
              112,
              112,
              64
            ]
          },
          "name": "pool1_pad",
          "inbound_nodes": [
            [
              [
                "conv1_conv",
                0,
                0,
                {}
              ]
            ]
          ]
        },
        {
          "module": "keras.layers",
          "class_name": "MaxPooling2D",
          "config": {
            "name": "pool1_pool",
            "trainable": false,
            "dtype": "float32",
            "pool_size": [
              3,
              3
            ],
            "padding": "valid",
            "strides": [
              2,
              2
            ],
            "data_format": "channels_last"
          },
          "registered_name": null,
          "name": "pool1_pool",
          "inbound_nodes": [
            [
              [
                "pool1_pad",
                0,
                0,
                {}
              ]
            ]
          ]
        },
        {
          "module": "keras.layers",
          "class_name": "BatchNormalization",
          "config": {
            "name": "conv2_block1_preact_bn",
            "trainable": false,
            "dtype": "float32",
            "axis": 3,
            "momentum": 0.99,
            "epsilon": 0.00001001,
            "center": true,
            "scale": true,
            "beta_initializer": {
              "module": "keras.initializers",
              "class_name": "Zeros",
              "config": {},
              "registered_name": null
            },
            "gamma_initializer": {
              "module": "keras.initializers",
              "class_name": "Ones",
              "config": {},
              "registered_name": null
            },
            "moving_mean_initializer": {
              "module": "keras.initializers",
              "class_name": "Zeros",
              "config": {},
              "registered_name": null
            },
            "moving_variance_initializer": {
              "module": "keras.initializers",
              "class_name": "Ones",
              "config": {},
              "registered_name": null
            },
            "beta_regularizer": null,
            "gamma_regularizer": null,
            "beta_constraint": null,
            "gamma_constraint": null,
            "synchronized": false
          },
          "registered_name": null,
          "build_config": {
            "input_shape": [
              null,
              56,
              56,
              64
            ]
          },
          "name": "conv2_block1_preact_bn",
          "inbound_nodes": [
            [
              [
                "pool1_pool",
                0,
                0,
                {}
              ]
            ]
          ]
        },
        {
          "module": "keras.layers",
          "class_name": "Activation",
          "config": {
            "name": "conv2_block1_preact_relu",
            "trainable": false,
            "dtype": "float32",
            "activation": "relu"
          },
          "registered_name": null,
          "name": "conv2_block1_preact_relu",
          "inbound_nodes": [
            [
              [
                "conv2_block1_preact_bn",
                0,
                0,
                {}
              ]
            ]
          ]
        },
        {
          "module": "keras.layers",
          "class_name": "Conv2D",
          "config": {
            "name": "conv2_block1_1_conv",
            "trainable": false,
            "dtype": "float32",
            "filters": 64,
            "kernel_size": [
              1,
              1
            ],
            "strides": [
              1,
              1
            ],
            "padding": "valid",
            "data_format": "channels_last",
            "dilation_rate": [
              1,
              1
            ],
            "groups": 1,
            "activation": "linear",
            "use_bias": false,
            "kernel_initializer": {
              "module": "keras.initializers",
              "class_name": "GlorotUniform",
              "config": {
                "seed": null
              },
              "registered_name": null
            },
            "bias_initializer": {
              "module": "keras.initializers",
              "class_name": "Zeros",
              "config": {},
              "registered_name": null
            },
            "kernel_regularizer": null,
            "bias_regularizer": null,
            "activity_regularizer": null,
            "kernel_constraint": null,
            "bias_constraint": null
          },
          "registered_name": null,
          "build_config": {
            "input_shape": [
              null,
              56,
              56,
              64
            ]
          },
          "name": "conv2_block1_1_conv",
          "inbound_nodes": [
            [
              [
                "conv2_block1_preact_relu",
                0,
                0,
                {}
              ]
            ]
          ]
        },
        {
          "module": "keras.layers",
          "class_name": "BatchNormalization",
          "config": {
            "name": "conv2_block1_1_bn",
            "trainable": false,
            "dtype": "float32",
            "axis": 3,
            "momentum": 0.99,
            "epsilon": 0.00001001,
            "center": true,
            "scale": true,
            "beta_initializer": {
              "module": "keras.initializers",
              "class_name": "Zeros",
              "config": {},
              "registered_name": null
            },
            "gamma_initializer": {
              "module": "keras.initializers",
              "class_name": "Ones",
              "config": {},
              "registered_name": null
            },
            "moving_mean_initializer": {
              "module": "keras.initializers",
              "class_name": "Zeros",
              "config": {},
              "registered_name": null
            },
            "moving_variance_initializer": {
              "module": "keras.initializers",
              "class_name": "Ones",
              "config": {},
              "registered_name": null
            },
            "beta_regularizer": null,
            "gamma_regularizer": null,
            "beta_constraint": null,
            "gamma_constraint": null,
            "synchronized": false
          },
          "registered_name": null,
          "build_config": {
            "input_shape": [
              null,
              56,
              56,
              64
            ]
          },
          "name": "conv2_block1_1_bn",
          "inbound_nodes": [
            [
              [
                "conv2_block1_1_conv",
                0,
                0,
                {}
              ]
            ]
          ]
        },
        {
          "module": "keras.layers",
          "class_name": "Activation",
          "config": {
            "name": "conv2_block1_1_relu",
            "trainable": false,
            "dtype": "float32",
            "activation": "relu"
          },
          "registered_name": null,
          "name": "conv2_block1_1_relu",
          "inbound_nodes": [
            [
              [
                "conv2_block1_1_bn",
                0,
                0,
                {}
              ]
            ]
          ]
        },
        {
          "module": "keras.layers",
          "class_name": "ZeroPadding2D",
          "config": {
            "name": "conv2_block1_2_pad",
            "trainable": false,
            "dtype": "float32",
            "padding": [
              [
                1,
                1
              ],
              [
                1,
                1
              ]
            ],
            "data_format": "channels_last"
          },
          "registered_name": null,
          "build_config": {
            "input_shape": [
              null,
              56,
              56,
              64
            ]
          },
          "name": "conv2_block1_2_pad",
          "inbound_nodes": [
            [
              [
                "conv2_block1_1_relu",
                0,
                0,
                {}
              ]
            ]
          ]
        },
        {
          "module": "keras.layers",
          "class_name": "Conv2D",
          "config": {
            "name": "conv2_block1_2_conv",
            "trainable": false,
            "dtype": "float32",
            "filters": 64,
            "kernel_size": [
              3,
              3
            ],
            "strides": [
              1,
              1
            ],
            "padding": "valid",
            "data_format": "channels_last",
            "dilation_rate": [
              1,
              1
            ],
            "groups": 1,
            "activation": "linear",
            "use_bias": false,
            "kernel_initializer": {
              "module": "keras.initializers",
              "class_name": "GlorotUniform",
              "config": {
                "seed": null
              },
              "registered_name": null
            },
            "bias_initializer": {
              "module": "keras.initializers",
              "class_name": "Zeros",
              "config": {},
              "registered_name": null
            },
            "kernel_regularizer": null,
            "bias_regularizer": null,
            "activity_regularizer": null,
            "kernel_constraint": null,
            "bias_constraint": null
          },
          "registered_name": null,
          "build_config": {
            "input_shape": [
              null,
              58,
              58,
              64
            ]
          },
          "name": "conv2_block1_2_conv",
          "inbound_nodes": [
            [
              [
                "conv2_block1_2_pad",
                0,
                0,
                {}
              ]
            ]
          ]
        },
        {
          "module": "keras.layers",
          "class_name": "BatchNormalization",
          "config": {
            "name": "conv2_block1_2_bn",
            "trainable": false,
            "dtype": "float32",
            "axis": 3,
            "momentum": 0.99,
            "epsilon": 0.00001001,
            "center": true,
            "scale": true,
            "beta_initializer": {
              "module": "keras.initializers",
              "class_name": "Zeros",
              "config": {},
              "registered_name": null
            },
            "gamma_initializer": {
              "module": "keras.initializers",
              "class_name": "Ones",
              "config": {},
              "registered_name": null
            },
            "moving_mean_initializer": {
              "module": "keras.initializers",
              "class_name": "Zeros",
              "config": {},
              "registered_name": null
            },
            "moving_variance_initializer": {
              "module": "keras.initializers",
              "class_name": "Ones",
              "config": {},
              "registered_name": null
            },
            "beta_regularizer": null,
            "gamma_regularizer": null,
            "beta_constraint": null,
            "gamma_constraint": null,
            "synchronized": false
          },
          "registered_name": null,
          "build_config": {
            "input_shape": [
              null,
              56,
              56,
              64
            ]
          },
          "name": "conv2_block1_2_bn",
          "inbound_nodes": [
            [
              [
                "conv2_block1_2_conv",
                0,
                0,
                {}
              ]
            ]
          ]
        },
        {
          "module": "keras.layers",
          "class_name": "Activation",
          "config": {
            "name": "conv2_block1_2_relu",
            "trainable": false,
            "dtype": "float32",
            "activation": "relu"
          },
          "registered_name": null,
          "name": "conv2_block1_2_relu",
          "inbound_nodes": [
            [
              [
                "conv2_block1_2_bn",
                0,
                0,
                {}
              ]
            ]
          ]
        },
        {
          "module": "keras.layers",
          "class_name": "Conv2D",
          "config": {
            "name": "conv2_block1_0_conv",
            "trainable": false,
            "dtype": "float32",
            "filters": 256,
            "kernel_size": [
              1,
              1
            ],
            "strides": [
              1,
              1
            ],
            "padding": "valid",
            "data_format": "channels_last",
            "dilation_rate": [
              1,
              1
            ],
            "groups": 1,
            "activation": "linear",
            "use_bias": true,
            "kernel_initializer": {
              "module": "keras.initializers",
              "class_name": "GlorotUniform",
              "config": {
                "seed": null
              },
              "registered_name": null
            },
            "bias_initializer": {
              "module": "keras.initializers",
              "class_name": "Zeros",
              "config": {},
              "registered_name": null
            },
            "kernel_regularizer": null,
            "bias_regularizer": null,
            "activity_regularizer": null,
            "kernel_constraint": null,
            "bias_constraint": null
          },
          "registered_name": null,
          "build_config": {
            "input_shape": [
              null,
              56,
              56,
              64
            ]
          },
          "name": "conv2_block1_0_conv",
          "inbound_nodes": [
            [
              [
                "conv2_block1_preact_relu",
                0,
                0,
                {}
              ]
            ]
          ]
        },
        {
          "module": "keras.layers",
          "class_name": "Conv2D",
          "config": {
            "name": "conv2_block1_3_conv",
            "trainable": false,
            "dtype": "float32",
            "filters": 256,
            "kernel_size": [
              1,
              1
            ],
            "strides": [
              1,
              1
            ],
            "padding": "valid",
            "data_format": "channels_last",
            "dilation_rate": [
              1,
              1
            ],
            "groups": 1,
            "activation": "linear",
            "use_bias": true,
            "kernel_initializer": {
              "module": "keras.initializers",
              "class_name": "GlorotUniform",
              "config": {
                "seed": null
              },
              "registered_name": null
            },
            "bias_initializer": {
              "module": "keras.initializers",
              "class_name": "Zeros",
              "config": {},
              "registered_name": null
            },
            "kernel_regularizer": null,
            "bias_regularizer": null,
            "activity_regularizer": null,
            "kernel_constraint": null,
            "bias_constraint": null
          },
          "registered_name": null,
          "build_config": {
            "input_shape": [
              null,
              56,
              56,
              64
            ]
          },
          "name": "conv2_block1_3_conv",
          "inbound_nodes": [
            [
              [
                "conv2_block1_2_relu",
                0,
                0,
                {}
              ]
            ]
          ]
        },
        {
          "module": "keras.layers",
          "class_name": "Add",
          "config": {
            "name": "conv2_block1_out",
            "trainable": false,
            "dtype": "float32"
          },
          "registered_name": null,
          "build_config": {
            "input_shape": [
              [
                null,
                56,
                56,
                256
              ],
              [
                null,
                56,
                56,
                256
              ]
            ]
          },
          "name": "conv2_block1_out",
          "inbound_nodes": [
            {
              "args": [
                [
                  {
                    "class_name": "__keras_tensor__",
                    "config": {
                      "shape": [
                        null,
                        56,
                        56,
                        256
                      ],
                      "dtype": "float32",
                      "keras_history": [
                        "conv2_block1_0_conv",
                        0,
                        0
                      ]
                    }
                  },
                  {
                    "class_name": "__keras_tensor__",
                    "config": {
                      "shape": [
                        null,
                        56,
                        56,
                        256
                      ],
                      "dtype": "float32",
                      "keras_history": [
                        "conv2_block1_3_conv",
                        0,
                        0
                      ]
                    }
                  }
                ]
              ],
              "kwargs": {}
            }
          ]
        },
        {
          "module": "keras.layers",
          "class_name": "BatchNormalization",
          "config": {
            "name": "conv2_block2_preact_bn",
            "trainable": false,
            "dtype": "float32",
            "axis": 3,
            "momentum": 0.99,
            "epsilon": 0.00001001,
            "center": true,
            "scale": true,
            "beta_initializer": {
              "module": "keras.initializers",
              "class_name": "Zeros",
              "config": {},
              "registered_name": null
            },
            "gamma_initializer": {
              "module": "keras.initializers",
              "class_name": "Ones",
              "config": {},
              "registered_name": null
            },
            "moving_mean_initializer": {
              "module": "keras.initializers",
              "class_name": "Zeros",
              "config": {},
              "registered_name": null
            },
            "moving_variance_initializer": {
              "module": "keras.initializers",
              "class_name": "Ones",
              "config": {},
              "registered_name": null
            },
            "beta_regularizer": null,
            "gamma_regularizer": null,
            "beta_constraint": null,
            "gamma_constraint": null,
            "synchronized": false
          },
          "registered_name": null,
          "build_config": {
            "input_shape": [
              null,
              56,
              56,
              256
            ]
          },
          "name": "conv2_block2_preact_bn",
          "inbound_nodes": [
            [
              [
                "conv2_block1_out",
                0,
                0,
                {}
              ]
            ]
          ]
        },
        {
          "module": "keras.layers",
          "class_name": "Activation",
          "config": {
            "name": "conv2_block2_preact_relu",
            "trainable": false,
            "dtype": "float32",
            "activation": "relu"
          },
          "registered_name": null,
          "name": "conv2_block2_preact_relu",
          "inbound_nodes": [
            [
              [
                "conv2_block2_preact_bn",
                0,
                0,
                {}
              ]
            ]
          ]
        },
        {
          "module": "keras.layers",
          "class_name": "Conv2D",
          "config": {
            "name": "conv2_block2_1_conv",
            "trainable": false,
            "dtype": "float32",
            "filters": 64,
            "kernel_size": [
              1,
              1
            ],
            "strides": [
              1,
              1
            ],
            "padding": "valid",
            "data_format": "channels_last",
            "dilation_rate": [
              1,
              1
            ],
            "groups": 1,
            "activation": "linear",
            "use_bias": false,
            "kernel_initializer": {
              "module": "keras.initializers",
              "class_name": "GlorotUniform",
              "config": {
                "seed": null
              },
              "registered_name": null
            },
            "bias_initializer": {
              "module": "keras.initializers",
              "class_name": "Zeros",
              "config": {},
              "registered_name": null
            },
            "kernel_regularizer": null,
            "bias_regularizer": null,
            "activity_regularizer": null,
            "kernel_constraint": null,
            "bias_constraint": null
          },
          "registered_name": null,
          "build_config": {
            "input_shape": [
              null,
              56,
              56,
              256
            ]
          },
          "name": "conv2_block2_1_conv",
          "inbound_nodes": [
            [
              [
                "conv2_block2_preact_relu",
                0,
                0,
                {}
              ]
            ]
          ]
        },
        {
          "module": "keras.layers",
          "class_name": "BatchNormalization",
          "config": {
            "name": "conv2_block2_1_bn",
            "trainable": false,
            "dtype": "float32",
            "axis": 3,
            "momentum": 0.99,
            "epsilon": 0.00001001,
            "center": true,
            "scale": true,
            "beta_initializer": {
              "module": "keras.initializers",
              "class_name": "Zeros",
              "config": {},
              "registered_name": null
            },
            "gamma_initializer": {
              "module": "keras.initializers",
              "class_name": "Ones",
              "config": {},
              "registered_name": null
            },
            "moving_mean_initializer": {
              "module": "keras.initializers",
              "class_name": "Zeros",
              "config": {},
              "registered_name": null
            },
            "moving_variance_initializer": {
              "module": "keras.initializers",
              "class_name": "Ones",
              "config": {},
              "registered_name": null
            },
            "beta_regularizer": null,
            "gamma_regularizer": null,
            "beta_constraint": null,
            "gamma_constraint": null,
            "synchronized": false
          },
          "registered_name": null,
          "build_config": {
            "input_shape": [
              null,
              56,
              56,
              64
            ]
          },
          "name": "conv2_block2_1_bn",
          "inbound_nodes": [
            [
              [
                "conv2_block2_1_conv",
                0,
                0,
                {}
              ]
            ]
          ]
        },
        {
          "module": "keras.layers",
          "class_name": "Activation",
          "config": {
            "name": "conv2_block2_1_relu",
            "trainable": false,
            "dtype": "float32",
            "activation": "relu"
          },
          "registered_name": null,
          "name": "conv2_block2_1_relu",
          "inbound_nodes": [
            [
              [
                "conv2_block2_1_bn",
                0,
                0,
                {}
              ]
            ]
          ]
        },
        {
          "module": "keras.layers",
          "class_name": "ZeroPadding2D",
          "config": {
            "name": "conv2_block2_2_pad",
            "trainable": false,
            "dtype": "float32",
            "padding": [
              [
                1,
                1
              ],
              [
                1,
                1
              ]
            ],
            "data_format": "channels_last"
          },
          "registered_name": null,
          "build_config": {
            "input_shape": [
              null,
              56,
              56,
              64
            ]
          },
          "name": "conv2_block2_2_pad",
          "inbound_nodes": [
            [
              [
                "conv2_block2_1_relu",
                0,
                0,
                {}
              ]
            ]
          ]
        },
        {
          "module": "keras.layers",
          "class_name": "Conv2D",
          "config": {
            "name": "conv2_block2_2_conv",
            "trainable": false,
            "dtype": "float32",
            "filters": 64,
            "kernel_size": [
              3,
              3
            ],
            "strides": [
              1,
              1
            ],
            "padding": "valid",
            "data_format": "channels_last",
            "dilation_rate": [
              1,
              1
            ],
            "groups": 1,
            "activation": "linear",
            "use_bias": false,
            "kernel_initializer": {
              "module": "keras.initializers",
              "class_name": "GlorotUniform",
              "config": {
                "seed": null
              },
              "registered_name": null
            },
            "bias_initializer": {
              "module": "keras.initializers",
              "class_name": "Zeros",
              "config": {},
              "registered_name": null
            },
            "kernel_regularizer": null,
            "bias_regularizer": null,
            "activity_regularizer": null,
            "kernel_constraint": null,
            "bias_constraint": null
          },
          "registered_name": null,
          "build_config": {
            "input_shape": [
              null,
              58,
              58,
              64
            ]
          },
          "name": "conv2_block2_2_conv",
          "inbound_nodes": [
            [
              [
                "conv2_block2_2_pad",
                0,
                0,
                {}
              ]
            ]
          ]
        },
        {
          "module": "keras.layers",
          "class_name": "BatchNormalization",
          "config": {
            "name": "conv2_block2_2_bn",
            "trainable": false,
            "dtype": "float32",
            "axis": 3,
            "momentum": 0.99,
            "epsilon": 0.00001001,
            "center": true,
            "scale": true,
            "beta_initializer": {
              "module": "keras.initializers",
              "class_name": "Zeros",
              "config": {},
              "registered_name": null
            },
            "gamma_initializer": {
              "module": "keras.initializers",
              "class_name": "Ones",
              "config": {},
              "registered_name": null
            },
            "moving_mean_initializer": {
              "module": "keras.initializers",
              "class_name": "Zeros",
              "config": {},
              "registered_name": null
            },
            "moving_variance_initializer": {
              "module": "keras.initializers",
              "class_name": "Ones",
              "config": {},
              "registered_name": null
            },
            "beta_regularizer": null,
            "gamma_regularizer": null,
            "beta_constraint": null,
            "gamma_constraint": null,
            "synchronized": false
          },
          "registered_name": null,
          "build_config": {
            "input_shape": [
              null,
              56,
              56,
              64
            ]
          },
          "name": "conv2_block2_2_bn",
          "inbound_nodes": [
            [
              [
                "conv2_block2_2_conv",
                0,
                0,
                {}
              ]
            ]
          ]
        },
        {
          "module": "keras.layers",
          "class_name": "Activation",
          "config": {
            "name": "conv2_block2_2_relu",
            "trainable": false,
            "dtype": "float32",
            "activation": "relu"
          },
          "registered_name": null,
          "name": "conv2_block2_2_relu",
          "inbound_nodes": [
            [
              [
                "conv2_block2_2_bn",
                0,
                0,
                {}
              ]
            ]
          ]
        },
        {
          "module": "keras.layers",
          "class_name": "Conv2D",
          "config": {
            "name": "conv2_block2_3_conv",
            "trainable": false,
            "dtype": "float32",
            "filters": 256,
            "kernel_size": [
              1,
              1
            ],
            "strides": [
              1,
              1
            ],
            "padding": "valid",
            "data_format": "channels_last",
            "dilation_rate": [
              1,
              1
            ],
            "groups": 1,
            "activation": "linear",
            "use_bias": true,
            "kernel_initializer": {
              "module": "keras.initializers",
              "class_name": "GlorotUniform",
              "config": {
                "seed": null
              },
              "registered_name": null
            },
            "bias_initializer": {
              "module": "keras.initializers",
              "class_name": "Zeros",
              "config": {},
              "registered_name": null
            },
            "kernel_regularizer": null,
            "bias_regularizer": null,
            "activity_regularizer": null,
            "kernel_constraint": null,
            "bias_constraint": null
          },
          "registered_name": null,
          "build_config": {
            "input_shape": [
              null,
              56,
              56,
              64
            ]
          },
          "name": "conv2_block2_3_conv",
          "inbound_nodes": [
            [
              [
                "conv2_block2_2_relu",
                0,
                0,
                {}
              ]
            ]
          ]
        },
        {
          "module": "keras.layers",
          "class_name": "Add",
          "config": {
            "name": "conv2_block2_out",
            "trainable": false,
            "dtype": "float32"
          },
          "registered_name": null,
          "build_config": {
            "input_shape": [
              [
                null,
                56,
                56,
                256
              ],
              [
                null,
                56,
                56,
                256
              ]
            ]
          },
          "name": "conv2_block2_out",
          "inbound_nodes": [
            {
              "args": [
                [
                  {
                    "class_name": "__keras_tensor__",
                    "config": {
                      "shape": [
                        null,
                        56,
                        56,
                        256
                      ],
                      "dtype": "float32",
                      "keras_history": [
                        "conv2_block1_out",
                        0,
                        0
                      ]
                    }
                  },
                  {
                    "class_name": "__keras_tensor__",
                    "config": {
                      "shape": [
                        null,
                        56,
                        56,
                        256
                      ],
                      "dtype": "float32",
                      "keras_history": [
                        "conv2_block2_3_conv",
                        0,
                        0
                      ]
                    }
                  }
                ]
              ],
              "kwargs": {}
            }
          ]
        },
        {
          "module": "keras.layers",
          "class_name": "BatchNormalization",
          "config": {
            "name": "conv2_block3_preact_bn",
            "trainable": false,
            "dtype": "float32",
            "axis": 3,
            "momentum": 0.99,
            "epsilon": 0.00001001,
            "center": true,
            "scale": true,
            "beta_initializer": {
              "module": "keras.initializers",
              "class_name": "Zeros",
              "config": {},
              "registered_name": null
            },
            "gamma_initializer": {
              "module": "keras.initializers",
              "class_name": "Ones",
              "config": {},
              "registered_name": null
            },
            "moving_mean_initializer": {
              "module": "keras.initializers",
              "class_name": "Zeros",
              "config": {},
              "registered_name": null
            },
            "moving_variance_initializer": {
              "module": "keras.initializers",
              "class_name": "Ones",
              "config": {},
              "registered_name": null
            },
            "beta_regularizer": null,
            "gamma_regularizer": null,
            "beta_constraint": null,
            "gamma_constraint": null,
            "synchronized": false
          },
          "registered_name": null,
          "build_config": {
            "input_shape": [
              null,
              56,
              56,
              256
            ]
          },
          "name": "conv2_block3_preact_bn",
          "inbound_nodes": [
            [
              [
                "conv2_block2_out",
                0,
                0,
                {}
              ]
            ]
          ]
        },
        {
          "module": "keras.layers",
          "class_name": "Activation",
          "config": {
            "name": "conv2_block3_preact_relu",
            "trainable": false,
            "dtype": "float32",
            "activation": "relu"
          },
          "registered_name": null,
          "name": "conv2_block3_preact_relu",
          "inbound_nodes": [
            [
              [
                "conv2_block3_preact_bn",
                0,
                0,
                {}
              ]
            ]
          ]
        },
        {
          "module": "keras.layers",
          "class_name": "Conv2D",
          "config": {
            "name": "conv2_block3_1_conv",
            "trainable": false,
            "dtype": "float32",
            "filters": 64,
            "kernel_size": [
              1,
              1
            ],
            "strides": [
              1,
              1
            ],
            "padding": "valid",
            "data_format": "channels_last",
            "dilation_rate": [
              1,
              1
            ],
            "groups": 1,
            "activation": "linear",
            "use_bias": false,
            "kernel_initializer": {
              "module": "keras.initializers",
              "class_name": "GlorotUniform",
              "config": {
                "seed": null
              },
              "registered_name": null
            },
            "bias_initializer": {
              "module": "keras.initializers",
              "class_name": "Zeros",
              "config": {},
              "registered_name": null
            },
            "kernel_regularizer": null,
            "bias_regularizer": null,
            "activity_regularizer": null,
            "kernel_constraint": null,
            "bias_constraint": null
          },
          "registered_name": null,
          "build_config": {
            "input_shape": [
              null,
              56,
              56,
              256
            ]
          },
          "name": "conv2_block3_1_conv",
          "inbound_nodes": [
            [
              [
                "conv2_block3_preact_relu",
                0,
                0,
                {}
              ]
            ]
          ]
        },
        {
          "module": "keras.layers",
          "class_name": "BatchNormalization",
          "config": {
            "name": "conv2_block3_1_bn",
            "trainable": false,
            "dtype": "float32",
            "axis": 3,
            "momentum": 0.99,
            "epsilon": 0.00001001,
            "center": true,
            "scale": true,
            "beta_initializer": {
              "module": "keras.initializers",
              "class_name": "Zeros",
              "config": {},
              "registered_name": null
            },
            "gamma_initializer": {
              "module": "keras.initializers",
              "class_name": "Ones",
              "config": {},
              "registered_name": null
            },
            "moving_mean_initializer": {
              "module": "keras.initializers",
              "class_name": "Zeros",
              "config": {},
              "registered_name": null
            },
            "moving_variance_initializer": {
              "module": "keras.initializers",
              "class_name": "Ones",
              "config": {},
              "registered_name": null
            },
            "beta_regularizer": null,
            "gamma_regularizer": null,
            "beta_constraint": null,
            "gamma_constraint": null,
            "synchronized": false
          },
          "registered_name": null,
          "build_config": {
            "input_shape": [
              null,
              56,
              56,
              64
            ]
          },
          "name": "conv2_block3_1_bn",
          "inbound_nodes": [
            [
              [
                "conv2_block3_1_conv",
                0,
                0,
                {}
              ]
            ]
          ]
        },
        {
          "module": "keras.layers",
          "class_name": "Activation",
          "config": {
            "name": "conv2_block3_1_relu",
            "trainable": false,
            "dtype": "float32",
            "activation": "relu"
          },
          "registered_name": null,
          "name": "conv2_block3_1_relu",
          "inbound_nodes": [
            [
              [
                "conv2_block3_1_bn",
                0,
                0,
                {}
              ]
            ]
          ]
        },
        {
          "module": "keras.layers",
          "class_name": "ZeroPadding2D",
          "config": {
            "name": "conv2_block3_2_pad",
            "trainable": false,
            "dtype": "float32",
            "padding": [
              [
                1,
                1
              ],
              [
                1,
                1
              ]
            ],
            "data_format": "channels_last"
          },
          "registered_name": null,
          "build_config": {
            "input_shape": [
              null,
              56,
              56,
              64
            ]
          },
          "name": "conv2_block3_2_pad",
          "inbound_nodes": [
            [
              [
                "conv2_block3_1_relu",
                0,
                0,
                {}
              ]
            ]
          ]
        },
        {
          "module": "keras.layers",
          "class_name": "Conv2D",
          "config": {
            "name": "conv2_block3_2_conv",
            "trainable": false,
            "dtype": "float32",
            "filters": 64,
            "kernel_size": [
              3,
              3
            ],
            "strides": [
              2,
              2
            ],
            "padding": "valid",
            "data_format": "channels_last",
            "dilation_rate": [
              1,
              1
            ],
            "groups": 1,
            "activation": "linear",
            "use_bias": false,
            "kernel_initializer": {
              "module": "keras.initializers",
              "class_name": "GlorotUniform",
              "config": {
                "seed": null
              },
              "registered_name": null
            },
            "bias_initializer": {
              "module": "keras.initializers",
              "class_name": "Zeros",
              "config": {},
              "registered_name": null
            },
            "kernel_regularizer": null,
            "bias_regularizer": null,
            "activity_regularizer": null,
            "kernel_constraint": null,
            "bias_constraint": null
          },
          "registered_name": null,
          "build_config": {
            "input_shape": [
              null,
              58,
              58,
              64
            ]
          },
          "name": "conv2_block3_2_conv",
          "inbound_nodes": [
            [
              [
                "conv2_block3_2_pad",
                0,
                0,
                {}
              ]
            ]
          ]
        },
        {
          "module": "keras.layers",
          "class_name": "BatchNormalization",
          "config": {
            "name": "conv2_block3_2_bn",
            "trainable": false,
            "dtype": "float32",
            "axis": 3,
            "momentum": 0.99,
            "epsilon": 0.00001001,
            "center": true,
            "scale": true,
            "beta_initializer": {
              "module": "keras.initializers",
              "class_name": "Zeros",
              "config": {},
              "registered_name": null
            },
            "gamma_initializer": {
              "module": "keras.initializers",
              "class_name": "Ones",
              "config": {},
              "registered_name": null
            },
            "moving_mean_initializer": {
              "module": "keras.initializers",
              "class_name": "Zeros",
              "config": {},
              "registered_name": null
            },
            "moving_variance_initializer": {
              "module": "keras.initializers",
              "class_name": "Ones",
              "config": {},
              "registered_name": null
            },
            "beta_regularizer": null,
            "gamma_regularizer": null,
            "beta_constraint": null,
            "gamma_constraint": null,
            "synchronized": false
          },
          "registered_name": null,
          "build_config": {
            "input_shape": [
              null,
              28,
              28,
              64
            ]
          },
          "name": "conv2_block3_2_bn",
          "inbound_nodes": [
            [
              [
                "conv2_block3_2_conv",
                0,
                0,
                {}
              ]
            ]
          ]
        },
        {
          "module": "keras.layers",
          "class_name": "Activation",
          "config": {
            "name": "conv2_block3_2_relu",
            "trainable": false,
            "dtype": "float32",
            "activation": "relu"
          },
          "registered_name": null,
          "name": "conv2_block3_2_relu",
          "inbound_nodes": [
            [
              [
                "conv2_block3_2_bn",
                0,
                0,
                {}
              ]
            ]
          ]
        },
        {
          "module": "keras.layers",
          "class_name": "MaxPooling2D",
          "config": {
            "name": "max_pooling2d",
            "trainable": false,
            "dtype": "float32",
            "pool_size": [
              1,
              1
            ],
            "padding": "valid",
            "strides": [
              2,
              2
            ],
            "data_format": "channels_last"
          },
          "registered_name": null,
          "name": "max_pooling2d",
          "inbound_nodes": [
            [
              [
                "conv2_block2_out",
                0,
                0,
                {}
              ]
            ]
          ]
        },
        {
          "module": "keras.layers",
          "class_name": "Conv2D",
          "config": {
            "name": "conv2_block3_3_conv",
            "trainable": false,
            "dtype": "float32",
            "filters": 256,
            "kernel_size": [
              1,
              1
            ],
            "strides": [
              1,
              1
            ],
            "padding": "valid",
            "data_format": "channels_last",
            "dilation_rate": [
              1,
              1
            ],
            "groups": 1,
            "activation": "linear",
            "use_bias": true,
            "kernel_initializer": {
              "module": "keras.initializers",
              "class_name": "GlorotUniform",
              "config": {
                "seed": null
              },
              "registered_name": null
            },
            "bias_initializer": {
              "module": "keras.initializers",
              "class_name": "Zeros",
              "config": {},
              "registered_name": null
            },
            "kernel_regularizer": null,
            "bias_regularizer": null,
            "activity_regularizer": null,
            "kernel_constraint": null,
            "bias_constraint": null
          },
          "registered_name": null,
          "build_config": {
            "input_shape": [
              null,
              28,
              28,
              64
            ]
          },
          "name": "conv2_block3_3_conv",
          "inbound_nodes": [
            [
              [
                "conv2_block3_2_relu",
                0,
                0,
                {}
              ]
            ]
          ]
        },
        {
          "module": "keras.layers",
          "class_name": "Add",
          "config": {
            "name": "conv2_block3_out",
            "trainable": false,
            "dtype": "float32"
          },
          "registered_name": null,
          "build_config": {
            "input_shape": [
              [
                null,
                28,
                28,
                256
              ],
              [
                null,
                28,
                28,
                256
              ]
            ]
          },
          "name": "conv2_block3_out",
          "inbound_nodes": [
            {
              "args": [
                [
                  {
                    "class_name": "__keras_tensor__",
                    "config": {
                      "shape": [
                        null,
                        28,
                        28,
                        256
                      ],
                      "dtype": "float32",
                      "keras_history": [
                        "max_pooling2d",
                        0,
                        0
                      ]
                    }
                  },
                  {
                    "class_name": "__keras_tensor__",
                    "config": {
                      "shape": [
                        null,
                        28,
                        28,
                        256
                      ],
                      "dtype": "float32",
                      "keras_history": [
                        "conv2_block3_3_conv",
                        0,
                        0
                      ]
                    }
                  }
                ]
              ],
              "kwargs": {}
            }
          ]
        },
        {
          "module": "keras.layers",
          "class_name": "BatchNormalization",
          "config": {
            "name": "conv3_block1_preact_bn",
            "trainable": false,
            "dtype": "float32",
            "axis": 3,
            "momentum": 0.99,
            "epsilon": 0.00001001,
            "center": true,
            "scale": true,
            "beta_initializer": {
              "module": "keras.initializers",
              "class_name": "Zeros",
              "config": {},
              "registered_name": null
            },
            "gamma_initializer": {
              "module": "keras.initializers",
              "class_name": "Ones",
              "config": {},
              "registered_name": null
            },
            "moving_mean_initializer": {
              "module": "keras.initializers",
              "class_name": "Zeros",
              "config": {},
              "registered_name": null
            },
            "moving_variance_initializer": {
              "module": "keras.initializers",
              "class_name": "Ones",
              "config": {},
              "registered_name": null
            },
            "beta_regularizer": null,
            "gamma_regularizer": null,
            "beta_constraint": null,
            "gamma_constraint": null,
            "synchronized": false
          },
          "registered_name": null,
          "build_config": {
            "input_shape": [
              null,
              28,
              28,
              256
            ]
          },
          "name": "conv3_block1_preact_bn",
          "inbound_nodes": [
            [
              [
                "conv2_block3_out",
                0,
                0,
                {}
              ]
            ]
          ]
        },
        {
          "module": "keras.layers",
          "class_name": "Activation",
          "config": {
            "name": "conv3_block1_preact_relu",
            "trainable": false,
            "dtype": "float32",
            "activation": "relu"
          },
          "registered_name": null,
          "name": "conv3_block1_preact_relu",
          "inbound_nodes": [
            [
              [
                "conv3_block1_preact_bn",
                0,
                0,
                {}
              ]
            ]
          ]
        },
        {
          "module": "keras.layers",
          "class_name": "Conv2D",
          "config": {
            "name": "conv3_block1_1_conv",
            "trainable": false,
            "dtype": "float32",
            "filters": 128,
            "kernel_size": [
              1,
              1
            ],
            "strides": [
              1,
              1
            ],
            "padding": "valid",
            "data_format": "channels_last",
            "dilation_rate": [
              1,
              1
            ],
            "groups": 1,
            "activation": "linear",
            "use_bias": false,
            "kernel_initializer": {
              "module": "keras.initializers",
              "class_name": "GlorotUniform",
              "config": {
                "seed": null
              },
              "registered_name": null
            },
            "bias_initializer": {
              "module": "keras.initializers",
              "class_name": "Zeros",
              "config": {},
              "registered_name": null
            },
            "kernel_regularizer": null,
            "bias_regularizer": null,
            "activity_regularizer": null,
            "kernel_constraint": null,
            "bias_constraint": null
          },
          "registered_name": null,
          "build_config": {
            "input_shape": [
              null,
              28,
              28,
              256
            ]
          },
          "name": "conv3_block1_1_conv",
          "inbound_nodes": [
            [
              [
                "conv3_block1_preact_relu",
                0,
                0,
                {}
              ]
            ]
          ]
        },
        {
          "module": "keras.layers",
          "class_name": "BatchNormalization",
          "config": {
            "name": "conv3_block1_1_bn",
            "trainable": false,
            "dtype": "float32",
            "axis": 3,
            "momentum": 0.99,
            "epsilon": 0.00001001,
            "center": true,
            "scale": true,
            "beta_initializer": {
              "module": "keras.initializers",
              "class_name": "Zeros",
              "config": {},
              "registered_name": null
            },
            "gamma_initializer": {
              "module": "keras.initializers",
              "class_name": "Ones",
              "config": {},
              "registered_name": null
            },
            "moving_mean_initializer": {
              "module": "keras.initializers",
              "class_name": "Zeros",
              "config": {},
              "registered_name": null
            },
            "moving_variance_initializer": {
              "module": "keras.initializers",
              "class_name": "Ones",
              "config": {},
              "registered_name": null
            },
            "beta_regularizer": null,
            "gamma_regularizer": null,
            "beta_constraint": null,
            "gamma_constraint": null,
            "synchronized": false
          },
          "registered_name": null,
          "build_config": {
            "input_shape": [
              null,
              28,
              28,
              128
            ]
          },
          "name": "conv3_block1_1_bn",
          "inbound_nodes": [
            [
              [
                "conv3_block1_1_conv",
                0,
                0,
                {}
              ]
            ]
          ]
        },
        {
          "module": "keras.layers",
          "class_name": "Activation",
          "config": {
            "name": "conv3_block1_1_relu",
            "trainable": false,
            "dtype": "float32",
            "activation": "relu"
          },
          "registered_name": null,
          "name": "conv3_block1_1_relu",
          "inbound_nodes": [
            [
              [
                "conv3_block1_1_bn",
                0,
                0,
                {}
              ]
            ]
          ]
        },
        {
          "module": "keras.layers",
          "class_name": "ZeroPadding2D",
          "config": {
            "name": "conv3_block1_2_pad",
            "trainable": false,
            "dtype": "float32",
            "padding": [
              [
                1,
                1
              ],
              [
                1,
                1
              ]
            ],
            "data_format": "channels_last"
          },
          "registered_name": null,
          "build_config": {
            "input_shape": [
              null,
              28,
              28,
              128
            ]
          },
          "name": "conv3_block1_2_pad",
          "inbound_nodes": [
            [
              [
                "conv3_block1_1_relu",
                0,
                0,
                {}
              ]
            ]
          ]
        },
        {
          "module": "keras.layers",
          "class_name": "Conv2D",
          "config": {
            "name": "conv3_block1_2_conv",
            "trainable": false,
            "dtype": "float32",
            "filters": 128,
            "kernel_size": [
              3,
              3
            ],
            "strides": [
              1,
              1
            ],
            "padding": "valid",
            "data_format": "channels_last",
            "dilation_rate": [
              1,
              1
            ],
            "groups": 1,
            "activation": "linear",
            "use_bias": false,
            "kernel_initializer": {
              "module": "keras.initializers",
              "class_name": "GlorotUniform",
              "config": {
                "seed": null
              },
              "registered_name": null
            },
            "bias_initializer": {
              "module": "keras.initializers",
              "class_name": "Zeros",
              "config": {},
              "registered_name": null
            },
            "kernel_regularizer": null,
            "bias_regularizer": null,
            "activity_regularizer": null,
            "kernel_constraint": null,
            "bias_constraint": null
          },
          "registered_name": null,
          "build_config": {
            "input_shape": [
              null,
              30,
              30,
              128
            ]
          },
          "name": "conv3_block1_2_conv",
          "inbound_nodes": [
            [
              [
                "conv3_block1_2_pad",
                0,
                0,
                {}
              ]
            ]
          ]
        },
        {
          "module": "keras.layers",
          "class_name": "BatchNormalization",
          "config": {
            "name": "conv3_block1_2_bn",
            "trainable": false,
            "dtype": "float32",
            "axis": 3,
            "momentum": 0.99,
            "epsilon": 0.00001001,
            "center": true,
            "scale": true,
            "beta_initializer": {
              "module": "keras.initializers",
              "class_name": "Zeros",
              "config": {},
              "registered_name": null
            },
            "gamma_initializer": {
              "module": "keras.initializers",
              "class_name": "Ones",
              "config": {},
              "registered_name": null
            },
            "moving_mean_initializer": {
              "module": "keras.initializers",
              "class_name": "Zeros",
              "config": {},
              "registered_name": null
            },
            "moving_variance_initializer": {
              "module": "keras.initializers",
              "class_name": "Ones",
              "config": {},
              "registered_name": null
            },
            "beta_regularizer": null,
            "gamma_regularizer": null,
            "beta_constraint": null,
            "gamma_constraint": null,
            "synchronized": false
          },
          "registered_name": null,
          "build_config": {
            "input_shape": [
              null,
              28,
              28,
              128
            ]
          },
          "name": "conv3_block1_2_bn",
          "inbound_nodes": [
            [
              [
                "conv3_block1_2_conv",
                0,
                0,
                {}
              ]
            ]
          ]
        },
        {
          "module": "keras.layers",
          "class_name": "Activation",
          "config": {
            "name": "conv3_block1_2_relu",
            "trainable": false,
            "dtype": "float32",
            "activation": "relu"
          },
          "registered_name": null,
          "name": "conv3_block1_2_relu",
          "inbound_nodes": [
            [
              [
                "conv3_block1_2_bn",
                0,
                0,
                {}
              ]
            ]
          ]
        },
        {
          "module": "keras.layers",
          "class_name": "Conv2D",
          "config": {
            "name": "conv3_block1_0_conv",
            "trainable": false,
            "dtype": "float32",
            "filters": 512,
            "kernel_size": [
              1,
              1
            ],
            "strides": [
              1,
              1
            ],
            "padding": "valid",
            "data_format": "channels_last",
            "dilation_rate": [
              1,
              1
            ],
            "groups": 1,
            "activation": "linear",
            "use_bias": true,
            "kernel_initializer": {
              "module": "keras.initializers",
              "class_name": "GlorotUniform",
              "config": {
                "seed": null
              },
              "registered_name": null
            },
            "bias_initializer": {
              "module": "keras.initializers",
              "class_name": "Zeros",
              "config": {},
              "registered_name": null
            },
            "kernel_regularizer": null,
            "bias_regularizer": null,
            "activity_regularizer": null,
            "kernel_constraint": null,
            "bias_constraint": null
          },
          "registered_name": null,
          "build_config": {
            "input_shape": [
              null,
              28,
              28,
              256
            ]
          },
          "name": "conv3_block1_0_conv",
          "inbound_nodes": [
            [
              [
                "conv3_block1_preact_relu",
                0,
                0,
                {}
              ]
            ]
          ]
        },
        {
          "module": "keras.layers",
          "class_name": "Conv2D",
          "config": {
            "name": "conv3_block1_3_conv",
            "trainable": false,
            "dtype": "float32",
            "filters": 512,
            "kernel_size": [
              1,
              1
            ],
            "strides": [
              1,
              1
            ],
            "padding": "valid",
            "data_format": "channels_last",
            "dilation_rate": [
              1,
              1
            ],
            "groups": 1,
            "activation": "linear",
            "use_bias": true,
            "kernel_initializer": {
              "module": "keras.initializers",
              "class_name": "GlorotUniform",
              "config": {
                "seed": null
              },
              "registered_name": null
            },
            "bias_initializer": {
              "module": "keras.initializers",
              "class_name": "Zeros",
              "config": {},
              "registered_name": null
            },
            "kernel_regularizer": null,
            "bias_regularizer": null,
            "activity_regularizer": null,
            "kernel_constraint": null,
            "bias_constraint": null
          },
          "registered_name": null,
          "build_config": {
            "input_shape": [
              null,
              28,
              28,
              128
            ]
          },
          "name": "conv3_block1_3_conv",
          "inbound_nodes": [
            [
              [
                "conv3_block1_2_relu",
                0,
                0,
                {}
              ]
            ]
          ]
        },
        {
          "module": "keras.layers",
          "class_name": "Add",
          "config": {
            "name": "conv3_block1_out",
            "trainable": false,
            "dtype": "float32"
          },
          "registered_name": null,
          "build_config": {
            "input_shape": [
              [
                null,
                28,
                28,
                512
              ],
              [
                null,
                28,
                28,
                512
              ]
            ]
          },
          "name": "conv3_block1_out",
          "inbound_nodes": [
            {
              "args": [
                [
                  {
                    "class_name": "__keras_tensor__",
                    "config": {
                      "shape": [
                        null,
                        28,
                        28,
                        512
                      ],
                      "dtype": "float32",
                      "keras_history": [
                        "conv3_block1_0_conv",
                        0,
                        0
                      ]
                    }
                  },
                  {
                    "class_name": "__keras_tensor__",
                    "config": {
                      "shape": [
                        null,
                        28,
                        28,
                        512
                      ],
                      "dtype": "float32",
                      "keras_history": [
                        "conv3_block1_3_conv",
                        0,
                        0
                      ]
                    }
                  }
                ]
              ],
              "kwargs": {}
            }
          ]
        },
        {
          "module": "keras.layers",
          "class_name": "BatchNormalization",
          "config": {
            "name": "conv3_block2_preact_bn",
            "trainable": false,
            "dtype": "float32",
            "axis": 3,
            "momentum": 0.99,
            "epsilon": 0.00001001,
            "center": true,
            "scale": true,
            "beta_initializer": {
              "module": "keras.initializers",
              "class_name": "Zeros",
              "config": {},
              "registered_name": null
            },
            "gamma_initializer": {
              "module": "keras.initializers",
              "class_name": "Ones",
              "config": {},
              "registered_name": null
            },
            "moving_mean_initializer": {
              "module": "keras.initializers",
              "class_name": "Zeros",
              "config": {},
              "registered_name": null
            },
            "moving_variance_initializer": {
              "module": "keras.initializers",
              "class_name": "Ones",
              "config": {},
              "registered_name": null
            },
            "beta_regularizer": null,
            "gamma_regularizer": null,
            "beta_constraint": null,
            "gamma_constraint": null,
            "synchronized": false
          },
          "registered_name": null,
          "build_config": {
            "input_shape": [
              null,
              28,
              28,
              512
            ]
          },
          "name": "conv3_block2_preact_bn",
          "inbound_nodes": [
            [
              [
                "conv3_block1_out",
                0,
                0,
                {}
              ]
            ]
          ]
        },
        {
          "module": "keras.layers",
          "class_name": "Activation",
          "config": {
            "name": "conv3_block2_preact_relu",
            "trainable": false,
            "dtype": "float32",
            "activation": "relu"
          },
          "registered_name": null,
          "name": "conv3_block2_preact_relu",
          "inbound_nodes": [
            [
              [
                "conv3_block2_preact_bn",
                0,
                0,
                {}
              ]
            ]
          ]
        },
        {
          "module": "keras.layers",
          "class_name": "Conv2D",
          "config": {
            "name": "conv3_block2_1_conv",
            "trainable": false,
            "dtype": "float32",
            "filters": 128,
            "kernel_size": [
              1,
              1
            ],
            "strides": [
              1,
              1
            ],
            "padding": "valid",
            "data_format": "channels_last",
            "dilation_rate": [
              1,
              1
            ],
            "groups": 1,
            "activation": "linear",
            "use_bias": false,
            "kernel_initializer": {
              "module": "keras.initializers",
              "class_name": "GlorotUniform",
              "config": {
                "seed": null
              },
              "registered_name": null
            },
            "bias_initializer": {
              "module": "keras.initializers",
              "class_name": "Zeros",
              "config": {},
              "registered_name": null
            },
            "kernel_regularizer": null,
            "bias_regularizer": null,
            "activity_regularizer": null,
            "kernel_constraint": null,
            "bias_constraint": null
          },
          "registered_name": null,
          "build_config": {
            "input_shape": [
              null,
              28,
              28,
              512
            ]
          },
          "name": "conv3_block2_1_conv",
          "inbound_nodes": [
            [
              [
                "conv3_block2_preact_relu",
                0,
                0,
                {}
              ]
            ]
          ]
        },
        {
          "module": "keras.layers",
          "class_name": "BatchNormalization",
          "config": {
            "name": "conv3_block2_1_bn",
            "trainable": false,
            "dtype": "float32",
            "axis": 3,
            "momentum": 0.99,
            "epsilon": 0.00001001,
            "center": true,
            "scale": true,
            "beta_initializer": {
              "module": "keras.initializers",
              "class_name": "Zeros",
              "config": {},
              "registered_name": null
            },
            "gamma_initializer": {
              "module": "keras.initializers",
              "class_name": "Ones",
              "config": {},
              "registered_name": null
            },
            "moving_mean_initializer": {
              "module": "keras.initializers",
              "class_name": "Zeros",
              "config": {},
              "registered_name": null
            },
            "moving_variance_initializer": {
              "module": "keras.initializers",
              "class_name": "Ones",
              "config": {},
              "registered_name": null
            },
            "beta_regularizer": null,
            "gamma_regularizer": null,
            "beta_constraint": null,
            "gamma_constraint": null,
            "synchronized": false
          },
          "registered_name": null,
          "build_config": {
            "input_shape": [
              null,
              28,
              28,
              128
            ]
          },
          "name": "conv3_block2_1_bn",
          "inbound_nodes": [
            [
              [
                "conv3_block2_1_conv",
                0,
                0,
                {}
              ]
            ]
          ]
        },
        {
          "module": "keras.layers",
          "class_name": "Activation",
          "config": {
            "name": "conv3_block2_1_relu",
            "trainable": false,
            "dtype": "float32",
            "activation": "relu"
          },
          "registered_name": null,
          "name": "conv3_block2_1_relu",
          "inbound_nodes": [
            [
              [
                "conv3_block2_1_bn",
                0,
                0,
                {}
              ]
            ]
          ]
        },
        {
          "module": "keras.layers",
          "class_name": "ZeroPadding2D",
          "config": {
            "name": "conv3_block2_2_pad",
            "trainable": false,
            "dtype": "float32",
            "padding": [
              [
                1,
                1
              ],
              [
                1,
                1
              ]
            ],
            "data_format": "channels_last"
          },
          "registered_name": null,
          "build_config": {
            "input_shape": [
              null,
              28,
              28,
              128
            ]
          },
          "name": "conv3_block2_2_pad",
          "inbound_nodes": [
            [
              [
                "conv3_block2_1_relu",
                0,
                0,
                {}
              ]
            ]
          ]
        },
        {
          "module": "keras.layers",
          "class_name": "Conv2D",
          "config": {
            "name": "conv3_block2_2_conv",
            "trainable": false,
            "dtype": "float32",
            "filters": 128,
            "kernel_size": [
              3,
              3
            ],
            "strides": [
              1,
              1
            ],
            "padding": "valid",
            "data_format": "channels_last",
            "dilation_rate": [
              1,
              1
            ],
            "groups": 1,
            "activation": "linear",
            "use_bias": false,
            "kernel_initializer": {
              "module": "keras.initializers",
              "class_name": "GlorotUniform",
              "config": {
                "seed": null
              },
              "registered_name": null
            },
            "bias_initializer": {
              "module": "keras.initializers",
              "class_name": "Zeros",
              "config": {},
              "registered_name": null
            },
            "kernel_regularizer": null,
            "bias_regularizer": null,
            "activity_regularizer": null,
            "kernel_constraint": null,
            "bias_constraint": null
          },
          "registered_name": null,
          "build_config": {
            "input_shape": [
              null,
              30,
              30,
              128
            ]
          },
          "name": "conv3_block2_2_conv",
          "inbound_nodes": [
            [
              [
                "conv3_block2_2_pad",
                0,
                0,
                {}
              ]
            ]
          ]
        },
        {
          "module": "keras.layers",
          "class_name": "BatchNormalization",
          "config": {
            "name": "conv3_block2_2_bn",
            "trainable": false,
            "dtype": "float32",
            "axis": 3,
            "momentum": 0.99,
            "epsilon": 0.00001001,
            "center": true,
            "scale": true,
            "beta_initializer": {
              "module": "keras.initializers",
              "class_name": "Zeros",
              "config": {},
              "registered_name": null
            },
            "gamma_initializer": {
              "module": "keras.initializers",
              "class_name": "Ones",
              "config": {},
              "registered_name": null
            },
            "moving_mean_initializer": {
              "module": "keras.initializers",
              "class_name": "Zeros",
              "config": {},
              "registered_name": null
            },
            "moving_variance_initializer": {
              "module": "keras.initializers",
              "class_name": "Ones",
              "config": {},
              "registered_name": null
            },
            "beta_regularizer": null,
            "gamma_regularizer": null,
            "beta_constraint": null,
            "gamma_constraint": null,
            "synchronized": false
          },
          "registered_name": null,
          "build_config": {
            "input_shape": [
              null,
              28,
              28,
              128
            ]
          },
          "name": "conv3_block2_2_bn",
          "inbound_nodes": [
            [
              [
                "conv3_block2_2_conv",
                0,
                0,
                {}
              ]
            ]
          ]
        },
        {
          "module": "keras.layers",
          "class_name": "Activation",
          "config": {
            "name": "conv3_block2_2_relu",
            "trainable": false,
            "dtype": "float32",
            "activation": "relu"
          },
          "registered_name": null,
          "name": "conv3_block2_2_relu",
          "inbound_nodes": [
            [
              [
                "conv3_block2_2_bn",
                0,
                0,
                {}
              ]
            ]
          ]
        },
        {
          "module": "keras.layers",
          "class_name": "Conv2D",
          "config": {
            "name": "conv3_block2_3_conv",
            "trainable": false,
            "dtype": "float32",
            "filters": 512,
            "kernel_size": [
              1,
              1
            ],
            "strides": [
              1,
              1
            ],
            "padding": "valid",
            "data_format": "channels_last",
            "dilation_rate": [
              1,
              1
            ],
            "groups": 1,
            "activation": "linear",
            "use_bias": true,
            "kernel_initializer": {
              "module": "keras.initializers",
              "class_name": "GlorotUniform",
              "config": {
                "seed": null
              },
              "registered_name": null
            },
            "bias_initializer": {
              "module": "keras.initializers",
              "class_name": "Zeros",
              "config": {},
              "registered_name": null
            },
            "kernel_regularizer": null,
            "bias_regularizer": null,
            "activity_regularizer": null,
            "kernel_constraint": null,
            "bias_constraint": null
          },
          "registered_name": null,
          "build_config": {
            "input_shape": [
              null,
              28,
              28,
              128
            ]
          },
          "name": "conv3_block2_3_conv",
          "inbound_nodes": [
            [
              [
                "conv3_block2_2_relu",
                0,
                0,
                {}
              ]
            ]
          ]
        },
        {
          "module": "keras.layers",
          "class_name": "Add",
          "config": {
            "name": "conv3_block2_out",
            "trainable": false,
            "dtype": "float32"
          },
          "registered_name": null,
          "build_config": {
            "input_shape": [
              [
                null,
                28,
                28,
                512
              ],
              [
                null,
                28,
                28,
                512
              ]
            ]
          },
          "name": "conv3_block2_out",
          "inbound_nodes": [
            {
              "args": [
                [
                  {
                    "class_name": "__keras_tensor__",
                    "config": {
                      "shape": [
                        null,
                        28,
                        28,
                        512
                      ],
                      "dtype": "float32",
                      "keras_history": [
                        "conv3_block1_out",
                        0,
                        0
                      ]
                    }
                  },
                  {
                    "class_name": "__keras_tensor__",
                    "config": {
                      "shape": [
                        null,
                        28,
                        28,
                        512
                      ],
                      "dtype": "float32",
                      "keras_history": [
                        "conv3_block2_3_conv",
                        0,
                        0
                      ]
                    }
                  }
                ]
              ],
              "kwargs": {}
            }
          ]
        },
        {
          "module": "keras.layers",
          "class_name": "BatchNormalization",
          "config": {
            "name": "conv3_block3_preact_bn",
            "trainable": false,
            "dtype": "float32",
            "axis": 3,
            "momentum": 0.99,
            "epsilon": 0.00001001,
            "center": true,
            "scale": true,
            "beta_initializer": {
              "module": "keras.initializers",
              "class_name": "Zeros",
              "config": {},
              "registered_name": null
            },
            "gamma_initializer": {
              "module": "keras.initializers",
              "class_name": "Ones",
              "config": {},
              "registered_name": null
            },
            "moving_mean_initializer": {
              "module": "keras.initializers",
              "class_name": "Zeros",
              "config": {},
              "registered_name": null
            },
            "moving_variance_initializer": {
              "module": "keras.initializers",
              "class_name": "Ones",
              "config": {},
              "registered_name": null
            },
            "beta_regularizer": null,
            "gamma_regularizer": null,
            "beta_constraint": null,
            "gamma_constraint": null,
            "synchronized": false
          },
          "registered_name": null,
          "build_config": {
            "input_shape": [
              null,
              28,
              28,
              512
            ]
          },
          "name": "conv3_block3_preact_bn",
          "inbound_nodes": [
            [
              [
                "conv3_block2_out",
                0,
                0,
                {}
              ]
            ]
          ]
        },
        {
          "module": "keras.layers",
          "class_name": "Activation",
          "config": {
            "name": "conv3_block3_preact_relu",
            "trainable": false,
            "dtype": "float32",
            "activation": "relu"
          },
          "registered_name": null,
          "name": "conv3_block3_preact_relu",
          "inbound_nodes": [
            [
              [
                "conv3_block3_preact_bn",
                0,
                0,
                {}
              ]
            ]
          ]
        },
        {
          "module": "keras.layers",
          "class_name": "Conv2D",
          "config": {
            "name": "conv3_block3_1_conv",
            "trainable": false,
            "dtype": "float32",
            "filters": 128,
            "kernel_size": [
              1,
              1
            ],
            "strides": [
              1,
              1
            ],
            "padding": "valid",
            "data_format": "channels_last",
            "dilation_rate": [
              1,
              1
            ],
            "groups": 1,
            "activation": "linear",
            "use_bias": false,
            "kernel_initializer": {
              "module": "keras.initializers",
              "class_name": "GlorotUniform",
              "config": {
                "seed": null
              },
              "registered_name": null
            },
            "bias_initializer": {
              "module": "keras.initializers",
              "class_name": "Zeros",
              "config": {},
              "registered_name": null
            },
            "kernel_regularizer": null,
            "bias_regularizer": null,
            "activity_regularizer": null,
            "kernel_constraint": null,
            "bias_constraint": null
          },
          "registered_name": null,
          "build_config": {
            "input_shape": [
              null,
              28,
              28,
              512
            ]
          },
          "name": "conv3_block3_1_conv",
          "inbound_nodes": [
            [
              [
                "conv3_block3_preact_relu",
                0,
                0,
                {}
              ]
            ]
          ]
        },
        {
          "module": "keras.layers",
          "class_name": "BatchNormalization",
          "config": {
            "name": "conv3_block3_1_bn",
            "trainable": false,
            "dtype": "float32",
            "axis": 3,
            "momentum": 0.99,
            "epsilon": 0.00001001,
            "center": true,
            "scale": true,
            "beta_initializer": {
              "module": "keras.initializers",
              "class_name": "Zeros",
              "config": {},
              "registered_name": null
            },
            "gamma_initializer": {
              "module": "keras.initializers",
              "class_name": "Ones",
              "config": {},
              "registered_name": null
            },
            "moving_mean_initializer": {
              "module": "keras.initializers",
              "class_name": "Zeros",
              "config": {},
              "registered_name": null
            },
            "moving_variance_initializer": {
              "module": "keras.initializers",
              "class_name": "Ones",
              "config": {},
              "registered_name": null
            },
            "beta_regularizer": null,
            "gamma_regularizer": null,
            "beta_constraint": null,
            "gamma_constraint": null,
            "synchronized": false
          },
          "registered_name": null,
          "build_config": {
            "input_shape": [
              null,
              28,
              28,
              128
            ]
          },
          "name": "conv3_block3_1_bn",
          "inbound_nodes": [
            [
              [
                "conv3_block3_1_conv",
                0,
                0,
                {}
              ]
            ]
          ]
        },
        {
          "module": "keras.layers",
          "class_name": "Activation",
          "config": {
            "name": "conv3_block3_1_relu",
            "trainable": false,
            "dtype": "float32",
            "activation": "relu"
          },
          "registered_name": null,
          "name": "conv3_block3_1_relu",
          "inbound_nodes": [
            [
              [
                "conv3_block3_1_bn",
                0,
                0,
                {}
              ]
            ]
          ]
        },
        {
          "module": "keras.layers",
          "class_name": "ZeroPadding2D",
          "config": {
            "name": "conv3_block3_2_pad",
            "trainable": false,
            "dtype": "float32",
            "padding": [
              [
                1,
                1
              ],
              [
                1,
                1
              ]
            ],
            "data_format": "channels_last"
          },
          "registered_name": null,
          "build_config": {
            "input_shape": [
              null,
              28,
              28,
              128
            ]
          },
          "name": "conv3_block3_2_pad",
          "inbound_nodes": [
            [
              [
                "conv3_block3_1_relu",
                0,
                0,
                {}
              ]
            ]
          ]
        },
        {
          "module": "keras.layers",
          "class_name": "Conv2D",
          "config": {
            "name": "conv3_block3_2_conv",
            "trainable": false,
            "dtype": "float32",
            "filters": 128,
            "kernel_size": [
              3,
              3
            ],
            "strides": [
              1,
              1
            ],
            "padding": "valid",
            "data_format": "channels_last",
            "dilation_rate": [
              1,
              1
            ],
            "groups": 1,
            "activation": "linear",
            "use_bias": false,
            "kernel_initializer": {
              "module": "keras.initializers",
              "class_name": "GlorotUniform",
              "config": {
                "seed": null
              },
              "registered_name": null
            },
            "bias_initializer": {
              "module": "keras.initializers",
              "class_name": "Zeros",
              "config": {},
              "registered_name": null
            },
            "kernel_regularizer": null,
            "bias_regularizer": null,
            "activity_regularizer": null,
            "kernel_constraint": null,
            "bias_constraint": null
          },
          "registered_name": null,
          "build_config": {
            "input_shape": [
              null,
              30,
              30,
              128
            ]
          },
          "name": "conv3_block3_2_conv",
          "inbound_nodes": [
            [
              [
                "conv3_block3_2_pad",
                0,
                0,
                {}
              ]
            ]
          ]
        },
        {
          "module": "keras.layers",
          "class_name": "BatchNormalization",
          "config": {
            "name": "conv3_block3_2_bn",
            "trainable": false,
            "dtype": "float32",
            "axis": 3,
            "momentum": 0.99,
            "epsilon": 0.00001001,
            "center": true,
            "scale": true,
            "beta_initializer": {
              "module": "keras.initializers",
              "class_name": "Zeros",
              "config": {},
              "registered_name": null
            },
            "gamma_initializer": {
              "module": "keras.initializers",
              "class_name": "Ones",
              "config": {},
              "registered_name": null
            },
            "moving_mean_initializer": {
              "module": "keras.initializers",
              "class_name": "Zeros",
              "config": {},
              "registered_name": null
            },
            "moving_variance_initializer": {
              "module": "keras.initializers",
              "class_name": "Ones",
              "config": {},
              "registered_name": null
            },
            "beta_regularizer": null,
            "gamma_regularizer": null,
            "beta_constraint": null,
            "gamma_constraint": null,
            "synchronized": false
          },
          "registered_name": null,
          "build_config": {
            "input_shape": [
              null,
              28,
              28,
              128
            ]
          },
          "name": "conv3_block3_2_bn",
          "inbound_nodes": [
            [
              [
                "conv3_block3_2_conv",
                0,
                0,
                {}
              ]
            ]
          ]
        },
        {
          "module": "keras.layers",
          "class_name": "Activation",
          "config": {
            "name": "conv3_block3_2_relu",
            "trainable": false,
            "dtype": "float32",
            "activation": "relu"
          },
          "registered_name": null,
          "name": "conv3_block3_2_relu",
          "inbound_nodes": [
            [
              [
                "conv3_block3_2_bn",
                0,
                0,
                {}
              ]
            ]
          ]
        },
        {
          "module": "keras.layers",
          "class_name": "Conv2D",
          "config": {
            "name": "conv3_block3_3_conv",
            "trainable": false,
            "dtype": "float32",
            "filters": 512,
            "kernel_size": [
              1,
              1
            ],
            "strides": [
              1,
              1
            ],
            "padding": "valid",
            "data_format": "channels_last",
            "dilation_rate": [
              1,
              1
            ],
            "groups": 1,
            "activation": "linear",
            "use_bias": true,
            "kernel_initializer": {
              "module": "keras.initializers",
              "class_name": "GlorotUniform",
              "config": {
                "seed": null
              },
              "registered_name": null
            },
            "bias_initializer": {
              "module": "keras.initializers",
              "class_name": "Zeros",
              "config": {},
              "registered_name": null
            },
            "kernel_regularizer": null,
            "bias_regularizer": null,
            "activity_regularizer": null,
            "kernel_constraint": null,
            "bias_constraint": null
          },
          "registered_name": null,
          "build_config": {
            "input_shape": [
              null,
              28,
              28,
              128
            ]
          },
          "name": "conv3_block3_3_conv",
          "inbound_nodes": [
            [
              [
                "conv3_block3_2_relu",
                0,
                0,
                {}
              ]
            ]
          ]
        },
        {
          "module": "keras.layers",
          "class_name": "Add",
          "config": {
            "name": "conv3_block3_out",
            "trainable": false,
            "dtype": "float32"
          },
          "registered_name": null,
          "build_config": {
            "input_shape": [
              [
                null,
                28,
                28,
                512
              ],
              [
                null,
                28,
                28,
                512
              ]
            ]
          },
          "name": "conv3_block3_out",
          "inbound_nodes": [
            {
              "args": [
                [
                  {
                    "class_name": "__keras_tensor__",
                    "config": {
                      "shape": [
                        null,
                        28,
                        28,
                        512
                      ],
                      "dtype": "float32",
                      "keras_history": [
                        "conv3_block2_out",
                        0,
                        0
                      ]
                    }
                  },
                  {
                    "class_name": "__keras_tensor__",
                    "config": {
                      "shape": [
                        null,
                        28,
                        28,
                        512
                      ],
                      "dtype": "float32",
                      "keras_history": [
                        "conv3_block3_3_conv",
                        0,
                        0
                      ]
                    }
                  }
                ]
              ],
              "kwargs": {}
            }
          ]
        },
        {
          "module": "keras.layers",
          "class_name": "BatchNormalization",
          "config": {
            "name": "conv3_block4_preact_bn",
            "trainable": false,
            "dtype": "float32",
            "axis": 3,
            "momentum": 0.99,
            "epsilon": 0.00001001,
            "center": true,
            "scale": true,
            "beta_initializer": {
              "module": "keras.initializers",
              "class_name": "Zeros",
              "config": {},
              "registered_name": null
            },
            "gamma_initializer": {
              "module": "keras.initializers",
              "class_name": "Ones",
              "config": {},
              "registered_name": null
            },
            "moving_mean_initializer": {
              "module": "keras.initializers",
              "class_name": "Zeros",
              "config": {},
              "registered_name": null
            },
            "moving_variance_initializer": {
              "module": "keras.initializers",
              "class_name": "Ones",
              "config": {},
              "registered_name": null
            },
            "beta_regularizer": null,
            "gamma_regularizer": null,
            "beta_constraint": null,
            "gamma_constraint": null,
            "synchronized": false
          },
          "registered_name": null,
          "build_config": {
            "input_shape": [
              null,
              28,
              28,
              512
            ]
          },
          "name": "conv3_block4_preact_bn",
          "inbound_nodes": [
            [
              [
                "conv3_block3_out",
                0,
                0,
                {}
              ]
            ]
          ]
        },
        {
          "module": "keras.layers",
          "class_name": "Activation",
          "config": {
            "name": "conv3_block4_preact_relu",
            "trainable": false,
            "dtype": "float32",
            "activation": "relu"
          },
          "registered_name": null,
          "name": "conv3_block4_preact_relu",
          "inbound_nodes": [
            [
              [
                "conv3_block4_preact_bn",
                0,
                0,
                {}
              ]
            ]
          ]
        },
        {
          "module": "keras.layers",
          "class_name": "Conv2D",
          "config": {
            "name": "conv3_block4_1_conv",
            "trainable": false,
            "dtype": "float32",
            "filters": 128,
            "kernel_size": [
              1,
              1
            ],
            "strides": [
              1,
              1
            ],
            "padding": "valid",
            "data_format": "channels_last",
            "dilation_rate": [
              1,
              1
            ],
            "groups": 1,
            "activation": "linear",
            "use_bias": false,
            "kernel_initializer": {
              "module": "keras.initializers",
              "class_name": "GlorotUniform",
              "config": {
                "seed": null
              },
              "registered_name": null
            },
            "bias_initializer": {
              "module": "keras.initializers",
              "class_name": "Zeros",
              "config": {},
              "registered_name": null
            },
            "kernel_regularizer": null,
            "bias_regularizer": null,
            "activity_regularizer": null,
            "kernel_constraint": null,
            "bias_constraint": null
          },
          "registered_name": null,
          "build_config": {
            "input_shape": [
              null,
              28,
              28,
              512
            ]
          },
          "name": "conv3_block4_1_conv",
          "inbound_nodes": [
            [
              [
                "conv3_block4_preact_relu",
                0,
                0,
                {}
              ]
            ]
          ]
        },
        {
          "module": "keras.layers",
          "class_name": "BatchNormalization",
          "config": {
            "name": "conv3_block4_1_bn",
            "trainable": false,
            "dtype": "float32",
            "axis": 3,
            "momentum": 0.99,
            "epsilon": 0.00001001,
            "center": true,
            "scale": true,
            "beta_initializer": {
              "module": "keras.initializers",
              "class_name": "Zeros",
              "config": {},
              "registered_name": null
            },
            "gamma_initializer": {
              "module": "keras.initializers",
              "class_name": "Ones",
              "config": {},
              "registered_name": null
            },
            "moving_mean_initializer": {
              "module": "keras.initializers",
              "class_name": "Zeros",
              "config": {},
              "registered_name": null
            },
            "moving_variance_initializer": {
              "module": "keras.initializers",
              "class_name": "Ones",
              "config": {},
              "registered_name": null
            },
            "beta_regularizer": null,
            "gamma_regularizer": null,
            "beta_constraint": null,
            "gamma_constraint": null,
            "synchronized": false
          },
          "registered_name": null,
          "build_config": {
            "input_shape": [
              null,
              28,
              28,
              128
            ]
          },
          "name": "conv3_block4_1_bn",
          "inbound_nodes": [
            [
              [
                "conv3_block4_1_conv",
                0,
                0,
                {}
              ]
            ]
          ]
        },
        {
          "module": "keras.layers",
          "class_name": "Activation",
          "config": {
            "name": "conv3_block4_1_relu",
            "trainable": false,
            "dtype": "float32",
            "activation": "relu"
          },
          "registered_name": null,
          "name": "conv3_block4_1_relu",
          "inbound_nodes": [
            [
              [
                "conv3_block4_1_bn",
                0,
                0,
                {}
              ]
            ]
          ]
        },
        {
          "module": "keras.layers",
          "class_name": "ZeroPadding2D",
          "config": {
            "name": "conv3_block4_2_pad",
            "trainable": false,
            "dtype": "float32",
            "padding": [
              [
                1,
                1
              ],
              [
                1,
                1
              ]
            ],
            "data_format": "channels_last"
          },
          "registered_name": null,
          "build_config": {
            "input_shape": [
              null,
              28,
              28,
              128
            ]
          },
          "name": "conv3_block4_2_pad",
          "inbound_nodes": [
            [
              [
                "conv3_block4_1_relu",
                0,
                0,
                {}
              ]
            ]
          ]
        },
        {
          "module": "keras.layers",
          "class_name": "Conv2D",
          "config": {
            "name": "conv3_block4_2_conv",
            "trainable": false,
            "dtype": "float32",
            "filters": 128,
            "kernel_size": [
              3,
              3
            ],
            "strides": [
              2,
              2
            ],
            "padding": "valid",
            "data_format": "channels_last",
            "dilation_rate": [
              1,
              1
            ],
            "groups": 1,
            "activation": "linear",
            "use_bias": false,
            "kernel_initializer": {
              "module": "keras.initializers",
              "class_name": "GlorotUniform",
              "config": {
                "seed": null
              },
              "registered_name": null
            },
            "bias_initializer": {
              "module": "keras.initializers",
              "class_name": "Zeros",
              "config": {},
              "registered_name": null
            },
            "kernel_regularizer": null,
            "bias_regularizer": null,
            "activity_regularizer": null,
            "kernel_constraint": null,
            "bias_constraint": null
          },
          "registered_name": null,
          "build_config": {
            "input_shape": [
              null,
              30,
              30,
              128
            ]
          },
          "name": "conv3_block4_2_conv",
          "inbound_nodes": [
            [
              [
                "conv3_block4_2_pad",
                0,
                0,
                {}
              ]
            ]
          ]
        },
        {
          "module": "keras.layers",
          "class_name": "BatchNormalization",
          "config": {
            "name": "conv3_block4_2_bn",
            "trainable": false,
            "dtype": "float32",
            "axis": 3,
            "momentum": 0.99,
            "epsilon": 0.00001001,
            "center": true,
            "scale": true,
            "beta_initializer": {
              "module": "keras.initializers",
              "class_name": "Zeros",
              "config": {},
              "registered_name": null
            },
            "gamma_initializer": {
              "module": "keras.initializers",
              "class_name": "Ones",
              "config": {},
              "registered_name": null
            },
            "moving_mean_initializer": {
              "module": "keras.initializers",
              "class_name": "Zeros",
              "config": {},
              "registered_name": null
            },
            "moving_variance_initializer": {
              "module": "keras.initializers",
              "class_name": "Ones",
              "config": {},
              "registered_name": null
            },
            "beta_regularizer": null,
            "gamma_regularizer": null,
            "beta_constraint": null,
            "gamma_constraint": null,
            "synchronized": false
          },
          "registered_name": null,
          "build_config": {
            "input_shape": [
              null,
              14,
              14,
              128
            ]
          },
          "name": "conv3_block4_2_bn",
          "inbound_nodes": [
            [
              [
                "conv3_block4_2_conv",
                0,
                0,
                {}
              ]
            ]
          ]
        },
        {
          "module": "keras.layers",
          "class_name": "Activation",
          "config": {
            "name": "conv3_block4_2_relu",
            "trainable": false,
            "dtype": "float32",
            "activation": "relu"
          },
          "registered_name": null,
          "name": "conv3_block4_2_relu",
          "inbound_nodes": [
            [
              [
                "conv3_block4_2_bn",
                0,
                0,
                {}
              ]
            ]
          ]
        },
        {
          "module": "keras.layers",
          "class_name": "MaxPooling2D",
          "config": {
            "name": "max_pooling2d_1",
            "trainable": false,
            "dtype": "float32",
            "pool_size": [
              1,
              1
            ],
            "padding": "valid",
            "strides": [
              2,
              2
            ],
            "data_format": "channels_last"
          },
          "registered_name": null,
          "name": "max_pooling2d_1",
          "inbound_nodes": [
            [
              [
                "conv3_block3_out",
                0,
                0,
                {}
              ]
            ]
          ]
        },
        {
          "module": "keras.layers",
          "class_name": "Conv2D",
          "config": {
            "name": "conv3_block4_3_conv",
            "trainable": false,
            "dtype": "float32",
            "filters": 512,
            "kernel_size": [
              1,
              1
            ],
            "strides": [
              1,
              1
            ],
            "padding": "valid",
            "data_format": "channels_last",
            "dilation_rate": [
              1,
              1
            ],
            "groups": 1,
            "activation": "linear",
            "use_bias": true,
            "kernel_initializer": {
              "module": "keras.initializers",
              "class_name": "GlorotUniform",
              "config": {
                "seed": null
              },
              "registered_name": null
            },
            "bias_initializer": {
              "module": "keras.initializers",
              "class_name": "Zeros",
              "config": {},
              "registered_name": null
            },
            "kernel_regularizer": null,
            "bias_regularizer": null,
            "activity_regularizer": null,
            "kernel_constraint": null,
            "bias_constraint": null
          },
          "registered_name": null,
          "build_config": {
            "input_shape": [
              null,
              14,
              14,
              128
            ]
          },
          "name": "conv3_block4_3_conv",
          "inbound_nodes": [
            [
              [
                "conv3_block4_2_relu",
                0,
                0,
                {}
              ]
            ]
          ]
        },
        {
          "module": "keras.layers",
          "class_name": "Add",
          "config": {
            "name": "conv3_block4_out",
            "trainable": false,
            "dtype": "float32"
          },
          "registered_name": null,
          "build_config": {
            "input_shape": [
              [
                null,
                14,
                14,
                512
              ],
              [
                null,
                14,
                14,
                512
              ]
            ]
          },
          "name": "conv3_block4_out",
          "inbound_nodes": [
            {
              "args": [
                [
                  {
                    "class_name": "__keras_tensor__",
                    "config": {
                      "shape": [
                        null,
                        14,
                        14,
                        512
                      ],
                      "dtype": "float32",
                      "keras_history": [
                        "max_pooling2d_1",
                        0,
                        0
                      ]
                    }
                  },
                  {
                    "class_name": "__keras_tensor__",
                    "config": {
                      "shape": [
                        null,
                        14,
                        14,
                        512
                      ],
                      "dtype": "float32",
                      "keras_history": [
                        "conv3_block4_3_conv",
                        0,
                        0
                      ]
                    }
                  }
                ]
              ],
              "kwargs": {}
            }
          ]
        },
        {
          "module": "keras.layers",
          "class_name": "BatchNormalization",
          "config": {
            "name": "conv4_block1_preact_bn",
            "trainable": false,
            "dtype": "float32",
            "axis": 3,
            "momentum": 0.99,
            "epsilon": 0.00001001,
            "center": true,
            "scale": true,
            "beta_initializer": {
              "module": "keras.initializers",
              "class_name": "Zeros",
              "config": {},
              "registered_name": null
            },
            "gamma_initializer": {
              "module": "keras.initializers",
              "class_name": "Ones",
              "config": {},
              "registered_name": null
            },
            "moving_mean_initializer": {
              "module": "keras.initializers",
              "class_name": "Zeros",
              "config": {},
              "registered_name": null
            },
            "moving_variance_initializer": {
              "module": "keras.initializers",
              "class_name": "Ones",
              "config": {},
              "registered_name": null
            },
            "beta_regularizer": null,
            "gamma_regularizer": null,
            "beta_constraint": null,
            "gamma_constraint": null,
            "synchronized": false
          },
          "registered_name": null,
          "build_config": {
            "input_shape": [
              null,
              14,
              14,
              512
            ]
          },
          "name": "conv4_block1_preact_bn",
          "inbound_nodes": [
            [
              [
                "conv3_block4_out",
                0,
                0,
                {}
              ]
            ]
          ]
        },
        {
          "module": "keras.layers",
          "class_name": "Activation",
          "config": {
            "name": "conv4_block1_preact_relu",
            "trainable": false,
            "dtype": "float32",
            "activation": "relu"
          },
          "registered_name": null,
          "name": "conv4_block1_preact_relu",
          "inbound_nodes": [
            [
              [
                "conv4_block1_preact_bn",
                0,
                0,
                {}
              ]
            ]
          ]
        },
        {
          "module": "keras.layers",
          "class_name": "Conv2D",
          "config": {
            "name": "conv4_block1_1_conv",
            "trainable": false,
            "dtype": "float32",
            "filters": 256,
            "kernel_size": [
              1,
              1
            ],
            "strides": [
              1,
              1
            ],
            "padding": "valid",
            "data_format": "channels_last",
            "dilation_rate": [
              1,
              1
            ],
            "groups": 1,
            "activation": "linear",
            "use_bias": false,
            "kernel_initializer": {
              "module": "keras.initializers",
              "class_name": "GlorotUniform",
              "config": {
                "seed": null
              },
              "registered_name": null
            },
            "bias_initializer": {
              "module": "keras.initializers",
              "class_name": "Zeros",
              "config": {},
              "registered_name": null
            },
            "kernel_regularizer": null,
            "bias_regularizer": null,
            "activity_regularizer": null,
            "kernel_constraint": null,
            "bias_constraint": null
          },
          "registered_name": null,
          "build_config": {
            "input_shape": [
              null,
              14,
              14,
              512
            ]
          },
          "name": "conv4_block1_1_conv",
          "inbound_nodes": [
            [
              [
                "conv4_block1_preact_relu",
                0,
                0,
                {}
              ]
            ]
          ]
        },
        {
          "module": "keras.layers",
          "class_name": "BatchNormalization",
          "config": {
            "name": "conv4_block1_1_bn",
            "trainable": false,
            "dtype": "float32",
            "axis": 3,
            "momentum": 0.99,
            "epsilon": 0.00001001,
            "center": true,
            "scale": true,
            "beta_initializer": {
              "module": "keras.initializers",
              "class_name": "Zeros",
              "config": {},
              "registered_name": null
            },
            "gamma_initializer": {
              "module": "keras.initializers",
              "class_name": "Ones",
              "config": {},
              "registered_name": null
            },
            "moving_mean_initializer": {
              "module": "keras.initializers",
              "class_name": "Zeros",
              "config": {},
              "registered_name": null
            },
            "moving_variance_initializer": {
              "module": "keras.initializers",
              "class_name": "Ones",
              "config": {},
              "registered_name": null
            },
            "beta_regularizer": null,
            "gamma_regularizer": null,
            "beta_constraint": null,
            "gamma_constraint": null,
            "synchronized": false
          },
          "registered_name": null,
          "build_config": {
            "input_shape": [
              null,
              14,
              14,
              256
            ]
          },
          "name": "conv4_block1_1_bn",
          "inbound_nodes": [
            [
              [
                "conv4_block1_1_conv",
                0,
                0,
                {}
              ]
            ]
          ]
        },
        {
          "module": "keras.layers",
          "class_name": "Activation",
          "config": {
            "name": "conv4_block1_1_relu",
            "trainable": false,
            "dtype": "float32",
            "activation": "relu"
          },
          "registered_name": null,
          "name": "conv4_block1_1_relu",
          "inbound_nodes": [
            [
              [
                "conv4_block1_1_bn",
                0,
                0,
                {}
              ]
            ]
          ]
        },
        {
          "module": "keras.layers",
          "class_name": "ZeroPadding2D",
          "config": {
            "name": "conv4_block1_2_pad",
            "trainable": false,
            "dtype": "float32",
            "padding": [
              [
                1,
                1
              ],
              [
                1,
                1
              ]
            ],
            "data_format": "channels_last"
          },
          "registered_name": null,
          "build_config": {
            "input_shape": [
              null,
              14,
              14,
              256
            ]
          },
          "name": "conv4_block1_2_pad",
          "inbound_nodes": [
            [
              [
                "conv4_block1_1_relu",
                0,
                0,
                {}
              ]
            ]
          ]
        },
        {
          "module": "keras.layers",
          "class_name": "Conv2D",
          "config": {
            "name": "conv4_block1_2_conv",
            "trainable": false,
            "dtype": "float32",
            "filters": 256,
            "kernel_size": [
              3,
              3
            ],
            "strides": [
              1,
              1
            ],
            "padding": "valid",
            "data_format": "channels_last",
            "dilation_rate": [
              1,
              1
            ],
            "groups": 1,
            "activation": "linear",
            "use_bias": false,
            "kernel_initializer": {
              "module": "keras.initializers",
              "class_name": "GlorotUniform",
              "config": {
                "seed": null
              },
              "registered_name": null
            },
            "bias_initializer": {
              "module": "keras.initializers",
              "class_name": "Zeros",
              "config": {},
              "registered_name": null
            },
            "kernel_regularizer": null,
            "bias_regularizer": null,
            "activity_regularizer": null,
            "kernel_constraint": null,
            "bias_constraint": null
          },
          "registered_name": null,
          "build_config": {
            "input_shape": [
              null,
              16,
              16,
              256
            ]
          },
          "name": "conv4_block1_2_conv",
          "inbound_nodes": [
            [
              [
                "conv4_block1_2_pad",
                0,
                0,
                {}
              ]
            ]
          ]
        },
        {
          "module": "keras.layers",
          "class_name": "BatchNormalization",
          "config": {
            "name": "conv4_block1_2_bn",
            "trainable": false,
            "dtype": "float32",
            "axis": 3,
            "momentum": 0.99,
            "epsilon": 0.00001001,
            "center": true,
            "scale": true,
            "beta_initializer": {
              "module": "keras.initializers",
              "class_name": "Zeros",
              "config": {},
              "registered_name": null
            },
            "gamma_initializer": {
              "module": "keras.initializers",
              "class_name": "Ones",
              "config": {},
              "registered_name": null
            },
            "moving_mean_initializer": {
              "module": "keras.initializers",
              "class_name": "Zeros",
              "config": {},
              "registered_name": null
            },
            "moving_variance_initializer": {
              "module": "keras.initializers",
              "class_name": "Ones",
              "config": {},
              "registered_name": null
            },
            "beta_regularizer": null,
            "gamma_regularizer": null,
            "beta_constraint": null,
            "gamma_constraint": null,
            "synchronized": false
          },
          "registered_name": null,
          "build_config": {
            "input_shape": [
              null,
              14,
              14,
              256
            ]
          },
          "name": "conv4_block1_2_bn",
          "inbound_nodes": [
            [
              [
                "conv4_block1_2_conv",
                0,
                0,
                {}
              ]
            ]
          ]
        },
        {
          "module": "keras.layers",
          "class_name": "Activation",
          "config": {
            "name": "conv4_block1_2_relu",
            "trainable": false,
            "dtype": "float32",
            "activation": "relu"
          },
          "registered_name": null,
          "name": "conv4_block1_2_relu",
          "inbound_nodes": [
            [
              [
                "conv4_block1_2_bn",
                0,
                0,
                {}
              ]
            ]
          ]
        },
        {
          "module": "keras.layers",
          "class_name": "Conv2D",
          "config": {
            "name": "conv4_block1_0_conv",
            "trainable": false,
            "dtype": "float32",
            "filters": 1024,
            "kernel_size": [
              1,
              1
            ],
            "strides": [
              1,
              1
            ],
            "padding": "valid",
            "data_format": "channels_last",
            "dilation_rate": [
              1,
              1
            ],
            "groups": 1,
            "activation": "linear",
            "use_bias": true,
            "kernel_initializer": {
              "module": "keras.initializers",
              "class_name": "GlorotUniform",
              "config": {
                "seed": null
              },
              "registered_name": null
            },
            "bias_initializer": {
              "module": "keras.initializers",
              "class_name": "Zeros",
              "config": {},
              "registered_name": null
            },
            "kernel_regularizer": null,
            "bias_regularizer": null,
            "activity_regularizer": null,
            "kernel_constraint": null,
            "bias_constraint": null
          },
          "registered_name": null,
          "build_config": {
            "input_shape": [
              null,
              14,
              14,
              512
            ]
          },
          "name": "conv4_block1_0_conv",
          "inbound_nodes": [
            [
              [
                "conv4_block1_preact_relu",
                0,
                0,
                {}
              ]
            ]
          ]
        },
        {
          "module": "keras.layers",
          "class_name": "Conv2D",
          "config": {
            "name": "conv4_block1_3_conv",
            "trainable": false,
            "dtype": "float32",
            "filters": 1024,
            "kernel_size": [
              1,
              1
            ],
            "strides": [
              1,
              1
            ],
            "padding": "valid",
            "data_format": "channels_last",
            "dilation_rate": [
              1,
              1
            ],
            "groups": 1,
            "activation": "linear",
            "use_bias": true,
            "kernel_initializer": {
              "module": "keras.initializers",
              "class_name": "GlorotUniform",
              "config": {
                "seed": null
              },
              "registered_name": null
            },
            "bias_initializer": {
              "module": "keras.initializers",
              "class_name": "Zeros",
              "config": {},
              "registered_name": null
            },
            "kernel_regularizer": null,
            "bias_regularizer": null,
            "activity_regularizer": null,
            "kernel_constraint": null,
            "bias_constraint": null
          },
          "registered_name": null,
          "build_config": {
            "input_shape": [
              null,
              14,
              14,
              256
            ]
          },
          "name": "conv4_block1_3_conv",
          "inbound_nodes": [
            [
              [
                "conv4_block1_2_relu",
                0,
                0,
                {}
              ]
            ]
          ]
        },
        {
          "module": "keras.layers",
          "class_name": "Add",
          "config": {
            "name": "conv4_block1_out",
            "trainable": false,
            "dtype": "float32"
          },
          "registered_name": null,
          "build_config": {
            "input_shape": [
              [
                null,
                14,
                14,
                1024
              ],
              [
                null,
                14,
                14,
                1024
              ]
            ]
          },
          "name": "conv4_block1_out",
          "inbound_nodes": [
            {
              "args": [
                [
                  {
                    "class_name": "__keras_tensor__",
                    "config": {
                      "shape": [
                        null,
                        14,
                        14,
                        1024
                      ],
                      "dtype": "float32",
                      "keras_history": [
                        "conv4_block1_0_conv",
                        0,
                        0
                      ]
                    }
                  },
                  {
                    "class_name": "__keras_tensor__",
                    "config": {
                      "shape": [
                        null,
                        14,
                        14,
                        1024
                      ],
                      "dtype": "float32",
                      "keras_history": [
                        "conv4_block1_3_conv",
                        0,
                        0
                      ]
                    }
                  }
                ]
              ],
              "kwargs": {}
            }
          ]
        },
        {
          "module": "keras.layers",
          "class_name": "BatchNormalization",
          "config": {
            "name": "conv4_block2_preact_bn",
            "trainable": false,
            "dtype": "float32",
            "axis": 3,
            "momentum": 0.99,
            "epsilon": 0.00001001,
            "center": true,
            "scale": true,
            "beta_initializer": {
              "module": "keras.initializers",
              "class_name": "Zeros",
              "config": {},
              "registered_name": null
            },
            "gamma_initializer": {
              "module": "keras.initializers",
              "class_name": "Ones",
              "config": {},
              "registered_name": null
            },
            "moving_mean_initializer": {
              "module": "keras.initializers",
              "class_name": "Zeros",
              "config": {},
              "registered_name": null
            },
            "moving_variance_initializer": {
              "module": "keras.initializers",
              "class_name": "Ones",
              "config": {},
              "registered_name": null
            },
            "beta_regularizer": null,
            "gamma_regularizer": null,
            "beta_constraint": null,
            "gamma_constraint": null,
            "synchronized": false
          },
          "registered_name": null,
          "build_config": {
            "input_shape": [
              null,
              14,
              14,
              1024
            ]
          },
          "name": "conv4_block2_preact_bn",
          "inbound_nodes": [
            [
              [
                "conv4_block1_out",
                0,
                0,
                {}
              ]
            ]
          ]
        },
        {
          "module": "keras.layers",
          "class_name": "Activation",
          "config": {
            "name": "conv4_block2_preact_relu",
            "trainable": false,
            "dtype": "float32",
            "activation": "relu"
          },
          "registered_name": null,
          "name": "conv4_block2_preact_relu",
          "inbound_nodes": [
            [
              [
                "conv4_block2_preact_bn",
                0,
                0,
                {}
              ]
            ]
          ]
        },
        {
          "module": "keras.layers",
          "class_name": "Conv2D",
          "config": {
            "name": "conv4_block2_1_conv",
            "trainable": false,
            "dtype": "float32",
            "filters": 256,
            "kernel_size": [
              1,
              1
            ],
            "strides": [
              1,
              1
            ],
            "padding": "valid",
            "data_format": "channels_last",
            "dilation_rate": [
              1,
              1
            ],
            "groups": 1,
            "activation": "linear",
            "use_bias": false,
            "kernel_initializer": {
              "module": "keras.initializers",
              "class_name": "GlorotUniform",
              "config": {
                "seed": null
              },
              "registered_name": null
            },
            "bias_initializer": {
              "module": "keras.initializers",
              "class_name": "Zeros",
              "config": {},
              "registered_name": null
            },
            "kernel_regularizer": null,
            "bias_regularizer": null,
            "activity_regularizer": null,
            "kernel_constraint": null,
            "bias_constraint": null
          },
          "registered_name": null,
          "build_config": {
            "input_shape": [
              null,
              14,
              14,
              1024
            ]
          },
          "name": "conv4_block2_1_conv",
          "inbound_nodes": [
            [
              [
                "conv4_block2_preact_relu",
                0,
                0,
                {}
              ]
            ]
          ]
        },
        {
          "module": "keras.layers",
          "class_name": "BatchNormalization",
          "config": {
            "name": "conv4_block2_1_bn",
            "trainable": false,
            "dtype": "float32",
            "axis": 3,
            "momentum": 0.99,
            "epsilon": 0.00001001,
            "center": true,
            "scale": true,
            "beta_initializer": {
              "module": "keras.initializers",
              "class_name": "Zeros",
              "config": {},
              "registered_name": null
            },
            "gamma_initializer": {
              "module": "keras.initializers",
              "class_name": "Ones",
              "config": {},
              "registered_name": null
            },
            "moving_mean_initializer": {
              "module": "keras.initializers",
              "class_name": "Zeros",
              "config": {},
              "registered_name": null
            },
            "moving_variance_initializer": {
              "module": "keras.initializers",
              "class_name": "Ones",
              "config": {},
              "registered_name": null
            },
            "beta_regularizer": null,
            "gamma_regularizer": null,
            "beta_constraint": null,
            "gamma_constraint": null,
            "synchronized": false
          },
          "registered_name": null,
          "build_config": {
            "input_shape": [
              null,
              14,
              14,
              256
            ]
          },
          "name": "conv4_block2_1_bn",
          "inbound_nodes": [
            [
              [
                "conv4_block2_1_conv",
                0,
                0,
                {}
              ]
            ]
          ]
        },
        {
          "module": "keras.layers",
          "class_name": "Activation",
          "config": {
            "name": "conv4_block2_1_relu",
            "trainable": false,
            "dtype": "float32",
            "activation": "relu"
          },
          "registered_name": null,
          "name": "conv4_block2_1_relu",
          "inbound_nodes": [
            [
              [
                "conv4_block2_1_bn",
                0,
                0,
                {}
              ]
            ]
          ]
        },
        {
          "module": "keras.layers",
          "class_name": "ZeroPadding2D",
          "config": {
            "name": "conv4_block2_2_pad",
            "trainable": false,
            "dtype": "float32",
            "padding": [
              [
                1,
                1
              ],
              [
                1,
                1
              ]
            ],
            "data_format": "channels_last"
          },
          "registered_name": null,
          "build_config": {
            "input_shape": [
              null,
              14,
              14,
              256
            ]
          },
          "name": "conv4_block2_2_pad",
          "inbound_nodes": [
            [
              [
                "conv4_block2_1_relu",
                0,
                0,
                {}
              ]
            ]
          ]
        },
        {
          "module": "keras.layers",
          "class_name": "Conv2D",
          "config": {
            "name": "conv4_block2_2_conv",
            "trainable": false,
            "dtype": "float32",
            "filters": 256,
            "kernel_size": [
              3,
              3
            ],
            "strides": [
              1,
              1
            ],
            "padding": "valid",
            "data_format": "channels_last",
            "dilation_rate": [
              1,
              1
            ],
            "groups": 1,
            "activation": "linear",
            "use_bias": false,
            "kernel_initializer": {
              "module": "keras.initializers",
              "class_name": "GlorotUniform",
              "config": {
                "seed": null
              },
              "registered_name": null
            },
            "bias_initializer": {
              "module": "keras.initializers",
              "class_name": "Zeros",
              "config": {},
              "registered_name": null
            },
            "kernel_regularizer": null,
            "bias_regularizer": null,
            "activity_regularizer": null,
            "kernel_constraint": null,
            "bias_constraint": null
          },
          "registered_name": null,
          "build_config": {
            "input_shape": [
              null,
              16,
              16,
              256
            ]
          },
          "name": "conv4_block2_2_conv",
          "inbound_nodes": [
            [
              [
                "conv4_block2_2_pad",
                0,
                0,
                {}
              ]
            ]
          ]
        },
        {
          "module": "keras.layers",
          "class_name": "BatchNormalization",
          "config": {
            "name": "conv4_block2_2_bn",
            "trainable": false,
            "dtype": "float32",
            "axis": 3,
            "momentum": 0.99,
            "epsilon": 0.00001001,
            "center": true,
            "scale": true,
            "beta_initializer": {
              "module": "keras.initializers",
              "class_name": "Zeros",
              "config": {},
              "registered_name": null
            },
            "gamma_initializer": {
              "module": "keras.initializers",
              "class_name": "Ones",
              "config": {},
              "registered_name": null
            },
            "moving_mean_initializer": {
              "module": "keras.initializers",
              "class_name": "Zeros",
              "config": {},
              "registered_name": null
            },
            "moving_variance_initializer": {
              "module": "keras.initializers",
              "class_name": "Ones",
              "config": {},
              "registered_name": null
            },
            "beta_regularizer": null,
            "gamma_regularizer": null,
            "beta_constraint": null,
            "gamma_constraint": null,
            "synchronized": false
          },
          "registered_name": null,
          "build_config": {
            "input_shape": [
              null,
              14,
              14,
              256
            ]
          },
          "name": "conv4_block2_2_bn",
          "inbound_nodes": [
            [
              [
                "conv4_block2_2_conv",
                0,
                0,
                {}
              ]
            ]
          ]
        },
        {
          "module": "keras.layers",
          "class_name": "Activation",
          "config": {
            "name": "conv4_block2_2_relu",
            "trainable": false,
            "dtype": "float32",
            "activation": "relu"
          },
          "registered_name": null,
          "name": "conv4_block2_2_relu",
          "inbound_nodes": [
            [
              [
                "conv4_block2_2_bn",
                0,
                0,
                {}
              ]
            ]
          ]
        },
        {
          "module": "keras.layers",
          "class_name": "Conv2D",
          "config": {
            "name": "conv4_block2_3_conv",
            "trainable": false,
            "dtype": "float32",
            "filters": 1024,
            "kernel_size": [
              1,
              1
            ],
            "strides": [
              1,
              1
            ],
            "padding": "valid",
            "data_format": "channels_last",
            "dilation_rate": [
              1,
              1
            ],
            "groups": 1,
            "activation": "linear",
            "use_bias": true,
            "kernel_initializer": {
              "module": "keras.initializers",
              "class_name": "GlorotUniform",
              "config": {
                "seed": null
              },
              "registered_name": null
            },
            "bias_initializer": {
              "module": "keras.initializers",
              "class_name": "Zeros",
              "config": {},
              "registered_name": null
            },
            "kernel_regularizer": null,
            "bias_regularizer": null,
            "activity_regularizer": null,
            "kernel_constraint": null,
            "bias_constraint": null
          },
          "registered_name": null,
          "build_config": {
            "input_shape": [
              null,
              14,
              14,
              256
            ]
          },
          "name": "conv4_block2_3_conv",
          "inbound_nodes": [
            [
              [
                "conv4_block2_2_relu",
                0,
                0,
                {}
              ]
            ]
          ]
        },
        {
          "module": "keras.layers",
          "class_name": "Add",
          "config": {
            "name": "conv4_block2_out",
            "trainable": false,
            "dtype": "float32"
          },
          "registered_name": null,
          "build_config": {
            "input_shape": [
              [
                null,
                14,
                14,
                1024
              ],
              [
                null,
                14,
                14,
                1024
              ]
            ]
          },
          "name": "conv4_block2_out",
          "inbound_nodes": [
            {
              "args": [
                [
                  {
                    "class_name": "__keras_tensor__",
                    "config": {
                      "shape": [
                        null,
                        14,
                        14,
                        1024
                      ],
                      "dtype": "float32",
                      "keras_history": [
                        "conv4_block1_out",
                        0,
                        0
                      ]
                    }
                  },
                  {
                    "class_name": "__keras_tensor__",
                    "config": {
                      "shape": [
                        null,
                        14,
                        14,
                        1024
                      ],
                      "dtype": "float32",
                      "keras_history": [
                        "conv4_block2_3_conv",
                        0,
                        0
                      ]
                    }
                  }
                ]
              ],
              "kwargs": {}
            }
          ]
        },
        {
          "module": "keras.layers",
          "class_name": "BatchNormalization",
          "config": {
            "name": "conv4_block3_preact_bn",
            "trainable": false,
            "dtype": "float32",
            "axis": 3,
            "momentum": 0.99,
            "epsilon": 0.00001001,
            "center": true,
            "scale": true,
            "beta_initializer": {
              "module": "keras.initializers",
              "class_name": "Zeros",
              "config": {},
              "registered_name": null
            },
            "gamma_initializer": {
              "module": "keras.initializers",
              "class_name": "Ones",
              "config": {},
              "registered_name": null
            },
            "moving_mean_initializer": {
              "module": "keras.initializers",
              "class_name": "Zeros",
              "config": {},
              "registered_name": null
            },
            "moving_variance_initializer": {
              "module": "keras.initializers",
              "class_name": "Ones",
              "config": {},
              "registered_name": null
            },
            "beta_regularizer": null,
            "gamma_regularizer": null,
            "beta_constraint": null,
            "gamma_constraint": null,
            "synchronized": false
          },
          "registered_name": null,
          "build_config": {
            "input_shape": [
              null,
              14,
              14,
              1024
            ]
          },
          "name": "conv4_block3_preact_bn",
          "inbound_nodes": [
            [
              [
                "conv4_block2_out",
                0,
                0,
                {}
              ]
            ]
          ]
        },
        {
          "module": "keras.layers",
          "class_name": "Activation",
          "config": {
            "name": "conv4_block3_preact_relu",
            "trainable": false,
            "dtype": "float32",
            "activation": "relu"
          },
          "registered_name": null,
          "name": "conv4_block3_preact_relu",
          "inbound_nodes": [
            [
              [
                "conv4_block3_preact_bn",
                0,
                0,
                {}
              ]
            ]
          ]
        },
        {
          "module": "keras.layers",
          "class_name": "Conv2D",
          "config": {
            "name": "conv4_block3_1_conv",
            "trainable": false,
            "dtype": "float32",
            "filters": 256,
            "kernel_size": [
              1,
              1
            ],
            "strides": [
              1,
              1
            ],
            "padding": "valid",
            "data_format": "channels_last",
            "dilation_rate": [
              1,
              1
            ],
            "groups": 1,
            "activation": "linear",
            "use_bias": false,
            "kernel_initializer": {
              "module": "keras.initializers",
              "class_name": "GlorotUniform",
              "config": {
                "seed": null
              },
              "registered_name": null
            },
            "bias_initializer": {
…
            ]
          ]
        },
        {
          "module": "keras.layers",
          "class_name": "Dense",
          "config": {
            "name": "specialist_resnet50v2_output",
            "trainable": true,
            "dtype": "float32",
            "units": 1,
            "activation": "sigmoid",
            "use_bias": true,
            "kernel_initializer": {
              "module": "keras.initializers",
              "class_name": "GlorotUniform",
              "config": {
                "seed": null
              },
              "registered_name": null
            },
            "bias_initializer": {
              "module": "keras.initializers",
              "class_name": "Zeros",
              "config": {},
              "registered_name": null
            },
            "kernel_regularizer": null,
            "bias_regularizer": null,
            "kernel_constraint": null,
            "bias_constraint": null
          },
          "registered_name": null,
          "build_config": {
            "input_shape": [
              null,
              128
            ]
          },
          "name": "specialist_resnet50v2_output",
          "inbound_nodes": [
            [
              [
                "dropout_1",
                0,
                0,
                {}
              ]
            ]
          ]
        }
      ],
      "input_layers": [
        [
          "specialist_resnet50v2_input",
          0,
          0
        ]
      ],
      "output_layers": [
        [
          "specialist_resnet50v2_output",
          0,
          0
        ]
      ]
    },
    "registered_name": "Functional",
    "build_config": {
      "input_shape": null
    },
    "compile_config": {
      "optimizer": {
        "module": "keras.optimizers",
        "class_name": "AdamW",
        "config": {
          "name": "adamw",
          "learning_rate": {
            "module": null,
            "class_name": "WarmupCosineDecay",
            "config": {
              "base_lr": 0.001,
              "warmup_steps": 2618,
              "total_steps": 10472
            },
            "registered_name": "WarmupCosineDecay"
          },
          "weight_decay": 0.0001,
          "clipnorm": null,
          "global_clipnorm": null,
          "clipvalue": null,
          "use_ema": false,
          "ema_momentum": 0.99,
          "ema_overwrite_frequency": null,
          "loss_scale_factor": null,
          "gradient_accumulation_steps": null,
          "beta_1": 0.9,
          "beta_2": 0.999,
          "epsilon": 1e-7,
          "amsgrad": false
        },
        "registered_name": null
      },
      "loss": {
        "module": "keras.losses",
        "class_name": "Huber",
        "config": {
          "name": "huber_loss",
          "reduction": "sum_over_batch_size"
        },
        "registered_name": null
      },
      "loss_weights": null,
      "metrics": [
        "mae"
      ],
      "weighted_metrics": null,
      "run_eagerly": false,
      "steps_per_execution": 1,
      "jit_compile": true
    }
  },
  "weightsManifest": [
    {
      "paths": [
        "group1-shard1of1.bin"
      ],
      "weights": [
        {
          "name": "layers.batch_normalization.vars.0",
          "shape": [
            64
          ],
          "dtype": "float32"
        },
        {
          "name": "layers.batch_normalization.vars.1",
          "shape": [
            64
          ],
          "dtype": "float32"
        },
        {
          "name": "layers.batch_normalization.vars.2",
          "shape": [
            64
          ],
          "dtype": "float32"
        },
        {
          "name": "layers.batch_normalization.vars.3",
          "shape": [
            64
          ],
          "dtype": "float32"
        },
        {
          "name": "layers.batch_normalization_1.vars.0",
          "shape": [
            64
          ],
          "dtype": "float32"
        },
        {
          "name": "layers.batch_normalization_1.vars.1",
          "shape": [
            64
          ],
          "dtype": "float32"
        },
        {
          "name": "layers.batch_normalization_1.vars.2",
          "shape": [
            64
          ],
          "dtype": "float32"
        },
        {
          "name": "layers.batch_normalization_1.vars.3",
          "shape": [
            64
          ],
          "dtype": "float32"
        },
        {
          "name": "layers.batch_normalization_10.vars.0",
          "shape": [
            128
          ],
          "dtype": "float32"
        },
        {
          "name": "layers.batch_normalization_10.vars.1",
          "shape": [
            128
          ],
          "dtype": "float32"
        },
        {
          "name": "layers.batch_normalization_10.vars.2",
          "shape": [
            128
          ],
          "dtype": "float32"
        },
        {
          "name": "layers.batch_normalization_10.vars.3",
          "shape": [
            128
          ],
          "dtype": "float32"
        },
        {
          "name": "layers.batch_normalization_11.vars.0",
          "shape": [
            128
          ],
          "dtype": "float32"
        },
        {
          "name": "layers.batch_normalization_11.vars.1",
          "shape": [
            128
          ],
          "dtype": "float32"
        },
        {
          "name": "layers.batch_normalization_11.vars.2",
          "shape": [
            128
          ],
          "dtype": "float32"
        },
        {
          "name": "layers.batch_normalization_11.vars.3",
          "shape": [
            128
          ],
          "dtype": "float32"
        },
        {
          "name": "layers.batch_normalization_12.vars.0",
          "shape": [
            512
          ],
          "dtype": "float32"
        },
        {
          "name": "layers.batch_normalization_12.vars.1",
          "shape": [
            512
          ],
          "dtype": "float32"
        },
        {
          "name": "layers.batch_normalization_12.vars.2",
          "shape": [
            512
          ],
          "dtype": "float32"
        },
        {
          "name": "layers.batch_normalization_12.vars.3",
          "shape": [
            512
          ],
          "dtype": "float32"
        },
        {
          "name": "layers.batch_normalization_13.vars.0",
          "shape": [
            128
          ],
          "dtype": "float32"
        },
        {
          "name": "layers.batch_normalization_13.vars.1",
          "shape": [
            128
          ],
          "dtype": "float32"
        },
        {
          "name": "layers.batch_normalization_13.vars.2",
          "shape": [
            128
          ],
          "dtype": "float32"
        },
        {
          "name": "layers.batch_normalization_13.vars.3",
          "shape": [
            128
          ],
          "dtype": "float32"
        },
        {
          "name": "layers.batch_normalization_14.vars.0",
          "shape": [
            128
          ],
          "dtype": "float32"
        },
        {
          "name": "layers.batch_normalization_14.vars.1",
          "shape": [
            128
          ],
          "dtype": "float32"
        },
        {
          "name": "layers.batch_normalization_14.vars.2",
          "shape": [
            128
          ],
          "dtype": "float32"
        },
        {
          "name": "layers.batch_normalization_14.vars.3",
          "shape": [
            128
          ],
          "dtype": "float32"
        },
        {
          "name": "layers.batch_normalization_15.vars.0",
          "shape": [
            512
          ],
          "dtype": "float32"
        },
        {
          "name": "layers.batch_normalization_15.vars.1",
          "shape": [
            512
          ],
          "dtype": "float32"
        },
        {
          "name": "layers.batch_normalization_15.vars.2",
          "shape": [
            512
          ],
          "dtype": "float32"
        },
        {
          "name": "layers.batch_normalization_15.vars.3",
          "shape": [
            512
          ],
          "dtype": "float32"
        },
        {
          "name": "layers.batch_normalization_16.vars.0",
          "shape": [
            128
          ],
          "dtype": "float32"
        },
        {
          "name": "layers.batch_normalization_16.vars.1",
          "shape": [
            128
          ],
          "dtype": "float32"
        },
        {
          "name": "layers.batch_normalization_16.vars.2",
          "shape": [
            128
          ],
          "dtype": "float32"
        },
        {
          "name": "layers.batch_normalization_16.vars.3",
          "shape": [
            128
          ],
          "dtype": "float32"
        },
        {
          "name": "layers.batch_normalization_17.vars.0",
          "shape": [
            128
          ],
          "dtype": "float32"
        },
        {
          "name": "layers.batch_normalization_17.vars.1",
          "shape": [
            128
          ],
          "dtype": "float32"
        },
        {
          "name": "layers.batch_normalization_17.vars.2",
          "shape": [
            128
          ],
          "dtype": "float32"
        },
        {
          "name": "layers.batch_normalization_17.vars.3",
          "shape": [
            128
          ],
          "dtype": "float32"
        },
        {
          "name": "layers.batch_normalization_18.vars.0",
          "shape": [
            512
          ],
          "dtype": "float32"
        },
        {
          "name": "layers.batch_normalization_18.vars.1",
          "shape": [
            512
          ],
          "dtype": "float32"
        },
        {
          "name": "layers.batch_normalization_18.vars.2",
          "shape": [
            512
          ],
          "dtype": "float32"
        },
        {
          "name": "layers.batch_normalization_18.vars.3",
          "shape": [
            512
          ],
          "dtype": "float32"
        },
        {
          "name": "layers.batch_normalization_19.vars.0",
          "shape": [
            128
          ],
          "dtype": "float32"
        },
        {
          "name": "layers.batch_normalization_19.vars.1",
          "shape": [
            128
          ],
          "dtype": "float32"
        },
        {
          "name": "layers.batch_normalization_19.vars.2",
          "shape": [
            128
          ],
          "dtype": "float32"
        },
        {
          "name": "layers.batch_normalization_19.vars.3",
          "shape": [
            128
          ],
          "dtype": "float32"
        },
        {
          "name": "layers.batch_normalization_2.vars.0",
          "shape": [
            64
          ],
          "dtype": "float32"
        },
        {
          "name": "layers.batch_normalization_2.vars.1",
          "shape": [
            64
          ],
          "dtype": "float32"
        },
        {
          "name": "layers.batch_normalization_2.vars.2",
          "shape": [
            64
          ],
          "dtype": "float32"
        },
        {
          "name": "layers.batch_normalization_2.vars.3",
          "shape": [
            64
          ],
          "dtype": "float32"
        },
        {
          "name": "layers.batch_normalization_20.vars.0",
          "shape": [
            128
          ],
          "dtype": "float32"
        },
        {
          "name": "layers.batch_normalization_20.vars.1",
          "shape": [
            128
          ],
          "dtype": "float32"
        },
        {
          "name": "layers.batch_normalization_20.vars.2",
          "shape": [
            128
          ],
          "dtype": "float32"
        },
        {
          "name": "layers.batch_normalization_20.vars.3",
          "shape": [
            128
          ],
          "dtype": "float32"
        },
        {
          "name": "layers.batch_normalization_21.vars.0",
          "shape": [
            512
          ],
          "dtype": "float32"
        },
        {
          "name": "layers.batch_normalization_21.vars.1",
          "shape": [
            512
          ],
          "dtype": "float32"
        },
        {
          "name": "layers.batch_normalization_21.vars.2",
          "shape": [
            512
          ],
          "dtype": "float32"
        },
        {
          "name": "layers.batch_normalization_21.vars.3",
          "shape": [
            512
          ],
          "dtype": "float32"
        },
        {
          "name": "layers.batch_normalization_22.vars.0",
          "shape": [
            256
          ],
          "dtype": "float32"
        },
        {
          "name": "layers.batch_normalization_22.vars.1",
          "shape": [
            256
          ],
          "dtype": "float32"
        },
        {
          "name": "layers.batch_normalization_22.vars.2",
          "shape": [
            256
          ],
          "dtype": "float32"
        },
        {
          "name": "layers.batch_normalization_22.vars.3",
          "shape": [
            256
          ],
          "dtype": "float32"
        },
        {
          "name": "layers.batch_normalization_23.vars.0",
          "shape": [
            256
          ],
          "dtype": "float32"
        },
        {
          "name": "layers.batch_normalization_23.vars.1",
          "shape": [
            256
          ],
          "dtype": "float32"
        },
        {
          "name": "layers.batch_normalization_23.vars.2",
          "shape": [
            256
          ],
          "dtype": "float32"
        },
        {
          "name": "layers.batch_normalization_23.vars.3",
          "shape": [
            256
          ],
          "dtype": "float32"
        },
        {
          "name": "layers.batch_normalization_24.vars.0",
          "shape": [
            1024
          ],
          "dtype": "float32"
        },
        {
          "name": "layers.batch_normalization_24.vars.1",
          "shape": [
            1024
          ],
          "dtype": "float32"
        },
        {
          "name": "layers.batch_normalization_24.vars.2",
          "shape": [
            1024
          ],
          "dtype": "float32"
        },
        {
          "name": "layers.batch_normalization_24.vars.3",
          "shape": [
            1024
          ],
          "dtype": "float32"
        },
        {
          "name": "layers.batch_normalization_25.vars.0",
          "shape": [
            256
          ],
          "dtype": "float32"
        },
        {
          "name": "layers.batch_normalization_25.vars.1",
          "shape": [
            256
          ],
          "dtype": "float32"
        },
        {
          "name": "layers.batch_normalization_25.vars.2",
          "shape": [
            256
          ],
          "dtype": "float32"
        },
        {
          "name": "layers.batch_normalization_25.vars.3",
          "shape": [
            256
          ],
          "dtype": "float32"
        },
        {
          "name": "layers.batch_normalization_26.vars.0",
          "shape": [
            256
          ],
          "dtype": "float32"
        },
        {
          "name": "layers.batch_normalization_26.vars.1",
          "shape": [
            256
          ],
          "dtype": "float32"
        },
        {
          "name": "layers.batch_normalization_26.vars.2",
          "shape": [
            256
          ],
          "dtype": "float32"
        },
        {
          "name": "layers.batch_normalization_26.vars.3",
          "shape": [
            256
          ],
          "dtype": "float32"
        },
        {
          "name": "layers.batch_normalization_27.vars.0",
          "shape": [
            1024
          ],
          "dtype": "float32"
        },
        {
          "name": "layers.batch_normalization_27.vars.1",
          "shape": [
            1024
          ],
          "dtype": "float32"
        },
        {
          "name": "layers.batch_normalization_27.vars.2",
          "shape": [
            1024
          ],
          "dtype": "float32"
        },
        {
          "name": "layers.batch_normalization_27.vars.3",
          "shape": [
            1024
          ],
          "dtype": "float32"
        },
        {
          "name": "layers.batch_normalization_28.vars.0",
          "shape": [
            256
          ],
          "dtype": "float32"
        },
        {
          "name": "layers.batch_normalization_28.vars.1",
          "shape": [
            256
          ],
          "dtype": "float32"
        },
        {
          "name": "layers.batch_normalization_28.vars.2",
          "shape": [
            256
          ],
          "dtype": "float32"
        },
        {
          "name": "layers.batch_normalization_28.vars.3",
          "shape": [
            256
          ],
          "dtype": "float32"
        },
        {
          "name": "layers.batch_normalization_29.vars.0",
          "shape": [
            256
          ],
          "dtype": "float32"
        },
        {
          "name": "layers.batch_normalization_29.vars.1",
          "shape": [
            256
          ],
          "dtype": "float32"
        },
        {
          "name": "layers.batch_normalization_29.vars.2",
          "shape": [
            256
          ],
          "dtype": "float32"
        },
        {
          "name": "layers.batch_normalization_29.vars.3",
          "shape": [
            256
          ],
          "dtype": "float32"
        },
        {
          "name": "layers.batch_normalization_3.vars.0",
          "shape": [
            256
          ],
          "dtype": "float32"
        },
        {
          "name": "layers.batch_normalization_3.vars.1",
          "shape": [
            256
          ],
          "dtype": "float32"
        },
        {
          "name": "layers.batch_normalization_3.vars.2",
          "shape": [
            256
          ],
          "dtype": "float32"
        },
        {
          "name": "layers.batch_normalization_3.vars.3",
          "shape": [
            256
          ],
          "dtype": "float32"
        },
        {
          "name": "layers.batch_normalization_30.vars.0",
          "shape": [
            1024
          ],
          "dtype": "float32"
        },
        {
          "name": "layers.batch_normalization_30.vars.1",
          "shape": [
            1024
          ],
          "dtype": "float32"
        },
        {
          "name": "layers.batch_normalization_30.vars.2",
          "shape": [
            1024
          ],
          "dtype": "float32"
        },
        {
          "name": "layers.batch_normalization_30.vars.3",
          "shape": [
            1024
          ],
          "dtype": "float32"
        },
        {
          "name": "layers.batch_normalization_31.vars.0",
          "shape": [
            256
          ],
          "dtype": "float32"
        },
        {
          "name": "layers.batch_normalization_31.vars.1",
          "shape": [
            256
          ],
          "dtype": "float32"
        },
        {
          "name": "layers.batch_normalization_31.vars.2",
          "shape": [
            256
          ],
          "dtype": "float32"
        },
        {
          "name": "layers.batch_normalization_31.vars.3",
          "shape": [
            256
          ],
          "dtype": "float32"
        },
        {
          "name": "layers.batch_normalization_32.vars.0",
          "shape": [
            256
          ],
          "dtype": "float32"
        },
        {
          "name": "layers.batch_normalization_32.vars.1",
          "shape": [
            256
          ],
          "dtype": "float32"
        },
        {
          "name": "layers.batch_normalization_32.vars.2",
          "shape": [
            256
          ],
          "dtype": "float32"
        },
        {
          "name": "layers.batch_normalization_32.vars.3",
          "shape": [
            256
          ],
          "dtype": "float32"
        },
        {
          "name": "layers.batch_normalization_33.vars.0",
          "shape": [
            1024
          ],
          "dtype": "float32"
        },
        {
          "name": "layers.batch_normalization_33.vars.1",
          "shape": [
            1024
          ],
          "dtype": "float32"
        },
        {
          "name": "layers.batch_normalization_33.vars.2",
          "shape": [
            1024
          ],
          "dtype": "float32"
        },
        {
          "name": "layers.batch_normalization_33.vars.3",
          "shape": [
            1024
          ],
          "dtype": "float32"
        },
        {
          "name": "layers.batch_normalization_34.vars.0",
          "shape": [
            256
          ],
          "dtype": "float32"
        },
        {
          "name": "layers.batch_normalization_34.vars.1",
          "shape": [
            256
          ],
          "dtype": "float32"
        },
        {
          "name": "layers.batch_normalization_34.vars.2",
          "shape": [
            256
          ],
          "dtype": "float32"
        },
        {
          "name": "layers.batch_normalization_34.vars.3",
          "shape": [
            256
          ],
          "dtype": "float32"
        },
        {
          "name": "layers.batch_normalization_35.vars.0",
          "shape": [
            256
          ],
          "dtype": "float32"
        },
        {
          "name": "layers.batch_normalization_35.vars.1",
          "shape": [
            256
          ],
          "dtype": "float32"
        },
        {
          "name": "layers.batch_normalization_35.vars.2",
          "shape": [
            256
          ],
          "dtype": "float32"
        },
        {
          "name": "layers.batch_normalization_35.vars.3",
          "shape": [
            256
          ],
          "dtype": "float32"
        },
        {
          "name": "layers.batch_normalization_36.vars.0",
          "shape": [
            1024
          ],
          "dtype": "float32"
        },
        {
          "name": "layers.batch_normalization_36.vars.1",
          "shape": [
            1024
          ],
          "dtype": "float32"
        },
        {
          "name": "layers.batch_normalization_36.vars.2",
          "shape": [
            1024
          ],
          "dtype": "float32"
        },
        {
          "name": "layers.batch_normalization_36.vars.3",
          "shape": [
            1024
          ],
          "dtype": "float32"
        },
        {
          "name": "layers.batch_normalization_37.vars.0",
          "shape": [
            256
          ],
          "dtype": "float32"
        },
        {
          "name": "layers.batch_normalization_37.vars.1",
          "shape": [
            256
          ],
          "dtype": "float32"
        },
        {
          "name": "layers.batch_normalization_37.vars.2",
          "shape": [
            256
          ],
          "dtype": "float32"
        },
        {
          "name": "layers.batch_normalization_37.vars.3",
          "shape": [
            256
          ],
          "dtype": "float32"
        },
        {
          "name": "layers.batch_normalization_38.vars.0",
          "shape": [
            256
          ],
          "dtype": "float32"
        },
        {
          "name": "layers.batch_normalization_38.vars.1",
          "shape": [
            256
          ],
          "dtype": "float32"
        },
        {
          "name": "layers.batch_normalization_38.vars.2",
          "shape": [
            256
          ],
          "dtype": "float32"
        },
        {
          "name": "layers.batch_normalization_38.vars.3",
          "shape": [
            256
          ],
          "dtype": "float32"
        },
        {
          "name": "layers.batch_normalization_39.vars.0",
          "shape": [
            1024
          ],
          "dtype": "float32"
        },
        {
          "name": "layers.batch_normalization_39.vars.1",
          "shape": [
            1024
          ],
          "dtype": "float32"
        },
        {
          "name": "layers.batch_normalization_39.vars.2",
          "shape": [
            1024
          ],
          "dtype": "float32"
        },
        {
          "name": "layers.batch_normalization_39.vars.3",
          "shape": [
            1024
          ],
          "dtype": "float32"
        },
        {
          "name": "layers.batch_normalization_4.vars.0",
          "shape": [
            64
          ],
          "dtype": "float32"
        },
        {
          "name": "layers.batch_normalization_4.vars.1",
          "shape": [
            64
          ],
          "dtype": "float32"
        },
        {
          "name": "layers.batch_normalization_4.vars.2",
          "shape": [
            64
          ],
          "dtype": "float32"
        },
        {
          "name": "layers.batch_normalization_4.vars.3",
          "shape": [
            64
          ],
          "dtype": "float32"
        },
        {
          "name": "layers.batch_normalization_40.vars.0",
          "shape": [
            512
          ],
          "dtype": "float32"
        },
        {
          "name": "layers.batch_normalization_40.vars.1",
          "shape": [
            512
          ],
          "dtype": "float32"
        },
        {
          "name": "layers.batch_normalization_40.vars.2",
          "shape": [
            512
          ],
          "dtype": "float32"
        },
        {
          "name": "layers.batch_normalization_40.vars.3",
          "shape": [
            512
          ],
          "dtype": "float32"
        },
        {
          "name": "layers.batch_normalization_41.vars.0",
          "shape": [
            512
          ],
          "dtype": "float32"
        },
        {
          "name": "layers.batch_normalization_41.vars.1",
          "shape": [
            512
          ],
          "dtype": "float32"
        },
        {
          "name": "layers.batch_normalization_41.vars.2",
          "shape": [
            512
          ],
          "dtype": "float32"
        },
        {
          "name": "layers.batch_normalization_41.vars.3",
          "shape": [
            512
          ],
          "dtype": "float32"
        },
        {
          "name": "layers.batch_normalization_42.vars.0",
          "shape": [
            2048
          ],
          "dtype": "float32"
        },
        {
          "name": "layers.batch_normalization_42.vars.1",
          "shape": [
            2048
          ],
          "dtype": "float32"
        },
        {
          "name": "layers.batch_normalization_42.vars.2",
          "shape": [
            2048
          ],
          "dtype": "float32"
        },
        {
          "name": "layers.batch_normalization_42.vars.3",
          "shape": [
            2048
          ],
          "dtype": "float32"
        },
        {
          "name": "layers.batch_normalization_43.vars.0",
          "shape": [
            512
          ],
          "dtype": "float32"
        },
        {
          "name": "layers.batch_normalization_43.vars.1",
          "shape": [
            512
          ],
          "dtype": "float32"
        },
        {
          "name": "layers.batch_normalization_43.vars.2",
          "shape": [
            512
          ],
          "dtype": "float32"
        },
        {
          "name": "layers.batch_normalization_43.vars.3",
          "shape": [
            512
          ],
          "dtype": "float32"
        },
        {
          "name": "layers.batch_normalization_44.vars.0",
          "shape": [
            512
          ],
          "dtype": "float32"
        },
        {
          "name": "layers.batch_normalization_44.vars.1",
          "shape": [
            512
          ],
          "dtype": "float32"
        },
        {
          "name": "layers.batch_normalization_44.vars.2",
          "shape": [
            512
          ],
          "dtype": "float32"
        },
        {
          "name": "layers.batch_normalization_44.vars.3",
          "shape": [
            512
          ],
          "dtype": "float32"
        },
        {
          "name": "layers.batch_normalization_45.vars.0",
          "shape": [
            2048
          ],
          "dtype": "float32"
        },
        {
          "name": "layers.batch_normalization_45.vars.1",
          "shape": [
            2048
          ],
          "dtype": "float32"
        },
        {
          "name": "layers.batch_normalization_45.vars.2",
          "shape": [
            2048
          ],
          "dtype": "float32"
        },
        {
          "name": "layers.batch_normalization_45.vars.3",
          "shape": [
            2048
          ],
          "dtype": "float32"
        },
        {
          "name": "layers.batch_normalization_46.vars.0",
          "shape": [
            512
          ],
          "dtype": "float32"
        },
        {
          "name": "layers.batch_normalization_46.vars.1",
          "shape": [
            512
          ],
          "dtype": "float32"
        },
        {
          "name": "layers.batch_normalization_46.vars.2",
          "shape": [
            512
          ],
          "dtype": "float32"
        },
        {
          "name": "layers.batch_normalization_46.vars.3",
          "shape": [
            512
          ],
          "dtype": "float32"
        },
        {
          "name": "layers.batch_normalization_47.vars.0",
          "shape": [
            512
          ],
          "dtype": "float32"
        },
        {
          "name": "layers.batch_normalization_47.vars.1",
          "shape": [
            512
          ],
          "dtype": "float32"
        },
        {
          "name": "layers.batch_normalization_47.vars.2",
          "shape": [
            512
          ],
          "dtype": "float32"
        },
        {
          "name": "layers.batch_normalization_47.vars.3",
          "shape": [
            512
          ],
          "dtype": "float32"
        },
        {
          "name": "layers.batch_normalization_48.vars.0",
          "shape": [
            2048
          ],
          "dtype": "float32"
        },
        {
          "name": "layers.batch_normalization_48.vars.1",
          "shape": [
            2048
          ],
          "dtype": "float32"
        },
        {
          "name": "layers.batch_normalization_48.vars.2",
          "shape": [
            2048
          ],
          "dtype": "float32"
        },
        {
          "name": "layers.batch_normalization_48.vars.3",
          "shape": [
            2048
          ],
          "dtype": "float32"
        },
        {
          "name": "layers.batch_normalization_5.vars.0",
          "shape": [
            64
          ],
          "dtype": "float32"
        },
        {
          "name": "layers.batch_normalization_5.vars.1",
          "shape": [
            64
          ],
          "dtype": "float32"
        },
        {
          "name": "layers.batch_normalization_5.vars.2",
          "shape": [
            64
          ],
          "dtype": "float32"
        },
        {
          "name": "layers.batch_normalization_5.vars.3",
          "shape": [
            64
          ],
          "dtype": "float32"
        },
        {
          "name": "layers.batch_normalization_6.vars.0",
          "shape": [
            256
          ],
          "dtype": "float32"
        },
        {
          "name": "layers.batch_normalization_6.vars.1",
          "shape": [
            256
          ],
          "dtype": "float32"
        },
        {
          "name": "layers.batch_normalization_6.vars.2",
          "shape": [
            256
          ],
          "dtype": "float32"
        },
        {
          "name": "layers.batch_normalization_6.vars.3",
          "shape": [
            256
          ],
          "dtype": "float32"
        },
        {
          "name": "layers.batch_normalization_7.vars.0",
          "shape": [
            64
          ],
          "dtype": "float32"
        },
        {
          "name": "layers.batch_normalization_7.vars.1",
          "shape": [
            64
          ],
          "dtype": "float32"
        },
        {
          "name": "layers.batch_normalization_7.vars.2",
          "shape": [
            64
          ],
          "dtype": "float32"
        },
        {
          "name": "layers.batch_normalization_7.vars.3",
          "shape": [
            64
          ],
          "dtype": "float32"
        },
        {
          "name": "layers.batch_normalization_8.vars.0",
          "shape": [
            64
          ],
          "dtype": "float32"
        },
        {
          "name": "layers.batch_normalization_8.vars.1",
          "shape": [
            64
          ],
          "dtype": "float32"
        },
        {
          "name": "layers.batch_normalization_8.vars.2",
          "shape": [
            64
          ],
          "dtype": "float32"
        },
        {
          "name": "layers.batch_normalization_8.vars.3",
          "shape": [
            64
          ],
          "dtype": "float32"
        },
        {
          "name": "layers.batch_normalization_9.vars.0",
          "shape": [
            256
          ],
          "dtype": "float32"
        },
        {
          "name": "layers.batch_normalization_9.vars.1",
          "shape": [
            256
          ],
          "dtype": "float32"
        },
        {
          "name": "layers.batch_normalization_9.vars.2",
          "shape": [
            256
          ],
          "dtype": "float32"
        },
        {
          "name": "layers.batch_normalization_9.vars.3",
          "shape": [
            256
          ],
          "dtype": "float32"
        },
        {
          "name": "layers.conv2d.vars.0",
          "shape": [
            7,
            7,
            3,
            64
          ],
          "dtype": "float32"
        },
        {
          "name": "layers.conv2d.vars.1",
          "shape": [
            64
          ],
          "dtype": "float32"
        },
        {
          "name": "layers.conv2d_1.vars.0",
          "shape": [
            1,
            1,
            64,
            64
          ],
          "dtype": "float32"
        },
        {
          "name": "layers.conv2d_10.vars.0",
          "shape": [
            1,
            1,
            64,
            256
          ],
          "dtype": "float32"
        },
        {
          "name": "layers.conv2d_10.vars.1",
          "shape": [
            256
          ],
          "dtype": "float32"
        },
        {
          "name": "layers.conv2d_11.vars.0",
          "shape": [
            1,
            1,
            256,
            128
          ],
          "dtype": "float32"
        },
        {
          "name": "layers.conv2d_12.vars.0",
          "shape": [
            3,
            3,
            128,
            128
          ],
          "dtype": "float32"
        },
        {
          "name": "layers.conv2d_13.vars.0",
          "shape": [
            1,
            1,
            256,
            512
          ],
          "dtype": "float32"
        },
        {
          "name": "layers.conv2d_13.vars.1",
          "shape": [
            512
          ],
          "dtype": "float32"
        },
        {
          "name": "layers.conv2d_14.vars.0",
          "shape": [
            1,
            1,
            128,
            512
          ],
          "dtype": "float32"
        },
        {
          "name": "layers.conv2d_14.vars.1",
          "shape": [
            512
          ],
          "dtype": "float32"
        },
        {
          "name": "layers.conv2d_15.vars.0",
          "shape": [
            1,
            1,
            512,
            128
          ],
          "dtype": "float32"
        },
        {
          "name": "layers.conv2d_16.vars.0",
          "shape": [
            3,
            3,
            128,
            128
          ],
          "dtype": "float32"
        },
        {
          "name": "layers.conv2d_17.vars.0",
          "shape": [
            1,
            1,
            128,
            512
          ],
          "dtype": "float32"
        },
        {
          "name": "layers.conv2d_17.vars.1",
          "shape": [
            512
          ],
          "dtype": "float32"
        },
        {
          "name": "layers.conv2d_18.vars.0",
          "shape": [
            1,
            1,
            512,
            128
          ],
          "dtype": "float32"
        },
        {
          "name": "layers.conv2d_19.vars.0",
          "shape": [
            3,
            3,
            128,
            128
          ],
          "dtype": "float32"
        },
        {
          "name": "layers.conv2d_2.vars.0",
          "shape": [
            3,
            3,
            64,
            64
          ],
          "dtype": "float32"
        },
        {
          "name": "layers.conv2d_20.vars.0",
          "shape": [
            1,
            1,
            128,
            512
          ],
          "dtype": "float32"
        },
        {
          "name": "layers.conv2d_20.vars.1",
          "shape": [
            512
          ],
          "dtype": "float32"
        },
        {
          "name": "layers.conv2d_21.vars.0",
          "shape": [
            1,
            1,
            512,
            128
          ],
          "dtype": "float32"
        },
        {
          "name": "layers.conv2d_22.vars.0",
          "shape": [
            3,
            3,
            128,
            128
          ],
          "dtype": "float32"
        },
        {
          "name": "layers.conv2d_23.vars.0",
          "shape": [
            1,
            1,
            128,
            512
          ],
          "dtype": "float32"
        },
        {
          "name": "layers.conv2d_23.vars.1",
          "shape": [
            512
          ],
          "dtype": "float32"
        },
        {
          "name": "layers.conv2d_24.vars.0",
          "shape": [
            1,
            1,
            512,
            256
          ],
          "dtype": "float32"
        },
        {
          "name": "layers.conv2d_25.vars.0",
          "shape": [
            3,
            3,
            256,
            256
          ],
          "dtype": "float32"
        },
        {
          "name": "layers.conv2d_26.vars.0",
          "shape": [
            1,
            1,
            512,
            1024
          ],
          "dtype": "float32"
        },
        {
          "name": "layers.conv2d_26.vars.1",
          "shape": [
            1024
          ],
          "dtype": "float32"
        },
        {
          "name": "layers.conv2d_27.vars.0",
          "shape": [
            1,
            1,
            256,
            1024
          ],
          "dtype": "float32"
        },
        {
          "name": "layers.conv2d_27.vars.1",
          "shape": [
            1024
          ],
          "dtype": "float32"
        },
        {
          "name": "layers.conv2d_28.vars.0",
          "shape": [
            1,
            1,
            1024,
            256
          ],
          "dtype": "float32"
        },
        {
          "name": "layers.conv2d_29.vars.0",
          "shape": [
            3,
            3,
            256,
            256
          ],
          "dtype": "float32"
        },
        {
          "name": "layers.conv2d_3.vars.0",
          "shape": [
            1,
            1,
            64,
            256
          ],
          "dtype": "float32"
        },
        {
          "name": "layers.conv2d_3.vars.1",
          "shape": [
            256
          ],
          "dtype": "float32"
        },
        {
          "name": "layers.conv2d_30.vars.0",
          "shape": [
            1,
            1,
            256,
            1024
          ],
          "dtype": "float32"
        },
        {
          "name": "layers.conv2d_30.vars.1",
          "shape": [
            1024
          ],
          "dtype": "float32"
        },
        {
          "name": "layers.conv2d_31.vars.0",
          "shape": [
            1,
            1,
            1024,
            256
          ],
          "dtype": "float32"
        },
        {
          "name": "layers.conv2d_32.vars.0",
          "shape": [
            3,
            3,
            256,
            256
          ],
          "dtype": "float32"
        },
        {
          "name": "layers.conv2d_33.vars.0",
          "shape": [
            1,
            1,
            256,
            1024
          ],
          "dtype": "float32"
        },
        {
          "name": "layers.conv2d_33.vars.1",
          "shape": [
            1024
          ],
          "dtype": "float32"
        },
        {
          "name": "layers.conv2d_34.vars.0",
          "shape": [
            1,
            1,
            1024,
            256
          ],
          "dtype": "float32"
        },
        {
          "name": "layers.conv2d_35.vars.0",
          "shape": [
            3,
            3,
            256,
            256
          ],
          "dtype": "float32"
        },
        {
          "name": "layers.conv2d_36.vars.0",
          "shape": [
            1,
            1,
            256,
            1024
          ],
          "dtype": "float32"
        },
        {
          "name": "layers.conv2d_36.vars.1",
          "shape": [
            1024
          ],
          "dtype": "float32"
        },
        {
          "name": "layers.conv2d_37.vars.0",
          "shape": [
            1,
            1,
            1024,
            256
          ],
          "dtype": "float32"
        },
        {
          "name": "layers.conv2d_38.vars.0",
          "shape": [
            3,
            3,
            256,
            256
          ],
          "dtype": "float32"
        },
        {
          "name": "layers.conv2d_39.vars.0",
          "shape": [
            1,
            1,
            256,
            1024
          ],
          "dtype": "float32"
        },
        {
          "name": "layers.conv2d_39.vars.1",
          "shape": [
            1024
          ],
          "dtype": "float32"
        },
        {
          "name": "layers.conv2d_4.vars.0",
          "shape": [
            1,
            1,
            64,
            256
          ],
          "dtype": "float32"
        },
        {
          "name": "layers.conv2d_4.vars.1",
          "shape": [
            256
          ],
          "dtype": "float32"
        },
        {
          "name": "layers.conv2d_40.vars.0",
          "shape": [
            1,
            1,
            1024,
            256
          ],
          "dtype": "float32"
        },
        {
          "name": "layers.conv2d_41.vars.0",
          "shape": [
            3,
            3,
            256,
            256
          ],
          "dtype": "float32"
        },
        {
          "name": "layers.conv2d_42.vars.0",
          "shape": [
            1,
            1,
            256,
            1024
          ],
          "dtype": "float32"
        },
        {
          "name": "layers.conv2d_42.vars.1",
          "shape": [
            1024
          ],
          "dtype": "float32"
        },
        {
          "name": "layers.conv2d_43.vars.0",
          "shape": [
            1,
            1,
            1024,
            512
          ],
          "dtype": "float32"
        },
        {
          "name": "layers.conv2d_44.vars.0",
          "shape": [
            3,
            3,
            512,
            512
          ],
          "dtype": "float32"
        },
        {
          "name": "layers.conv2d_45.vars.0",
          "shape": [
            1,
            1,
            1024,
            2048
          ],
          "dtype": "float32"
        },
        {
          "name": "layers.conv2d_45.vars.1",
          "shape": [
            2048
          ],
          "dtype": "float32"
        },
        {
          "name": "layers.conv2d_46.vars.0",
          "shape": [
            1,
            1,
            512,
            2048
          ],
          "dtype": "float32"
        },
        {
          "name": "layers.conv2d_46.vars.1",
          "shape": [
            2048
          ],
          "dtype": "float32"
        },
        {
          "name": "layers.conv2d_47.vars.0",
          "shape": [
            1,
            1,
            2048,
            512
          ],
          "dtype": "float32"
        },
        {
          "name": "layers.conv2d_48.vars.0",
          "shape": [
            3,
            3,
            512,
            512
          ],
          "dtype": "float32"
        },
        {
          "name": "layers.conv2d_49.vars.0",
          "shape": [
            1,
            1,
            512,
            2048
          ],
          "dtype": "float32"
        },
        {
          "name": "layers.conv2d_49.vars.1",
          "shape": [
            2048
          ],
          "dtype": "float32"
        },
        {
          "name": "layers.conv2d_5.vars.0",
          "shape": [
            1,
            1,
            256,
            64
          ],
          "dtype": "float32"
        },
        {
          "name": "layers.conv2d_50.vars.0",
          "shape": [
            1,
            1,
            2048,
            512
          ],
          "dtype": "float32"
        },
        {
          "name": "layers.conv2d_51.vars.0",
          "shape": [
            3,
            3,
            512,
            512
          ],
          "dtype": "float32"
        },
        {
          "name": "layers.conv2d_52.vars.0",
          "shape": [
            1,
            1,
            512,
            2048
          ],
          "dtype": "float32"
        },
        {
          "name": "layers.conv2d_52.vars.1",
          "shape": [
            2048
          ],
          "dtype": "float32"
        },
        {
          "name": "layers.conv2d_6.vars.0",
          "shape": [
            3,
            3,
            64,
            64
          ],
          "dtype": "float32"
        },
        {
          "name": "layers.conv2d_7.vars.0",
          "shape": [
            1,
            1,
            64,
            256
          ],
          "dtype": "float32"
        },
        {
          "name": "layers.conv2d_7.vars.1",
          "shape": [
            256
          ],
          "dtype": "float32"
        },
        {
          "name": "layers.conv2d_8.vars.0",
          "shape": [
            1,
            1,
            256,
            64
          ],
          "dtype": "float32"
        },
        {
          "name": "layers.conv2d_9.vars.0",
          "shape": [
            3,
            3,
            64,
            64
          ],
          "dtype": "float32"
        },
        {
          "name": "layers.dense.vars.0",
          "shape": [
            2048,
            256
          ],
          "dtype": "float32"
        },
        {
          "name": "layers.dense.vars.1",
          "shape": [
            256
          ],
          "dtype": "float32"
        },
        {
          "name": "layers.dense_1.vars.0",
          "shape": [
            256,
            128
          ],
          "dtype": "float32"
        },
        {
          "name": "layers.dense_1.vars.1",
          "shape": [
            128
          ],
          "dtype": "float32"
        },
        {
          "name": "layers.dense_2.vars.0",
          "shape": [
            128,
            1
          ],
          "dtype": "float32"
        },
        {
          "name": "layers.dense_2.vars.1",
          "shape": [
            1
          ],
          "dtype": "float32"
        },
        {
          "name": "optimizer.vars.1",
          "shape": [
            2048,
            256
          ],
          "dtype": "float32"
        },
        {
          "name": "optimizer.vars.10",
          "shape": [
            128,
            1
          ],
          "dtype": "float32"
        },
        {
          "name": "optimizer.vars.11",
          "shape": [
            1
          ],
          "dtype": "float32"
        },
        {
          "name": "optimizer.vars.12",
          "shape": [
            1
          ],
          "dtype": "float32"
        },
        {
          "name": "optimizer.vars.2",
          "shape": [
            2048,
            256
          ],
          "dtype": "float32"
        },
        {
          "name": "optimizer.vars.3",
          "shape": [
            256
          ],
          "dtype": "float32"
        },
        {
          "name": "optimizer.vars.4",
          "shape": [
            256
          ],
          "dtype": "float32"
        },
        {
          "name": "optimizer.vars.5",
          "shape": [
            256,
            128
          ],
          "dtype": "float32"
        },
        {
          "name": "optimizer.vars.6",
          "shape": [
            256,
            128
          ],
          "dtype": "float32"
        },
        {
          "name": "optimizer.vars.7",
          "shape": [
            128
          ],
          "dtype": "float32"
        },
        {
          "name": "optimizer.vars.8",
          "shape": [
            128
          ],
          "dtype": "float32"
        },
        {
          "name": "optimizer.vars.9",
          "shape": [
            128,
            1
          ],
          "dtype": "float32"
        }
      ]
    }
  ]
}